{"format": "graph-model", "generatedBy": "2.15.0", "convertedBy": "TensorFlow.js Converter v4.20.0", "signature": {"inputs": {"input_1": {"name": "input_1:0", "dtype": "DT_FLOAT", "tensorShape": {"dim": [{"size": "-1"}, {"size": "512"}, {"size": "512"}, {"size": "3"}]}}}, "outputs": {"u2_net": {"name": "Identity:0", "dtype": "DT_FLOAT", "tensorShape": {"dim": [{"size": "-1"}, {"size": "512"}, {"size": "512"}, {"size": "1"}]}}}}, "modelTopology": {"node": [{"name": "StatefulPartitionedCall/U2NetOneOutput/u2_net/rsu7_1/green_105/conv2d_105/Conv2D/SpaceToBatchND/block_shape", "op": "Const", "attr": {"dtype": {"type": "DT_INT32"}, "value": {"tensor": {"dtype": "DT_INT32", "tensorShape": {"dim": [{"size": "2"}]}}}}}, {"name": "StatefulPartitionedCall/U2NetOneOutput/u2_net/rsu7_1/green_105/conv2d_105/Conv2D/SpaceToBatchND/paddings", "op": "Const", "attr": {"dtype": {"type": "DT_INT32"}, "value": {"tensor": {"dtype": "DT_INT32", "tensorShape": {"dim": [{"size": "2"}, {"size": "2"}]}}}}}, {"name": "StatefulPartitionedCall/U2NetOneOutput/u2_net/rsu7_1/green_105/conv2d_105/Conv2D/ReadVariableOp", "op": "Const", "attr": {"dtype": {"type": "DT_FLOAT"}, "value": {"tensor": {"dtype": "DT_FLOAT", "tensorShape": {"dim": [{"size": "3"}, {"size": "3"}, {"size": "16"}, {"size": "16"}]}}}}}, {"name": "StatefulPartitionedCall/U2NetOneOutput/u2_net/rsu7_1/green_105/conv2d_105/Conv2D/BatchToSpaceND/block_shape", "op": "Const", "attr": {"value": {"tensor": {"dtype": "DT_INT32", "tensorShape": {"dim": [{"size": "2"}]}}}, "dtype": {"type": "DT_INT32"}}}, {"name": "StatefulPartitionedCall/U2NetOneOutput/u2_net/rsu7_1/green_105/conv2d_105/Conv2D/BatchToSpaceND/crops", "op": "Const", "attr": {"dtype": {"type": "DT_INT32"}, "value": {"tensor": {"dtype": "DT_INT32", "tensorShape": {"dim": [{"size": "2"}, {"size": "2"}]}}}}}, {"name": "StatefulPartitionedCall/U2NetOneOutput/u2_net/rsu7_1/green_105/conv2d_105/BiasAdd/ReadVariableOp", "op": "Const", "attr": {"value": {"tensor": {"dtype": "DT_FLOAT", "tensorShape": {"dim": [{"size": "16"}]}}}, "dtype": {"type": "DT_FLOAT"}}}, {"name": "StatefulPartitionedCall/U2NetOneOutput/u2_net/rsu7_1/concatenate_44/concat/axis", "op": "Const", "attr": {"value": {"tensor": {"dtype": "DT_INT32", "tensorShape": {}}}, "dtype": {"type": "DT_INT32"}}}, {"name": "StatefulPartitionedCall/U2NetOneOutput/u2_net/rsu7_1/pink_23/up_sampling2d_23/mul", "op": "Const", "attr": {"dtype": {"type": "DT_INT32"}, "value": {"tensor": {"dtype": "DT_INT32", "tensorShape": {"dim": [{"size": "2"}]}}}}}, {"name": "StatefulPartitionedCall/U2NetOneOutput/u2_net/rsu7_1/pink_23/concatenate_45/concat/axis", "op": "Const", "attr": {"dtype": {"type": "DT_INT32"}, "value": {"tensor": {"dtype": "DT_INT32", "tensorShape": {}}}}}, {"name": "StatefulPartitionedCall/U2NetOneOutput/u2_net/rsu7_1/pink_24/up_sampling2d_24/mul", "op": "Const", "attr": {"value": {"tensor": {"dtype": "DT_INT32", "tensorShape": {"dim": [{"size": "2"}]}}}, "dtype": {"type": "DT_INT32"}}}, {"name": "StatefulPartitionedCall/U2NetOneOutput/u2_net/rsu7_1/pink_24/concatenate_46/concat/axis", "op": "Const", "attr": {"dtype": {"type": "DT_INT32"}, "value": {"tensor": {"dtype": "DT_INT32", "tensorShape": {}}}}}, {"name": "StatefulPartitionedCall/U2NetOneOutput/u2_net/rsu7_1/pink_25/up_sampling2d_25/mul", "op": "Const", "attr": {"value": {"tensor": {"dtype": "DT_INT32", "tensorShape": {"dim": [{"size": "2"}]}}}, "dtype": {"type": "DT_INT32"}}}, {"name": "StatefulPartitionedCall/U2NetOneOutput/u2_net/rsu7_1/pink_25/concatenate_47/concat/axis", "op": "Const", "attr": {"value": {"tensor": {"dtype": "DT_INT32", "tensorShape": {}}}, "dtype": {"type": "DT_INT32"}}}, {"name": "StatefulPartitionedCall/U2NetOneOutput/u2_net/rsu7_1/pink_26/up_sampling2d_26/mul", "op": "Const", "attr": {"value": {"tensor": {"dtype": "DT_INT32", "tensorShape": {"dim": [{"size": "2"}]}}}, "dtype": {"type": "DT_INT32"}}}, {"name": "StatefulPartitionedCall/U2NetOneOutput/u2_net/rsu7_1/pink_26/concatenate_48/concat/axis", "op": "Const", "attr": {"dtype": {"type": "DT_INT32"}, "value": {"tensor": {"dtype": "DT_INT32", "tensorShape": {}}}}}, {"name": "StatefulPartitionedCall/U2NetOneOutput/u2_net/rsu7_1/pink_27/up_sampling2d_27/mul", "op": "Const", "attr": {"dtype": {"type": "DT_INT32"}, "value": {"tensor": {"dtype": "DT_INT32", "tensorShape": {"dim": [{"size": "2"}]}}}}}, {"name": "StatefulPartitionedCall/U2NetOneOutput/u2_net/rsu7_1/pink_27/concatenate_49/concat/axis", "op": "Const", "attr": {"value": {"tensor": {"dtype": "DT_INT32", "tensorShape": {}}}, "dtype": {"type": "DT_INT32"}}}, {"name": "StatefulPartitionedCall/U2NetOneOutput/u2_net/up_sampling2d_4/mul", "op": "Const", "attr": {"value": {"tensor": {"dtype": "DT_INT32", "tensorShape": {"dim": [{"size": "2"}]}}}, "dtype": {"type": "DT_INT32"}}}, {"name": "StatefulPartitionedCall/U2NetOneOutput/u2_net/concatenate_43/concat/axis", "op": "Const", "attr": {"value": {"tensor": {"dtype": "DT_INT32", "tensorShape": {}}}, "dtype": {"type": "DT_INT32"}}}, {"name": "StatefulPartitionedCall/U2NetOneOutput/u2_net/conv2d_113/Conv2D/ReadVariableOp", "op": "Const", "attr": {"value": {"tensor": {"dtype": "DT_FLOAT", "tensorShape": {"dim": [{"size": "3"}, {"size": "3"}, {"size": "64"}, {"size": "1"}]}}}, "dtype": {"type": "DT_FLOAT"}}}, {"name": "StatefulPartitionedCall/U2NetOneOutput/u2_net/conv2d_113/BiasAdd/ReadVariableOp", "op": "Const", "attr": {"value": {"tensor": {"dtype": "DT_FLOAT", "tensorShape": {"dim": [{"size": "1"}]}}}, "dtype": {"type": "DT_FLOAT"}}}, {"name": "StatefulPartitionedCall/U2NetOneOutput/u2_net/rsu6_1/green_92/conv2d_92/Conv2D/SpaceToBatchND/block_shape", "op": "Const", "attr": {"value": {"tensor": {"dtype": "DT_INT32", "tensorShape": {"dim": [{"size": "2"}]}}}, "dtype": {"type": "DT_INT32"}}}, {"name": "StatefulPartitionedCall/U2NetOneOutput/u2_net/rsu6_1/green_92/conv2d_92/Conv2D/SpaceToBatchND/paddings", "op": "Const", "attr": {"dtype": {"type": "DT_INT32"}, "value": {"tensor": {"dtype": "DT_INT32", "tensorShape": {"dim": [{"size": "2"}, {"size": "2"}]}}}}}, {"name": "StatefulPartitionedCall/U2NetOneOutput/u2_net/rsu6_1/green_92/conv2d_92/Conv2D/ReadVariableOp", "op": "Const", "attr": {"value": {"tensor": {"dtype": "DT_FLOAT", "tensorShape": {"dim": [{"size": "3"}, {"size": "3"}, {"size": "32"}, {"size": "32"}]}}}, "dtype": {"type": "DT_FLOAT"}}}, {"name": "StatefulPartitionedCall/U2NetOneOutput/u2_net/rsu6_1/green_92/conv2d_92/Conv2D/BatchToSpaceND/block_shape", "op": "Const", "attr": {"dtype": {"type": "DT_INT32"}, "value": {"tensor": {"dtype": "DT_INT32", "tensorShape": {"dim": [{"size": "2"}]}}}}}, {"name": "StatefulPartitionedCall/U2NetOneOutput/u2_net/rsu6_1/green_92/conv2d_92/Conv2D/BatchToSpaceND/crops", "op": "Const", "attr": {"dtype": {"type": "DT_INT32"}, "value": {"tensor": {"dtype": "DT_INT32", "tensorShape": {"dim": [{"size": "2"}, {"size": "2"}]}}}}}, {"name": "StatefulPartitionedCall/U2NetOneOutput/u2_net/rsu6_1/green_92/conv2d_92/BiasAdd/ReadVariableOp", "op": "Const", "attr": {"dtype": {"type": "DT_FLOAT"}, "value": {"tensor": {"dtype": "DT_FLOAT", "tensorShape": {"dim": [{"size": "32"}]}}}}}, {"name": "StatefulPartitionedCall/U2NetOneOutput/u2_net/rsu6_1/concatenate_38/concat/axis", "op": "Const", "attr": {"dtype": {"type": "DT_INT32"}, "value": {"tensor": {"dtype": "DT_INT32", "tensorShape": {}}}}}, {"name": "StatefulPartitionedCall/U2NetOneOutput/u2_net/rsu6_1/pink_19/up_sampling2d_19/mul", "op": "Const", "attr": {"value": {"tensor": {"dtype": "DT_INT32", "tensorShape": {"dim": [{"size": "2"}]}}}, "dtype": {"type": "DT_INT32"}}}, {"name": "StatefulPartitionedCall/U2NetOneOutput/u2_net/rsu6_1/pink_19/concatenate_39/concat/axis", "op": "Const", "attr": {"dtype": {"type": "DT_INT32"}, "value": {"tensor": {"dtype": "DT_INT32", "tensorShape": {}}}}}, {"name": "StatefulPartitionedCall/U2NetOneOutput/u2_net/rsu6_1/pink_20/up_sampling2d_20/mul", "op": "Const", "attr": {"value": {"tensor": {"dtype": "DT_INT32", "tensorShape": {"dim": [{"size": "2"}]}}}, "dtype": {"type": "DT_INT32"}}}, {"name": "StatefulPartitionedCall/U2NetOneOutput/u2_net/rsu6_1/pink_20/concatenate_40/concat/axis", "op": "Const", "attr": {"dtype": {"type": "DT_INT32"}, "value": {"tensor": {"dtype": "DT_INT32", "tensorShape": {}}}}}, {"name": "StatefulPartitionedCall/U2NetOneOutput/u2_net/rsu6_1/pink_21/up_sampling2d_21/mul", "op": "Const", "attr": {"value": {"tensor": {"dtype": "DT_INT32", "tensorShape": {"dim": [{"size": "2"}]}}}, "dtype": {"type": "DT_INT32"}}}, {"name": "StatefulPartitionedCall/U2NetOneOutput/u2_net/rsu6_1/pink_21/concatenate_41/concat/axis", "op": "Const", "attr": {"value": {"tensor": {"dtype": "DT_INT32", "tensorShape": {}}}, "dtype": {"type": "DT_INT32"}}}, {"name": "StatefulPartitionedCall/U2NetOneOutput/u2_net/rsu6_1/pink_22/up_sampling2d_22/mul", "op": "Const", "attr": {"value": {"tensor": {"dtype": "DT_INT32", "tensorShape": {"dim": [{"size": "2"}]}}}, "dtype": {"type": "DT_INT32"}}}, {"name": "StatefulPartitionedCall/U2NetOneOutput/u2_net/rsu6_1/pink_22/concatenate_42/concat/axis", "op": "Const", "attr": {"dtype": {"type": "DT_INT32"}, "value": {"tensor": {"dtype": "DT_INT32", "tensorShape": {}}}}}, {"name": "StatefulPartitionedCall/U2NetOneOutput/u2_net/up_sampling2d_3/mul", "op": "Const", "attr": {"value": {"tensor": {"dtype": "DT_INT32", "tensorShape": {"dim": [{"size": "2"}]}}}, "dtype": {"type": "DT_INT32"}}}, {"name": "StatefulPartitionedCall/U2NetOneOutput/u2_net/concatenate_37/concat/axis", "op": "Const", "attr": {"dtype": {"type": "DT_INT32"}, "value": {"tensor": {"dtype": "DT_INT32", "tensorShape": {}}}}}, {"name": "StatefulPartitionedCall/U2NetOneOutput/u2_net/conv2d_114/Conv2D/ReadVariableOp", "op": "Const", "attr": {"dtype": {"type": "DT_FLOAT"}, "value": {"tensor": {"dtype": "DT_FLOAT", "tensorShape": {"dim": [{"size": "3"}, {"size": "3"}, {"size": "64"}, {"size": "1"}]}}}}}, {"name": "StatefulPartitionedCall/U2NetOneOutput/u2_net/conv2d_114/BiasAdd/ReadVariableOp", "op": "Const", "attr": {"value": {"tensor": {"dtype": "DT_FLOAT", "tensorShape": {"dim": [{"size": "1"}]}}}, "dtype": {"type": "DT_FLOAT"}}}, {"name": "StatefulPartitionedCall/U2NetOneOutput/u2_net/up_sampling2d_5/mul", "op": "Const", "attr": {"value": {"tensor": {"dtype": "DT_INT32", "tensorShape": {"dim": [{"size": "2"}]}}}, "dtype": {"type": "DT_INT32"}}}, {"name": "StatefulPartitionedCall/U2NetOneOutput/u2_net/rsu5_1/green_81/conv2d_81/Conv2D/SpaceToBatchND/block_shape", "op": "Const", "attr": {"value": {"tensor": {"dtype": "DT_INT32", "tensorShape": {"dim": [{"size": "2"}]}}}, "dtype": {"type": "DT_INT32"}}}, {"name": "StatefulPartitionedCall/U2NetOneOutput/u2_net/rsu5_1/green_81/conv2d_81/Conv2D/SpaceToBatchND/paddings", "op": "Const", "attr": {"value": {"tensor": {"dtype": "DT_INT32", "tensorShape": {"dim": [{"size": "2"}, {"size": "2"}]}}}, "dtype": {"type": "DT_INT32"}}}, {"name": "StatefulPartitionedCall/U2NetOneOutput/u2_net/rsu5_1/green_81/conv2d_81/Conv2D/ReadVariableOp", "op": "Const", "attr": {"value": {"tensor": {"dtype": "DT_FLOAT", "tensorShape": {"dim": [{"size": "3"}, {"size": "3"}, {"size": "64"}, {"size": "64"}]}}}, "dtype": {"type": "DT_FLOAT"}}}, {"name": "StatefulPartitionedCall/U2NetOneOutput/u2_net/rsu5_1/green_81/conv2d_81/Conv2D/BatchToSpaceND/block_shape", "op": "Const", "attr": {"value": {"tensor": {"dtype": "DT_INT32", "tensorShape": {"dim": [{"size": "2"}]}}}, "dtype": {"type": "DT_INT32"}}}, {"name": "StatefulPartitionedCall/U2NetOneOutput/u2_net/rsu5_1/green_81/conv2d_81/Conv2D/BatchToSpaceND/crops", "op": "Const", "attr": {"dtype": {"type": "DT_INT32"}, "value": {"tensor": {"dtype": "DT_INT32", "tensorShape": {"dim": [{"size": "2"}, {"size": "2"}]}}}}}, {"name": "StatefulPartitionedCall/U2NetOneOutput/u2_net/rsu5_1/green_81/conv2d_81/BiasAdd/ReadVariableOp", "op": "Const", "attr": {"dtype": {"type": "DT_FLOAT"}, "value": {"tensor": {"dtype": "DT_FLOAT", "tensorShape": {"dim": [{"size": "64"}]}}}}}, {"name": "StatefulPartitionedCall/U2NetOneOutput/u2_net/rsu5_1/concatenate_33/concat/axis", "op": "Const", "attr": {"dtype": {"type": "DT_INT32"}, "value": {"tensor": {"dtype": "DT_INT32", "tensorShape": {}}}}}, {"name": "StatefulPartitionedCall/U2NetOneOutput/u2_net/rsu5_1/pink_16/up_sampling2d_16/mul", "op": "Const", "attr": {"dtype": {"type": "DT_INT32"}, "value": {"tensor": {"dtype": "DT_INT32", "tensorShape": {"dim": [{"size": "2"}]}}}}}, {"name": "StatefulPartitionedCall/U2NetOneOutput/u2_net/rsu5_1/pink_16/concatenate_34/concat/axis", "op": "Const", "attr": {"dtype": {"type": "DT_INT32"}, "value": {"tensor": {"dtype": "DT_INT32", "tensorShape": {}}}}}, {"name": "StatefulPartitionedCall/U2NetOneOutput/u2_net/rsu5_1/pink_17/up_sampling2d_17/mul", "op": "Const", "attr": {"value": {"tensor": {"dtype": "DT_INT32", "tensorShape": {"dim": [{"size": "2"}]}}}, "dtype": {"type": "DT_INT32"}}}, {"name": "StatefulPartitionedCall/U2NetOneOutput/u2_net/rsu5_1/pink_17/concatenate_35/concat/axis", "op": "Const", "attr": {"dtype": {"type": "DT_INT32"}, "value": {"tensor": {"dtype": "DT_INT32", "tensorShape": {}}}}}, {"name": "StatefulPartitionedCall/U2NetOneOutput/u2_net/rsu5_1/pink_18/up_sampling2d_18/mul", "op": "Const", "attr": {"value": {"tensor": {"dtype": "DT_INT32", "tensorShape": {"dim": [{"size": "2"}]}}}, "dtype": {"type": "DT_INT32"}}}, {"name": "StatefulPartitionedCall/U2NetOneOutput/u2_net/rsu5_1/pink_18/concatenate_36/concat/axis", "op": "Const", "attr": {"dtype": {"type": "DT_INT32"}, "value": {"tensor": {"dtype": "DT_INT32", "tensorShape": {}}}}}, {"name": "StatefulPartitionedCall/U2NetOneOutput/u2_net/up_sampling2d_2/mul", "op": "Const", "attr": {"value": {"tensor": {"dtype": "DT_INT32", "tensorShape": {"dim": [{"size": "2"}]}}}, "dtype": {"type": "DT_INT32"}}}, {"name": "StatefulPartitionedCall/U2NetOneOutput/u2_net/concatenate_32/concat/axis", "op": "Const", "attr": {"dtype": {"type": "DT_INT32"}, "value": {"tensor": {"dtype": "DT_INT32", "tensorShape": {}}}}}, {"name": "StatefulPartitionedCall/U2NetOneOutput/u2_net/conv2d_115/Conv2D/ReadVariableOp", "op": "Const", "attr": {"dtype": {"type": "DT_FLOAT"}, "value": {"tensor": {"dtype": "DT_FLOAT", "tensorShape": {"dim": [{"size": "3"}, {"size": "3"}, {"size": "128"}, {"size": "1"}]}}}}}, {"name": "StatefulPartitionedCall/U2NetOneOutput/u2_net/conv2d_115/BiasAdd/ReadVariableOp", "op": "Const", "attr": {"dtype": {"type": "DT_FLOAT"}, "value": {"tensor": {"dtype": "DT_FLOAT", "tensorShape": {"dim": [{"size": "1"}]}}}}}, {"name": "StatefulPartitionedCall/U2NetOneOutput/u2_net/up_sampling2d_6/mul", "op": "Const", "attr": {"value": {"tensor": {"dtype": "DT_INT32", "tensorShape": {"dim": [{"size": "2"}]}}}, "dtype": {"type": "DT_INT32"}}}, {"name": "StatefulPartitionedCall/U2NetOneOutput/u2_net/rsu4_1/green_72/conv2d_72/Conv2D/SpaceToBatchND/block_shape", "op": "Const", "attr": {"dtype": {"type": "DT_INT32"}, "value": {"tensor": {"dtype": "DT_INT32", "tensorShape": {"dim": [{"size": "2"}]}}}}}, {"name": "StatefulPartitionedCall/U2NetOneOutput/u2_net/rsu4_1/green_72/conv2d_72/Conv2D/SpaceToBatchND/paddings", "op": "Const", "attr": {"value": {"tensor": {"dtype": "DT_INT32", "tensorShape": {"dim": [{"size": "2"}, {"size": "2"}]}}}, "dtype": {"type": "DT_INT32"}}}, {"name": "StatefulPartitionedCall/U2NetOneOutput/u2_net/rsu4_1/green_72/conv2d_72/Conv2D/ReadVariableOp", "op": "Const", "attr": {"dtype": {"type": "DT_FLOAT"}, "value": {"tensor": {"dtype": "DT_FLOAT", "tensorShape": {"dim": [{"size": "3"}, {"size": "3"}, {"size": "128"}, {"size": "128"}]}}}}}, {"name": "StatefulPartitionedCall/U2NetOneOutput/u2_net/rsu4_1/green_72/conv2d_72/Conv2D/BatchToSpaceND/block_shape", "op": "Const", "attr": {"dtype": {"type": "DT_INT32"}, "value": {"tensor": {"dtype": "DT_INT32", "tensorShape": {"dim": [{"size": "2"}]}}}}}, {"name": "StatefulPartitionedCall/U2NetOneOutput/u2_net/rsu4_1/green_72/conv2d_72/Conv2D/BatchToSpaceND/crops", "op": "Const", "attr": {"value": {"tensor": {"dtype": "DT_INT32", "tensorShape": {"dim": [{"size": "2"}, {"size": "2"}]}}}, "dtype": {"type": "DT_INT32"}}}, {"name": "StatefulPartitionedCall/U2NetOneOutput/u2_net/rsu4_1/green_72/conv2d_72/BiasAdd/ReadVariableOp", "op": "Const", "attr": {"dtype": {"type": "DT_FLOAT"}, "value": {"tensor": {"dtype": "DT_FLOAT", "tensorShape": {"dim": [{"size": "128"}]}}}}}, {"name": "StatefulPartitionedCall/U2NetOneOutput/u2_net/rsu4_1/concatenate_29/concat/axis", "op": "Const", "attr": {"dtype": {"type": "DT_INT32"}, "value": {"tensor": {"dtype": "DT_INT32", "tensorShape": {}}}}}, {"name": "StatefulPartitionedCall/U2NetOneOutput/u2_net/rsu4_1/pink_14/up_sampling2d_14/mul", "op": "Const", "attr": {"value": {"tensor": {"dtype": "DT_INT32", "tensorShape": {"dim": [{"size": "2"}]}}}, "dtype": {"type": "DT_INT32"}}}, {"name": "StatefulPartitionedCall/U2NetOneOutput/u2_net/rsu4_1/pink_14/concatenate_30/concat/axis", "op": "Const", "attr": {"dtype": {"type": "DT_INT32"}, "value": {"tensor": {"dtype": "DT_INT32", "tensorShape": {}}}}}, {"name": "StatefulPartitionedCall/U2NetOneOutput/u2_net/rsu4_1/pink_15/up_sampling2d_15/mul", "op": "Const", "attr": {"dtype": {"type": "DT_INT32"}, "value": {"tensor": {"dtype": "DT_INT32", "tensorShape": {"dim": [{"size": "2"}]}}}}}, {"name": "StatefulPartitionedCall/U2NetOneOutput/u2_net/rsu4_1/pink_15/concatenate_31/concat/axis", "op": "Const", "attr": {"dtype": {"type": "DT_INT32"}, "value": {"tensor": {"dtype": "DT_INT32", "tensorShape": {}}}}}, {"name": "StatefulPartitionedCall/U2NetOneOutput/u2_net/up_sampling2d_1/mul", "op": "Const", "attr": {"dtype": {"type": "DT_INT32"}, "value": {"tensor": {"dtype": "DT_INT32", "tensorShape": {"dim": [{"size": "2"}]}}}}}, {"name": "StatefulPartitionedCall/U2NetOneOutput/u2_net/concatenate_28/concat/axis", "op": "Const", "attr": {"value": {"tensor": {"dtype": "DT_INT32", "tensorShape": {}}}, "dtype": {"type": "DT_INT32"}}}, {"name": "StatefulPartitionedCall/U2NetOneOutput/u2_net/conv2d_116/Conv2D/ReadVariableOp", "op": "Const", "attr": {"dtype": {"type": "DT_FLOAT"}, "value": {"tensor": {"dtype": "DT_FLOAT", "tensorShape": {"dim": [{"size": "3"}, {"size": "3"}, {"size": "256"}, {"size": "1"}]}}}}}, {"name": "StatefulPartitionedCall/U2NetOneOutput/u2_net/conv2d_116/BiasAdd/ReadVariableOp", "op": "Const", "attr": {"dtype": {"type": "DT_FLOAT"}, "value": {"tensor": {"dtype": "DT_FLOAT", "tensorShape": {"dim": [{"size": "1"}]}}}}}, {"name": "StatefulPartitionedCall/U2NetOneOutput/u2_net/up_sampling2d_7/mul", "op": "Const", "attr": {"value": {"tensor": {"dtype": "DT_INT32", "tensorShape": {"dim": [{"size": "2"}]}}}, "dtype": {"type": "DT_INT32"}}}, {"name": "StatefulPartitionedCall/U2NetOneOutput/u2_net/rsu4f_2/green_64/conv2d_64/Conv2D/SpaceToBatchND/block_shape", "op": "Const", "attr": {"dtype": {"type": "DT_INT32"}, "value": {"tensor": {"dtype": "DT_INT32", "tensorShape": {"dim": [{"size": "2"}]}}}}}, {"name": "StatefulPartitionedCall/U2NetOneOutput/u2_net/rsu4f_2/green_64/conv2d_64/Conv2D/SpaceToBatchND/paddings", "op": "Const", "attr": {"dtype": {"type": "DT_INT32"}, "value": {"tensor": {"dtype": "DT_INT32", "tensorShape": {"dim": [{"size": "2"}, {"size": "2"}]}}}}}, {"name": "StatefulPartitionedCall/U2NetOneOutput/u2_net/rsu4f_2/green_64/conv2d_64/Conv2D/ReadVariableOp", "op": "Const", "attr": {"dtype": {"type": "DT_FLOAT"}, "value": {"tensor": {"dtype": "DT_FLOAT", "tensorShape": {"dim": [{"size": "3"}, {"size": "3"}, {"size": "256"}, {"size": "256"}]}}}}}, {"name": "StatefulPartitionedCall/U2NetOneOutput/u2_net/rsu4f_2/green_64/conv2d_64/Conv2D/BatchToSpaceND/block_shape", "op": "Const", "attr": {"value": {"tensor": {"dtype": "DT_INT32", "tensorShape": {"dim": [{"size": "2"}]}}}, "dtype": {"type": "DT_INT32"}}}, {"name": "StatefulPartitionedCall/U2NetOneOutput/u2_net/rsu4f_2/green_64/conv2d_64/Conv2D/BatchToSpaceND/crops", "op": "Const", "attr": {"value": {"tensor": {"dtype": "DT_INT32", "tensorShape": {"dim": [{"size": "2"}, {"size": "2"}]}}}, "dtype": {"type": "DT_INT32"}}}, {"name": "StatefulPartitionedCall/U2NetOneOutput/u2_net/rsu4f_2/green_64/conv2d_64/BiasAdd/ReadVariableOp", "op": "Const", "attr": {"dtype": {"type": "DT_FLOAT"}, "value": {"tensor": {"dtype": "DT_FLOAT", "tensorShape": {"dim": [{"size": "256"}]}}}}}, {"name": "StatefulPartitionedCall/U2NetOneOutput/u2_net/rsu4f_2/green_63/conv2d_63/Conv2D/SpaceToBatchND/block_shape", "op": "Const", "attr": {"value": {"tensor": {"dtype": "DT_INT32", "tensorShape": {"dim": [{"size": "2"}]}}}, "dtype": {"type": "DT_INT32"}}}, {"name": "StatefulPartitionedCall/U2NetOneOutput/u2_net/rsu4f_2/green_63/conv2d_63/Conv2D/SpaceToBatchND/paddings", "op": "Const", "attr": {"value": {"tensor": {"dtype": "DT_INT32", "tensorShape": {"dim": [{"size": "2"}, {"size": "2"}]}}}, "dtype": {"type": "DT_INT32"}}}, {"name": "StatefulPartitionedCall/U2NetOneOutput/u2_net/rsu4f_2/green_63/conv2d_63/Conv2D/ReadVariableOp", "op": "Const", "attr": {"dtype": {"type": "DT_FLOAT"}, "value": {"tensor": {"dtype": "DT_FLOAT", "tensorShape": {"dim": [{"size": "3"}, {"size": "3"}, {"size": "256"}, {"size": "256"}]}}}}}, {"name": "StatefulPartitionedCall/U2NetOneOutput/u2_net/rsu4f_2/green_63/conv2d_63/Conv2D/BatchToSpaceND/block_shape", "op": "Const", "attr": {"dtype": {"type": "DT_INT32"}, "value": {"tensor": {"dtype": "DT_INT32", "tensorShape": {"dim": [{"size": "2"}]}}}}}, {"name": "StatefulPartitionedCall/U2NetOneOutput/u2_net/rsu4f_2/green_63/conv2d_63/Conv2D/BatchToSpaceND/crops", "op": "Const", "attr": {"dtype": {"type": "DT_INT32"}, "value": {"tensor": {"dtype": "DT_INT32", "tensorShape": {"dim": [{"size": "2"}, {"size": "2"}]}}}}}, {"name": "StatefulPartitionedCall/U2NetOneOutput/u2_net/rsu4f_2/green_63/conv2d_63/BiasAdd/ReadVariableOp", "op": "Const", "attr": {"dtype": {"type": "DT_FLOAT"}, "value": {"tensor": {"dtype": "DT_FLOAT", "tensorShape": {"dim": [{"size": "256"}]}}}}}, {"name": "StatefulPartitionedCall/U2NetOneOutput/u2_net/rsu4f_2/concatenate_25/concat/axis", "op": "Const", "attr": {"value": {"tensor": {"dtype": "DT_INT32", "tensorShape": {}}}, "dtype": {"type": "DT_INT32"}}}, {"name": "StatefulPartitionedCall/U2NetOneOutput/u2_net/rsu4f_2/green_65/conv2d_65/Conv2D/SpaceToBatchND/block_shape", "op": "Const", "attr": {"dtype": {"type": "DT_INT32"}, "value": {"tensor": {"dtype": "DT_INT32", "tensorShape": {"dim": [{"size": "2"}]}}}}}, {"name": "StatefulPartitionedCall/U2NetOneOutput/u2_net/rsu4f_2/green_65/conv2d_65/Conv2D/SpaceToBatchND/paddings", "op": "Const", "attr": {"value": {"tensor": {"dtype": "DT_INT32", "tensorShape": {"dim": [{"size": "2"}, {"size": "2"}]}}}, "dtype": {"type": "DT_INT32"}}}, {"name": "StatefulPartitionedCall/U2NetOneOutput/u2_net/rsu4f_2/green_65/conv2d_65/Conv2D/ReadVariableOp", "op": "Const", "attr": {"dtype": {"type": "DT_FLOAT"}, "value": {"tensor": {"dtype": "DT_FLOAT", "tensorShape": {"dim": [{"size": "3"}, {"size": "3"}, {"size": "512"}, {"size": "256"}]}}}}}, {"name": "StatefulPartitionedCall/U2NetOneOutput/u2_net/rsu4f_2/green_65/conv2d_65/Conv2D/BatchToSpaceND/block_shape", "op": "Const", "attr": {"value": {"tensor": {"dtype": "DT_INT32", "tensorShape": {"dim": [{"size": "2"}]}}}, "dtype": {"type": "DT_INT32"}}}, {"name": "StatefulPartitionedCall/U2NetOneOutput/u2_net/rsu4f_2/green_65/conv2d_65/Conv2D/BatchToSpaceND/crops", "op": "Const", "attr": {"dtype": {"type": "DT_INT32"}, "value": {"tensor": {"dtype": "DT_INT32", "tensorShape": {"dim": [{"size": "2"}, {"size": "2"}]}}}}}, {"name": "StatefulPartitionedCall/U2NetOneOutput/u2_net/rsu4f_2/green_65/conv2d_65/BiasAdd/ReadVariableOp", "op": "Const", "attr": {"value": {"tensor": {"dtype": "DT_FLOAT", "tensorShape": {"dim": [{"size": "256"}]}}}, "dtype": {"type": "DT_FLOAT"}}}, {"name": "StatefulPartitionedCall/U2NetOneOutput/u2_net/rsu4f_2/green_62/conv2d_62/Conv2D/SpaceToBatchND/block_shape", "op": "Const", "attr": {"dtype": {"type": "DT_INT32"}, "value": {"tensor": {"dtype": "DT_INT32", "tensorShape": {"dim": [{"size": "2"}]}}}}}, {"name": "StatefulPartitionedCall/U2NetOneOutput/u2_net/rsu4f_2/green_62/conv2d_62/Conv2D/SpaceToBatchND/paddings", "op": "Const", "attr": {"value": {"tensor": {"dtype": "DT_INT32", "tensorShape": {"dim": [{"size": "2"}, {"size": "2"}]}}}, "dtype": {"type": "DT_INT32"}}}, {"name": "StatefulPartitionedCall/U2NetOneOutput/u2_net/rsu4f_2/green_62/conv2d_62/Conv2D/ReadVariableOp", "op": "Const", "attr": {"value": {"tensor": {"dtype": "DT_FLOAT", "tensorShape": {"dim": [{"size": "3"}, {"size": "3"}, {"size": "256"}, {"size": "256"}]}}}, "dtype": {"type": "DT_FLOAT"}}}, {"name": "StatefulPartitionedCall/U2NetOneOutput/u2_net/rsu4f_2/green_62/conv2d_62/Conv2D/BatchToSpaceND/block_shape", "op": "Const", "attr": {"dtype": {"type": "DT_INT32"}, "value": {"tensor": {"dtype": "DT_INT32", "tensorShape": {"dim": [{"size": "2"}]}}}}}, {"name": "StatefulPartitionedCall/U2NetOneOutput/u2_net/rsu4f_2/green_62/conv2d_62/Conv2D/BatchToSpaceND/crops", "op": "Const", "attr": {"dtype": {"type": "DT_INT32"}, "value": {"tensor": {"dtype": "DT_INT32", "tensorShape": {"dim": [{"size": "2"}, {"size": "2"}]}}}}}, {"name": "StatefulPartitionedCall/U2NetOneOutput/u2_net/rsu4f_2/green_62/conv2d_62/BiasAdd/ReadVariableOp", "op": "Const", "attr": {"value": {"tensor": {"dtype": "DT_FLOAT", "tensorShape": {"dim": [{"size": "256"}]}}}, "dtype": {"type": "DT_FLOAT"}}}, {"name": "StatefulPartitionedCall/U2NetOneOutput/u2_net/rsu4f_2/concatenate_26/concat/axis", "op": "Const", "attr": {"value": {"tensor": {"dtype": "DT_INT32", "tensorShape": {}}}, "dtype": {"type": "DT_INT32"}}}, {"name": "StatefulPartitionedCall/U2NetOneOutput/u2_net/rsu4f_2/green_66/conv2d_66/Conv2D/SpaceToBatchND/block_shape", "op": "Const", "attr": {"dtype": {"type": "DT_INT32"}, "value": {"tensor": {"dtype": "DT_INT32", "tensorShape": {"dim": [{"size": "2"}]}}}}}, {"name": "StatefulPartitionedCall/U2NetOneOutput/u2_net/rsu4f_2/green_66/conv2d_66/Conv2D/SpaceToBatchND/paddings", "op": "Const", "attr": {"dtype": {"type": "DT_INT32"}, "value": {"tensor": {"dtype": "DT_INT32", "tensorShape": {"dim": [{"size": "2"}, {"size": "2"}]}}}}}, {"name": "StatefulPartitionedCall/U2NetOneOutput/u2_net/rsu4f_2/green_66/conv2d_66/Conv2D/ReadVariableOp", "op": "Const", "attr": {"value": {"tensor": {"dtype": "DT_FLOAT", "tensorShape": {"dim": [{"size": "3"}, {"size": "3"}, {"size": "512"}, {"size": "256"}]}}}, "dtype": {"type": "DT_FLOAT"}}}, {"name": "StatefulPartitionedCall/U2NetOneOutput/u2_net/rsu4f_2/green_66/conv2d_66/Conv2D/BatchToSpaceND/block_shape", "op": "Const", "attr": {"dtype": {"type": "DT_INT32"}, "value": {"tensor": {"dtype": "DT_INT32", "tensorShape": {"dim": [{"size": "2"}]}}}}}, {"name": "StatefulPartitionedCall/U2NetOneOutput/u2_net/rsu4f_2/green_66/conv2d_66/Conv2D/BatchToSpaceND/crops", "op": "Const", "attr": {"dtype": {"type": "DT_INT32"}, "value": {"tensor": {"dtype": "DT_INT32", "tensorShape": {"dim": [{"size": "2"}, {"size": "2"}]}}}}}, {"name": "StatefulPartitionedCall/U2NetOneOutput/u2_net/rsu4f_2/green_66/conv2d_66/BiasAdd/ReadVariableOp", "op": "Const", "attr": {"dtype": {"type": "DT_FLOAT"}, "value": {"tensor": {"dtype": "DT_FLOAT", "tensorShape": {"dim": [{"size": "256"}]}}}}}, {"name": "StatefulPartitionedCall/U2NetOneOutput/u2_net/up_sampling2d/mul", "op": "Const", "attr": {"value": {"tensor": {"dtype": "DT_INT32", "tensorShape": {"dim": [{"size": "2"}]}}}, "dtype": {"type": "DT_INT32"}}}, {"name": "StatefulPartitionedCall/U2NetOneOutput/u2_net/concatenate_24/concat/axis", "op": "Const", "attr": {"value": {"tensor": {"dtype": "DT_INT32", "tensorShape": {}}}, "dtype": {"type": "DT_INT32"}}}, {"name": "StatefulPartitionedCall/U2NetOneOutput/u2_net/rsu4f_2/concatenate_27/concat/axis", "op": "Const", "attr": {"dtype": {"type": "DT_INT32"}, "value": {"tensor": {"dtype": "DT_INT32", "tensorShape": {}}}}}, {"name": "StatefulPartitionedCall/U2NetOneOutput/u2_net/conv2d_117/Conv2D/ReadVariableOp", "op": "Const", "attr": {"dtype": {"type": "DT_FLOAT"}, "value": {"tensor": {"dtype": "DT_FLOAT", "tensorShape": {"dim": [{"size": "3"}, {"size": "3"}, {"size": "512"}, {"size": "1"}]}}}}}, {"name": "StatefulPartitionedCall/U2NetOneOutput/u2_net/conv2d_117/BiasAdd/ReadVariableOp", "op": "Const", "attr": {"value": {"tensor": {"dtype": "DT_FLOAT", "tensorShape": {"dim": [{"size": "1"}]}}}, "dtype": {"type": "DT_FLOAT"}}}, {"name": "StatefulPartitionedCall/U2NetOneOutput/u2_net/up_sampling2d_8/mul", "op": "Const", "attr": {"dtype": {"type": "DT_INT32"}, "value": {"tensor": {"dtype": "DT_INT32", "tensorShape": {"dim": [{"size": "2"}]}}}}}, {"name": "StatefulPartitionedCall/U2NetOneOutput/u2_net/rsu4f_1/green_56/conv2d_56/Conv2D/SpaceToBatchND/block_shape", "op": "Const", "attr": {"dtype": {"type": "DT_INT32"}, "value": {"tensor": {"dtype": "DT_INT32", "tensorShape": {"dim": [{"size": "2"}]}}}}}, {"name": "StatefulPartitionedCall/U2NetOneOutput/u2_net/rsu4f_1/green_56/conv2d_56/Conv2D/SpaceToBatchND/paddings", "op": "Const", "attr": {"value": {"tensor": {"dtype": "DT_INT32", "tensorShape": {"dim": [{"size": "2"}, {"size": "2"}]}}}, "dtype": {"type": "DT_INT32"}}}, {"name": "StatefulPartitionedCall/U2NetOneOutput/u2_net/rsu4f_1/green_56/conv2d_56/Conv2D/ReadVariableOp", "op": "Const", "attr": {"dtype": {"type": "DT_FLOAT"}, "value": {"tensor": {"dtype": "DT_FLOAT", "tensorShape": {"dim": [{"size": "3"}, {"size": "3"}, {"size": "256"}, {"size": "256"}]}}}}}, {"name": "StatefulPartitionedCall/U2NetOneOutput/u2_net/rsu4f_1/green_56/conv2d_56/Conv2D/BatchToSpaceND/block_shape", "op": "Const", "attr": {"value": {"tensor": {"dtype": "DT_INT32", "tensorShape": {"dim": [{"size": "2"}]}}}, "dtype": {"type": "DT_INT32"}}}, {"name": "StatefulPartitionedCall/U2NetOneOutput/u2_net/rsu4f_1/green_56/conv2d_56/Conv2D/BatchToSpaceND/crops", "op": "Const", "attr": {"dtype": {"type": "DT_INT32"}, "value": {"tensor": {"dtype": "DT_INT32", "tensorShape": {"dim": [{"size": "2"}, {"size": "2"}]}}}}}, {"name": "StatefulPartitionedCall/U2NetOneOutput/u2_net/rsu4f_1/green_56/conv2d_56/BiasAdd/ReadVariableOp", "op": "Const", "attr": {"dtype": {"type": "DT_FLOAT"}, "value": {"tensor": {"dtype": "DT_FLOAT", "tensorShape": {"dim": [{"size": "256"}]}}}}}, {"name": "StatefulPartitionedCall/U2NetOneOutput/u2_net/rsu4f_1/green_55/conv2d_55/Conv2D/SpaceToBatchND/block_shape", "op": "Const", "attr": {"value": {"tensor": {"dtype": "DT_INT32", "tensorShape": {"dim": [{"size": "2"}]}}}, "dtype": {"type": "DT_INT32"}}}, {"name": "StatefulPartitionedCall/U2NetOneOutput/u2_net/rsu4f_1/green_55/conv2d_55/Conv2D/SpaceToBatchND/paddings", "op": "Const", "attr": {"value": {"tensor": {"dtype": "DT_INT32", "tensorShape": {"dim": [{"size": "2"}, {"size": "2"}]}}}, "dtype": {"type": "DT_INT32"}}}, {"name": "StatefulPartitionedCall/U2NetOneOutput/u2_net/rsu4f_1/green_55/conv2d_55/Conv2D/ReadVariableOp", "op": "Const", "attr": {"dtype": {"type": "DT_FLOAT"}, "value": {"tensor": {"dtype": "DT_FLOAT", "tensorShape": {"dim": [{"size": "3"}, {"size": "3"}, {"size": "256"}, {"size": "256"}]}}}}}, {"name": "StatefulPartitionedCall/U2NetOneOutput/u2_net/rsu4f_1/green_55/conv2d_55/Conv2D/BatchToSpaceND/block_shape", "op": "Const", "attr": {"dtype": {"type": "DT_INT32"}, "value": {"tensor": {"dtype": "DT_INT32", "tensorShape": {"dim": [{"size": "2"}]}}}}}, {"name": "StatefulPartitionedCall/U2NetOneOutput/u2_net/rsu4f_1/green_55/conv2d_55/Conv2D/BatchToSpaceND/crops", "op": "Const", "attr": {"value": {"tensor": {"dtype": "DT_INT32", "tensorShape": {"dim": [{"size": "2"}, {"size": "2"}]}}}, "dtype": {"type": "DT_INT32"}}}, {"name": "StatefulPartitionedCall/U2NetOneOutput/u2_net/rsu4f_1/green_55/conv2d_55/BiasAdd/ReadVariableOp", "op": "Const", "attr": {"value": {"tensor": {"dtype": "DT_FLOAT", "tensorShape": {"dim": [{"size": "256"}]}}}, "dtype": {"type": "DT_FLOAT"}}}, {"name": "StatefulPartitionedCall/U2NetOneOutput/u2_net/rsu4f_1/concatenate_21/concat/axis", "op": "Const", "attr": {"value": {"tensor": {"dtype": "DT_INT32", "tensorShape": {}}}, "dtype": {"type": "DT_INT32"}}}, {"name": "StatefulPartitionedCall/U2NetOneOutput/u2_net/rsu4f_1/green_57/conv2d_57/Conv2D/SpaceToBatchND/block_shape", "op": "Const", "attr": {"dtype": {"type": "DT_INT32"}, "value": {"tensor": {"dtype": "DT_INT32", "tensorShape": {"dim": [{"size": "2"}]}}}}}, {"name": "StatefulPartitionedCall/U2NetOneOutput/u2_net/rsu4f_1/green_57/conv2d_57/Conv2D/SpaceToBatchND/paddings", "op": "Const", "attr": {"dtype": {"type": "DT_INT32"}, "value": {"tensor": {"dtype": "DT_INT32", "tensorShape": {"dim": [{"size": "2"}, {"size": "2"}]}}}}}, {"name": "StatefulPartitionedCall/U2NetOneOutput/u2_net/rsu4f_1/green_57/conv2d_57/Conv2D/ReadVariableOp", "op": "Const", "attr": {"dtype": {"type": "DT_FLOAT"}, "value": {"tensor": {"dtype": "DT_FLOAT", "tensorShape": {"dim": [{"size": "3"}, {"size": "3"}, {"size": "512"}, {"size": "256"}]}}}}}, {"name": "StatefulPartitionedCall/U2NetOneOutput/u2_net/rsu4f_1/green_57/conv2d_57/Conv2D/BatchToSpaceND/block_shape", "op": "Const", "attr": {"dtype": {"type": "DT_INT32"}, "value": {"tensor": {"dtype": "DT_INT32", "tensorShape": {"dim": [{"size": "2"}]}}}}}, {"name": "StatefulPartitionedCall/U2NetOneOutput/u2_net/rsu4f_1/green_57/conv2d_57/Conv2D/BatchToSpaceND/crops", "op": "Const", "attr": {"value": {"tensor": {"dtype": "DT_INT32", "tensorShape": {"dim": [{"size": "2"}, {"size": "2"}]}}}, "dtype": {"type": "DT_INT32"}}}, {"name": "StatefulPartitionedCall/U2NetOneOutput/u2_net/rsu4f_1/green_57/conv2d_57/BiasAdd/ReadVariableOp", "op": "Const", "attr": {"value": {"tensor": {"dtype": "DT_FLOAT", "tensorShape": {"dim": [{"size": "256"}]}}}, "dtype": {"type": "DT_FLOAT"}}}, {"name": "StatefulPartitionedCall/U2NetOneOutput/u2_net/rsu4f_1/green_54/conv2d_54/Conv2D/SpaceToBatchND/block_shape", "op": "Const", "attr": {"value": {"tensor": {"dtype": "DT_INT32", "tensorShape": {"dim": [{"size": "2"}]}}}, "dtype": {"type": "DT_INT32"}}}, {"name": "StatefulPartitionedCall/U2NetOneOutput/u2_net/rsu4f_1/green_54/conv2d_54/Conv2D/SpaceToBatchND/paddings", "op": "Const", "attr": {"value": {"tensor": {"dtype": "DT_INT32", "tensorShape": {"dim": [{"size": "2"}, {"size": "2"}]}}}, "dtype": {"type": "DT_INT32"}}}, {"name": "StatefulPartitionedCall/U2NetOneOutput/u2_net/rsu4f_1/green_54/conv2d_54/Conv2D/ReadVariableOp", "op": "Const", "attr": {"value": {"tensor": {"dtype": "DT_FLOAT", "tensorShape": {"dim": [{"size": "3"}, {"size": "3"}, {"size": "256"}, {"size": "256"}]}}}, "dtype": {"type": "DT_FLOAT"}}}, {"name": "StatefulPartitionedCall/U2NetOneOutput/u2_net/rsu4f_1/green_54/conv2d_54/Conv2D/BatchToSpaceND/block_shape", "op": "Const", "attr": {"dtype": {"type": "DT_INT32"}, "value": {"tensor": {"dtype": "DT_INT32", "tensorShape": {"dim": [{"size": "2"}]}}}}}, {"name": "StatefulPartitionedCall/U2NetOneOutput/u2_net/rsu4f_1/green_54/conv2d_54/Conv2D/BatchToSpaceND/crops", "op": "Const", "attr": {"dtype": {"type": "DT_INT32"}, "value": {"tensor": {"dtype": "DT_INT32", "tensorShape": {"dim": [{"size": "2"}, {"size": "2"}]}}}}}, {"name": "StatefulPartitionedCall/U2NetOneOutput/u2_net/rsu4f_1/green_54/conv2d_54/BiasAdd/ReadVariableOp", "op": "Const", "attr": {"value": {"tensor": {"dtype": "DT_FLOAT", "tensorShape": {"dim": [{"size": "256"}]}}}, "dtype": {"type": "DT_FLOAT"}}}, {"name": "StatefulPartitionedCall/U2NetOneOutput/u2_net/rsu4f_1/concatenate_22/concat/axis", "op": "Const", "attr": {"value": {"tensor": {"dtype": "DT_INT32", "tensorShape": {}}}, "dtype": {"type": "DT_INT32"}}}, {"name": "StatefulPartitionedCall/U2NetOneOutput/u2_net/rsu4f_1/green_58/conv2d_58/Conv2D/SpaceToBatchND/block_shape", "op": "Const", "attr": {"value": {"tensor": {"dtype": "DT_INT32", "tensorShape": {"dim": [{"size": "2"}]}}}, "dtype": {"type": "DT_INT32"}}}, {"name": "StatefulPartitionedCall/U2NetOneOutput/u2_net/rsu4f_1/green_58/conv2d_58/Conv2D/SpaceToBatchND/paddings", "op": "Const", "attr": {"value": {"tensor": {"dtype": "DT_INT32", "tensorShape": {"dim": [{"size": "2"}, {"size": "2"}]}}}, "dtype": {"type": "DT_INT32"}}}, {"name": "StatefulPartitionedCall/U2NetOneOutput/u2_net/rsu4f_1/green_58/conv2d_58/Conv2D/ReadVariableOp", "op": "Const", "attr": {"dtype": {"type": "DT_FLOAT"}, "value": {"tensor": {"dtype": "DT_FLOAT", "tensorShape": {"dim": [{"size": "3"}, {"size": "3"}, {"size": "512"}, {"size": "256"}]}}}}}, {"name": "StatefulPartitionedCall/U2NetOneOutput/u2_net/rsu4f_1/green_58/conv2d_58/Conv2D/BatchToSpaceND/block_shape", "op": "Const", "attr": {"dtype": {"type": "DT_INT32"}, "value": {"tensor": {"dtype": "DT_INT32", "tensorShape": {"dim": [{"size": "2"}]}}}}}, {"name": "StatefulPartitionedCall/U2NetOneOutput/u2_net/rsu4f_1/green_58/conv2d_58/Conv2D/BatchToSpaceND/crops", "op": "Const", "attr": {"dtype": {"type": "DT_INT32"}, "value": {"tensor": {"dtype": "DT_INT32", "tensorShape": {"dim": [{"size": "2"}, {"size": "2"}]}}}}}, {"name": "StatefulPartitionedCall/U2NetOneOutput/u2_net/rsu4f_1/green_58/conv2d_58/BiasAdd/ReadVariableOp", "op": "Const", "attr": {"dtype": {"type": "DT_FLOAT"}, "value": {"tensor": {"dtype": "DT_FLOAT", "tensorShape": {"dim": [{"size": "256"}]}}}}}, {"name": "StatefulPartitionedCall/U2NetOneOutput/u2_net/rsu4f/green_48/conv2d_48/Conv2D/SpaceToBatchND/block_shape", "op": "Const", "attr": {"dtype": {"type": "DT_INT32"}, "value": {"tensor": {"dtype": "DT_INT32", "tensorShape": {"dim": [{"size": "2"}]}}}}}, {"name": "StatefulPartitionedCall/U2NetOneOutput/u2_net/rsu4f/green_48/conv2d_48/Conv2D/SpaceToBatchND/paddings", "op": "Const", "attr": {"value": {"tensor": {"dtype": "DT_INT32", "tensorShape": {"dim": [{"size": "2"}, {"size": "2"}]}}}, "dtype": {"type": "DT_INT32"}}}, {"name": "StatefulPartitionedCall/U2NetOneOutput/u2_net/rsu4f/green_48/conv2d_48/Conv2D/ReadVariableOp", "op": "Const", "attr": {"dtype": {"type": "DT_FLOAT"}, "value": {"tensor": {"dtype": "DT_FLOAT", "tensorShape": {"dim": [{"size": "3"}, {"size": "3"}, {"size": "256"}, {"size": "256"}]}}}}}, {"name": "StatefulPartitionedCall/U2NetOneOutput/u2_net/rsu4f/green_48/conv2d_48/Conv2D/BatchToSpaceND/block_shape", "op": "Const", "attr": {"dtype": {"type": "DT_INT32"}, "value": {"tensor": {"dtype": "DT_INT32", "tensorShape": {"dim": [{"size": "2"}]}}}}}, {"name": "StatefulPartitionedCall/U2NetOneOutput/u2_net/rsu4f/green_48/conv2d_48/Conv2D/BatchToSpaceND/crops", "op": "Const", "attr": {"dtype": {"type": "DT_INT32"}, "value": {"tensor": {"dtype": "DT_INT32", "tensorShape": {"dim": [{"size": "2"}, {"size": "2"}]}}}}}, {"name": "StatefulPartitionedCall/U2NetOneOutput/u2_net/rsu4f/green_48/conv2d_48/BiasAdd/ReadVariableOp", "op": "Const", "attr": {"dtype": {"type": "DT_FLOAT"}, "value": {"tensor": {"dtype": "DT_FLOAT", "tensorShape": {"dim": [{"size": "256"}]}}}}}, {"name": "StatefulPartitionedCall/U2NetOneOutput/u2_net/rsu4f/green_47/conv2d_47/Conv2D/SpaceToBatchND/block_shape", "op": "Const", "attr": {"dtype": {"type": "DT_INT32"}, "value": {"tensor": {"dtype": "DT_INT32", "tensorShape": {"dim": [{"size": "2"}]}}}}}, {"name": "StatefulPartitionedCall/U2NetOneOutput/u2_net/rsu4f/green_47/conv2d_47/Conv2D/SpaceToBatchND/paddings", "op": "Const", "attr": {"dtype": {"type": "DT_INT32"}, "value": {"tensor": {"dtype": "DT_INT32", "tensorShape": {"dim": [{"size": "2"}, {"size": "2"}]}}}}}, {"name": "StatefulPartitionedCall/U2NetOneOutput/u2_net/rsu4f/green_47/conv2d_47/Conv2D/ReadVariableOp", "op": "Const", "attr": {"dtype": {"type": "DT_FLOAT"}, "value": {"tensor": {"dtype": "DT_FLOAT", "tensorShape": {"dim": [{"size": "3"}, {"size": "3"}, {"size": "256"}, {"size": "256"}]}}}}}, {"name": "StatefulPartitionedCall/U2NetOneOutput/u2_net/rsu4f/green_47/conv2d_47/Conv2D/BatchToSpaceND/block_shape", "op": "Const", "attr": {"dtype": {"type": "DT_INT32"}, "value": {"tensor": {"dtype": "DT_INT32", "tensorShape": {"dim": [{"size": "2"}]}}}}}, {"name": "StatefulPartitionedCall/U2NetOneOutput/u2_net/rsu4f/green_47/conv2d_47/Conv2D/BatchToSpaceND/crops", "op": "Const", "attr": {"dtype": {"type": "DT_INT32"}, "value": {"tensor": {"dtype": "DT_INT32", "tensorShape": {"dim": [{"size": "2"}, {"size": "2"}]}}}}}, {"name": "StatefulPartitionedCall/U2NetOneOutput/u2_net/rsu4f/green_47/conv2d_47/BiasAdd/ReadVariableOp", "op": "Const", "attr": {"value": {"tensor": {"dtype": "DT_FLOAT", "tensorShape": {"dim": [{"size": "256"}]}}}, "dtype": {"type": "DT_FLOAT"}}}, {"name": "StatefulPartitionedCall/U2NetOneOutput/u2_net/rsu4f/concatenate_18/concat/axis", "op": "Const", "attr": {"dtype": {"type": "DT_INT32"}, "value": {"tensor": {"dtype": "DT_INT32", "tensorShape": {}}}}}, {"name": "StatefulPartitionedCall/U2NetOneOutput/u2_net/rsu4f/green_49/conv2d_49/Conv2D/SpaceToBatchND/block_shape", "op": "Const", "attr": {"dtype": {"type": "DT_INT32"}, "value": {"tensor": {"dtype": "DT_INT32", "tensorShape": {"dim": [{"size": "2"}]}}}}}, {"name": "StatefulPartitionedCall/U2NetOneOutput/u2_net/rsu4f/green_49/conv2d_49/Conv2D/SpaceToBatchND/paddings", "op": "Const", "attr": {"dtype": {"type": "DT_INT32"}, "value": {"tensor": {"dtype": "DT_INT32", "tensorShape": {"dim": [{"size": "2"}, {"size": "2"}]}}}}}, {"name": "StatefulPartitionedCall/U2NetOneOutput/u2_net/rsu4f/green_49/conv2d_49/Conv2D/ReadVariableOp", "op": "Const", "attr": {"value": {"tensor": {"dtype": "DT_FLOAT", "tensorShape": {"dim": [{"size": "3"}, {"size": "3"}, {"size": "512"}, {"size": "256"}]}}}, "dtype": {"type": "DT_FLOAT"}}}, {"name": "StatefulPartitionedCall/U2NetOneOutput/u2_net/rsu4f/green_49/conv2d_49/Conv2D/BatchToSpaceND/block_shape", "op": "Const", "attr": {"dtype": {"type": "DT_INT32"}, "value": {"tensor": {"dtype": "DT_INT32", "tensorShape": {"dim": [{"size": "2"}]}}}}}, {"name": "StatefulPartitionedCall/U2NetOneOutput/u2_net/rsu4f/green_49/conv2d_49/Conv2D/BatchToSpaceND/crops", "op": "Const", "attr": {"dtype": {"type": "DT_INT32"}, "value": {"tensor": {"dtype": "DT_INT32", "tensorShape": {"dim": [{"size": "2"}, {"size": "2"}]}}}}}, {"name": "StatefulPartitionedCall/U2NetOneOutput/u2_net/rsu4f/green_49/conv2d_49/BiasAdd/ReadVariableOp", "op": "Const", "attr": {"dtype": {"type": "DT_FLOAT"}, "value": {"tensor": {"dtype": "DT_FLOAT", "tensorShape": {"dim": [{"size": "256"}]}}}}}, {"name": "StatefulPartitionedCall/U2NetOneOutput/u2_net/rsu4f/green_46/conv2d_46/Conv2D/SpaceToBatchND/block_shape", "op": "Const", "attr": {"value": {"tensor": {"dtype": "DT_INT32", "tensorShape": {"dim": [{"size": "2"}]}}}, "dtype": {"type": "DT_INT32"}}}, {"name": "StatefulPartitionedCall/U2NetOneOutput/u2_net/rsu4f/green_46/conv2d_46/Conv2D/SpaceToBatchND/paddings", "op": "Const", "attr": {"dtype": {"type": "DT_INT32"}, "value": {"tensor": {"dtype": "DT_INT32", "tensorShape": {"dim": [{"size": "2"}, {"size": "2"}]}}}}}, {"name": "StatefulPartitionedCall/U2NetOneOutput/u2_net/rsu4f/green_46/conv2d_46/Conv2D/ReadVariableOp", "op": "Const", "attr": {"value": {"tensor": {"dtype": "DT_FLOAT", "tensorShape": {"dim": [{"size": "3"}, {"size": "3"}, {"size": "256"}, {"size": "256"}]}}}, "dtype": {"type": "DT_FLOAT"}}}, {"name": "StatefulPartitionedCall/U2NetOneOutput/u2_net/rsu4f/green_46/conv2d_46/Conv2D/BatchToSpaceND/block_shape", "op": "Const", "attr": {"value": {"tensor": {"dtype": "DT_INT32", "tensorShape": {"dim": [{"size": "2"}]}}}, "dtype": {"type": "DT_INT32"}}}, {"name": "StatefulPartitionedCall/U2NetOneOutput/u2_net/rsu4f/green_46/conv2d_46/Conv2D/BatchToSpaceND/crops", "op": "Const", "attr": {"value": {"tensor": {"dtype": "DT_INT32", "tensorShape": {"dim": [{"size": "2"}, {"size": "2"}]}}}, "dtype": {"type": "DT_INT32"}}}, {"name": "StatefulPartitionedCall/U2NetOneOutput/u2_net/rsu4f/green_46/conv2d_46/BiasAdd/ReadVariableOp", "op": "Const", "attr": {"dtype": {"type": "DT_FLOAT"}, "value": {"tensor": {"dtype": "DT_FLOAT", "tensorShape": {"dim": [{"size": "256"}]}}}}}, {"name": "StatefulPartitionedCall/U2NetOneOutput/u2_net/rsu4f/concatenate_19/concat/axis", "op": "Const", "attr": {"dtype": {"type": "DT_INT32"}, "value": {"tensor": {"dtype": "DT_INT32", "tensorShape": {}}}}}, {"name": "StatefulPartitionedCall/U2NetOneOutput/u2_net/rsu4f/green_50/conv2d_50/Conv2D/SpaceToBatchND/block_shape", "op": "Const", "attr": {"dtype": {"type": "DT_INT32"}, "value": {"tensor": {"dtype": "DT_INT32", "tensorShape": {"dim": [{"size": "2"}]}}}}}, {"name": "StatefulPartitionedCall/U2NetOneOutput/u2_net/rsu4f/green_50/conv2d_50/Conv2D/SpaceToBatchND/paddings", "op": "Const", "attr": {"dtype": {"type": "DT_INT32"}, "value": {"tensor": {"dtype": "DT_INT32", "tensorShape": {"dim": [{"size": "2"}, {"size": "2"}]}}}}}, {"name": "StatefulPartitionedCall/U2NetOneOutput/u2_net/rsu4f/green_50/conv2d_50/Conv2D/ReadVariableOp", "op": "Const", "attr": {"value": {"tensor": {"dtype": "DT_FLOAT", "tensorShape": {"dim": [{"size": "3"}, {"size": "3"}, {"size": "512"}, {"size": "256"}]}}}, "dtype": {"type": "DT_FLOAT"}}}, {"name": "StatefulPartitionedCall/U2NetOneOutput/u2_net/rsu4f/green_50/conv2d_50/Conv2D/BatchToSpaceND/block_shape", "op": "Const", "attr": {"dtype": {"type": "DT_INT32"}, "value": {"tensor": {"dtype": "DT_INT32", "tensorShape": {"dim": [{"size": "2"}]}}}}}, {"name": "StatefulPartitionedCall/U2NetOneOutput/u2_net/rsu4f/green_50/conv2d_50/Conv2D/BatchToSpaceND/crops", "op": "Const", "attr": {"dtype": {"type": "DT_INT32"}, "value": {"tensor": {"dtype": "DT_INT32", "tensorShape": {"dim": [{"size": "2"}, {"size": "2"}]}}}}}, {"name": "StatefulPartitionedCall/U2NetOneOutput/u2_net/rsu4f/green_50/conv2d_50/BiasAdd/ReadVariableOp", "op": "Const", "attr": {"value": {"tensor": {"dtype": "DT_FLOAT", "tensorShape": {"dim": [{"size": "256"}]}}}, "dtype": {"type": "DT_FLOAT"}}}, {"name": "StatefulPartitionedCall/U2NetOneOutput/u2_net/rsu4/green_40/conv2d_40/Conv2D/SpaceToBatchND/block_shape", "op": "Const", "attr": {"value": {"tensor": {"dtype": "DT_INT32", "tensorShape": {"dim": [{"size": "2"}]}}}, "dtype": {"type": "DT_INT32"}}}, {"name": "StatefulPartitionedCall/U2NetOneOutput/u2_net/rsu4/green_40/conv2d_40/Conv2D/SpaceToBatchND/paddings", "op": "Const", "attr": {"dtype": {"type": "DT_INT32"}, "value": {"tensor": {"dtype": "DT_INT32", "tensorShape": {"dim": [{"size": "2"}, {"size": "2"}]}}}}}, {"name": "StatefulPartitionedCall/U2NetOneOutput/u2_net/rsu4/green_40/conv2d_40/Conv2D/ReadVariableOp", "op": "Const", "attr": {"value": {"tensor": {"dtype": "DT_FLOAT", "tensorShape": {"dim": [{"size": "3"}, {"size": "3"}, {"size": "128"}, {"size": "128"}]}}}, "dtype": {"type": "DT_FLOAT"}}}, {"name": "StatefulPartitionedCall/U2NetOneOutput/u2_net/rsu4/green_40/conv2d_40/Conv2D/BatchToSpaceND/block_shape", "op": "Const", "attr": {"value": {"tensor": {"dtype": "DT_INT32", "tensorShape": {"dim": [{"size": "2"}]}}}, "dtype": {"type": "DT_INT32"}}}, {"name": "StatefulPartitionedCall/U2NetOneOutput/u2_net/rsu4/green_40/conv2d_40/Conv2D/BatchToSpaceND/crops", "op": "Const", "attr": {"value": {"tensor": {"dtype": "DT_INT32", "tensorShape": {"dim": [{"size": "2"}, {"size": "2"}]}}}, "dtype": {"type": "DT_INT32"}}}, {"name": "StatefulPartitionedCall/U2NetOneOutput/u2_net/rsu4/green_40/conv2d_40/BiasAdd/ReadVariableOp", "op": "Const", "attr": {"dtype": {"type": "DT_FLOAT"}, "value": {"tensor": {"dtype": "DT_FLOAT", "tensorShape": {"dim": [{"size": "128"}]}}}}}, {"name": "StatefulPartitionedCall/U2NetOneOutput/u2_net/rsu4/concatenate_15/concat/axis", "op": "Const", "attr": {"dtype": {"type": "DT_INT32"}, "value": {"tensor": {"dtype": "DT_INT32", "tensorShape": {}}}}}, {"name": "StatefulPartitionedCall/U2NetOneOutput/u2_net/rsu4/pink_12/up_sampling2d_12/mul", "op": "Const", "attr": {"value": {"tensor": {"dtype": "DT_INT32", "tensorShape": {"dim": [{"size": "2"}]}}}, "dtype": {"type": "DT_INT32"}}}, {"name": "StatefulPartitionedCall/U2NetOneOutput/u2_net/rsu4/pink_12/concatenate_16/concat/axis", "op": "Const", "attr": {"value": {"tensor": {"dtype": "DT_INT32", "tensorShape": {}}}, "dtype": {"type": "DT_INT32"}}}, {"name": "StatefulPartitionedCall/U2NetOneOutput/u2_net/rsu4/pink_13/up_sampling2d_13/mul", "op": "Const", "attr": {"value": {"tensor": {"dtype": "DT_INT32", "tensorShape": {"dim": [{"size": "2"}]}}}, "dtype": {"type": "DT_INT32"}}}, {"name": "StatefulPartitionedCall/U2NetOneOutput/u2_net/rsu4/pink_13/concatenate_17/concat/axis", "op": "Const", "attr": {"dtype": {"type": "DT_INT32"}, "value": {"tensor": {"dtype": "DT_INT32", "tensorShape": {}}}}}, {"name": "StatefulPartitionedCall/U2NetOneOutput/u2_net/rsu5/green_31/conv2d_31/Conv2D/SpaceToBatchND/block_shape", "op": "Const", "attr": {"dtype": {"type": "DT_INT32"}, "value": {"tensor": {"dtype": "DT_INT32", "tensorShape": {"dim": [{"size": "2"}]}}}}}, {"name": "StatefulPartitionedCall/U2NetOneOutput/u2_net/rsu5/green_31/conv2d_31/Conv2D/SpaceToBatchND/paddings", "op": "Const", "attr": {"dtype": {"type": "DT_INT32"}, "value": {"tensor": {"dtype": "DT_INT32", "tensorShape": {"dim": [{"size": "2"}, {"size": "2"}]}}}}}, {"name": "StatefulPartitionedCall/U2NetOneOutput/u2_net/rsu5/green_31/conv2d_31/Conv2D/ReadVariableOp", "op": "Const", "attr": {"dtype": {"type": "DT_FLOAT"}, "value": {"tensor": {"dtype": "DT_FLOAT", "tensorShape": {"dim": [{"size": "3"}, {"size": "3"}, {"size": "64"}, {"size": "64"}]}}}}}, {"name": "StatefulPartitionedCall/U2NetOneOutput/u2_net/rsu5/green_31/conv2d_31/Conv2D/BatchToSpaceND/block_shape", "op": "Const", "attr": {"value": {"tensor": {"dtype": "DT_INT32", "tensorShape": {"dim": [{"size": "2"}]}}}, "dtype": {"type": "DT_INT32"}}}, {"name": "StatefulPartitionedCall/U2NetOneOutput/u2_net/rsu5/green_31/conv2d_31/Conv2D/BatchToSpaceND/crops", "op": "Const", "attr": {"value": {"tensor": {"dtype": "DT_INT32", "tensorShape": {"dim": [{"size": "2"}, {"size": "2"}]}}}, "dtype": {"type": "DT_INT32"}}}, {"name": "StatefulPartitionedCall/U2NetOneOutput/u2_net/rsu5/green_31/conv2d_31/BiasAdd/ReadVariableOp", "op": "Const", "attr": {"dtype": {"type": "DT_FLOAT"}, "value": {"tensor": {"dtype": "DT_FLOAT", "tensorShape": {"dim": [{"size": "64"}]}}}}}, {"name": "StatefulPartitionedCall/U2NetOneOutput/u2_net/rsu5/concatenate_11/concat/axis", "op": "Const", "attr": {"dtype": {"type": "DT_INT32"}, "value": {"tensor": {"dtype": "DT_INT32", "tensorShape": {}}}}}, {"name": "StatefulPartitionedCall/U2NetOneOutput/u2_net/rsu5/pink_9/up_sampling2d_9/mul", "op": "Const", "attr": {"dtype": {"type": "DT_INT32"}, "value": {"tensor": {"dtype": "DT_INT32", "tensorShape": {"dim": [{"size": "2"}]}}}}}, {"name": "StatefulPartitionedCall/U2NetOneOutput/u2_net/rsu5/pink_9/concatenate_12/concat/axis", "op": "Const", "attr": {"value": {"tensor": {"dtype": "DT_INT32", "tensorShape": {}}}, "dtype": {"type": "DT_INT32"}}}, {"name": "StatefulPartitionedCall/U2NetOneOutput/u2_net/rsu5/pink_10/up_sampling2d_10/mul", "op": "Const", "attr": {"dtype": {"type": "DT_INT32"}, "value": {"tensor": {"dtype": "DT_INT32", "tensorShape": {"dim": [{"size": "2"}]}}}}}, {"name": "StatefulPartitionedCall/U2NetOneOutput/u2_net/rsu5/pink_10/concatenate_13/concat/axis", "op": "Const", "attr": {"dtype": {"type": "DT_INT32"}, "value": {"tensor": {"dtype": "DT_INT32", "tensorShape": {}}}}}, {"name": "StatefulPartitionedCall/U2NetOneOutput/u2_net/rsu5/pink_11/up_sampling2d_11/mul", "op": "Const", "attr": {"value": {"tensor": {"dtype": "DT_INT32", "tensorShape": {"dim": [{"size": "2"}]}}}, "dtype": {"type": "DT_INT32"}}}, {"name": "StatefulPartitionedCall/U2NetOneOutput/u2_net/rsu5/pink_11/concatenate_14/concat/axis", "op": "Const", "attr": {"value": {"tensor": {"dtype": "DT_INT32", "tensorShape": {}}}, "dtype": {"type": "DT_INT32"}}}, {"name": "StatefulPartitionedCall/U2NetOneOutput/u2_net/rsu6/green_20/conv2d_20/Conv2D/SpaceToBatchND/block_shape", "op": "Const", "attr": {"dtype": {"type": "DT_INT32"}, "value": {"tensor": {"dtype": "DT_INT32", "tensorShape": {"dim": [{"size": "2"}]}}}}}, {"name": "StatefulPartitionedCall/U2NetOneOutput/u2_net/rsu6/green_20/conv2d_20/Conv2D/SpaceToBatchND/paddings", "op": "Const", "attr": {"dtype": {"type": "DT_INT32"}, "value": {"tensor": {"dtype": "DT_INT32", "tensorShape": {"dim": [{"size": "2"}, {"size": "2"}]}}}}}, {"name": "StatefulPartitionedCall/U2NetOneOutput/u2_net/rsu6/green_20/conv2d_20/Conv2D/ReadVariableOp", "op": "Const", "attr": {"dtype": {"type": "DT_FLOAT"}, "value": {"tensor": {"dtype": "DT_FLOAT", "tensorShape": {"dim": [{"size": "3"}, {"size": "3"}, {"size": "32"}, {"size": "32"}]}}}}}, {"name": "StatefulPartitionedCall/U2NetOneOutput/u2_net/rsu6/green_20/conv2d_20/Conv2D/BatchToSpaceND/block_shape", "op": "Const", "attr": {"dtype": {"type": "DT_INT32"}, "value": {"tensor": {"dtype": "DT_INT32", "tensorShape": {"dim": [{"size": "2"}]}}}}}, {"name": "StatefulPartitionedCall/U2NetOneOutput/u2_net/rsu6/green_20/conv2d_20/Conv2D/BatchToSpaceND/crops", "op": "Const", "attr": {"value": {"tensor": {"dtype": "DT_INT32", "tensorShape": {"dim": [{"size": "2"}, {"size": "2"}]}}}, "dtype": {"type": "DT_INT32"}}}, {"name": "StatefulPartitionedCall/U2NetOneOutput/u2_net/rsu6/green_20/conv2d_20/BiasAdd/ReadVariableOp", "op": "Const", "attr": {"value": {"tensor": {"dtype": "DT_FLOAT", "tensorShape": {"dim": [{"size": "32"}]}}}, "dtype": {"type": "DT_FLOAT"}}}, {"name": "StatefulPartitionedCall/U2NetOneOutput/u2_net/rsu6/concatenate_6/concat/axis", "op": "Const", "attr": {"dtype": {"type": "DT_INT32"}, "value": {"tensor": {"dtype": "DT_INT32", "tensorShape": {}}}}}, {"name": "StatefulPartitionedCall/U2NetOneOutput/u2_net/rsu6/pink_5/up_sampling2d_5/mul", "op": "Const", "attr": {"value": {"tensor": {"dtype": "DT_INT32", "tensorShape": {"dim": [{"size": "2"}]}}}, "dtype": {"type": "DT_INT32"}}}, {"name": "StatefulPartitionedCall/U2NetOneOutput/u2_net/rsu6/pink_5/concatenate_7/concat/axis", "op": "Const", "attr": {"value": {"tensor": {"dtype": "DT_INT32", "tensorShape": {}}}, "dtype": {"type": "DT_INT32"}}}, {"name": "StatefulPartitionedCall/U2NetOneOutput/u2_net/rsu6/pink_6/up_sampling2d_6/mul", "op": "Const", "attr": {"value": {"tensor": {"dtype": "DT_INT32", "tensorShape": {"dim": [{"size": "2"}]}}}, "dtype": {"type": "DT_INT32"}}}, {"name": "StatefulPartitionedCall/U2NetOneOutput/u2_net/rsu6/pink_6/concatenate_8/concat/axis", "op": "Const", "attr": {"dtype": {"type": "DT_INT32"}, "value": {"tensor": {"dtype": "DT_INT32", "tensorShape": {}}}}}, {"name": "StatefulPartitionedCall/U2NetOneOutput/u2_net/rsu6/pink_7/up_sampling2d_7/mul", "op": "Const", "attr": {"dtype": {"type": "DT_INT32"}, "value": {"tensor": {"dtype": "DT_INT32", "tensorShape": {"dim": [{"size": "2"}]}}}}}, {"name": "StatefulPartitionedCall/U2NetOneOutput/u2_net/rsu6/pink_7/concatenate_9/concat/axis", "op": "Const", "attr": {"dtype": {"type": "DT_INT32"}, "value": {"tensor": {"dtype": "DT_INT32", "tensorShape": {}}}}}, {"name": "StatefulPartitionedCall/U2NetOneOutput/u2_net/rsu6/pink_8/up_sampling2d_8/mul", "op": "Const", "attr": {"dtype": {"type": "DT_INT32"}, "value": {"tensor": {"dtype": "DT_INT32", "tensorShape": {"dim": [{"size": "2"}]}}}}}, {"name": "StatefulPartitionedCall/U2NetOneOutput/u2_net/rsu6/pink_8/concatenate_10/concat/axis", "op": "Const", "attr": {"value": {"tensor": {"dtype": "DT_INT32", "tensorShape": {}}}, "dtype": {"type": "DT_INT32"}}}, {"name": "StatefulPartitionedCall/U2NetOneOutput/u2_net/rsu7/green_7/conv2d_7/Conv2D/SpaceToBatchND/block_shape", "op": "Const", "attr": {"dtype": {"type": "DT_INT32"}, "value": {"tensor": {"dtype": "DT_INT32", "tensorShape": {"dim": [{"size": "2"}]}}}}}, {"name": "StatefulPartitionedCall/U2NetOneOutput/u2_net/rsu7/green_7/conv2d_7/Conv2D/SpaceToBatchND/paddings", "op": "Const", "attr": {"value": {"tensor": {"dtype": "DT_INT32", "tensorShape": {"dim": [{"size": "2"}, {"size": "2"}]}}}, "dtype": {"type": "DT_INT32"}}}, {"name": "StatefulPartitionedCall/U2NetOneOutput/u2_net/rsu7/green_7/conv2d_7/Conv2D/ReadVariableOp", "op": "Const", "attr": {"dtype": {"type": "DT_FLOAT"}, "value": {"tensor": {"dtype": "DT_FLOAT", "tensorShape": {"dim": [{"size": "3"}, {"size": "3"}, {"size": "32"}, {"size": "32"}]}}}}}, {"name": "StatefulPartitionedCall/U2NetOneOutput/u2_net/rsu7/green_7/conv2d_7/Conv2D/BatchToSpaceND/block_shape", "op": "Const", "attr": {"value": {"tensor": {"dtype": "DT_INT32", "tensorShape": {"dim": [{"size": "2"}]}}}, "dtype": {"type": "DT_INT32"}}}, {"name": "StatefulPartitionedCall/U2NetOneOutput/u2_net/rsu7/green_7/conv2d_7/Conv2D/BatchToSpaceND/crops", "op": "Const", "attr": {"value": {"tensor": {"dtype": "DT_INT32", "tensorShape": {"dim": [{"size": "2"}, {"size": "2"}]}}}, "dtype": {"type": "DT_INT32"}}}, {"name": "StatefulPartitionedCall/U2NetOneOutput/u2_net/rsu7/green_7/conv2d_7/BiasAdd/ReadVariableOp", "op": "Const", "attr": {"dtype": {"type": "DT_FLOAT"}, "value": {"tensor": {"dtype": "DT_FLOAT", "tensorShape": {"dim": [{"size": "32"}]}}}}}, {"name": "StatefulPartitionedCall/U2NetOneOutput/u2_net/rsu7/concatenate/concat/axis", "op": "Const", "attr": {"value": {"tensor": {"dtype": "DT_INT32", "tensorShape": {}}}, "dtype": {"type": "DT_INT32"}}}, {"name": "StatefulPartitionedCall/U2NetOneOutput/u2_net/rsu7/pink/up_sampling2d/mul", "op": "Const", "attr": {"dtype": {"type": "DT_INT32"}, "value": {"tensor": {"dtype": "DT_INT32", "tensorShape": {"dim": [{"size": "2"}]}}}}}, {"name": "StatefulPartitionedCall/U2NetOneOutput/u2_net/rsu7/pink/concatenate_1/concat/axis", "op": "Const", "attr": {"value": {"tensor": {"dtype": "DT_INT32", "tensorShape": {}}}, "dtype": {"type": "DT_INT32"}}}, {"name": "StatefulPartitionedCall/U2NetOneOutput/u2_net/rsu7/pink_1/up_sampling2d_1/mul", "op": "Const", "attr": {"value": {"tensor": {"dtype": "DT_INT32", "tensorShape": {"dim": [{"size": "2"}]}}}, "dtype": {"type": "DT_INT32"}}}, {"name": "StatefulPartitionedCall/U2NetOneOutput/u2_net/rsu7/pink_1/concatenate_2/concat/axis", "op": "Const", "attr": {"value": {"tensor": {"dtype": "DT_INT32", "tensorShape": {}}}, "dtype": {"type": "DT_INT32"}}}, {"name": "StatefulPartitionedCall/U2NetOneOutput/u2_net/rsu7/pink_2/up_sampling2d_2/mul", "op": "Const", "attr": {"value": {"tensor": {"dtype": "DT_INT32", "tensorShape": {"dim": [{"size": "2"}]}}}, "dtype": {"type": "DT_INT32"}}}, {"name": "StatefulPartitionedCall/U2NetOneOutput/u2_net/rsu7/pink_2/concatenate_3/concat/axis", "op": "Const", "attr": {"value": {"tensor": {"dtype": "DT_INT32", "tensorShape": {}}}, "dtype": {"type": "DT_INT32"}}}, {"name": "StatefulPartitionedCall/U2NetOneOutput/u2_net/rsu7/pink_3/up_sampling2d_3/mul", "op": "Const", "attr": {"dtype": {"type": "DT_INT32"}, "value": {"tensor": {"dtype": "DT_INT32", "tensorShape": {"dim": [{"size": "2"}]}}}}}, {"name": "StatefulPartitionedCall/U2NetOneOutput/u2_net/rsu7/pink_3/concatenate_4/concat/axis", "op": "Const", "attr": {"value": {"tensor": {"dtype": "DT_INT32", "tensorShape": {}}}, "dtype": {"type": "DT_INT32"}}}, {"name": "StatefulPartitionedCall/U2NetOneOutput/u2_net/rsu7/pink_4/up_sampling2d_4/mul", "op": "Const", "attr": {"dtype": {"type": "DT_INT32"}, "value": {"tensor": {"dtype": "DT_INT32", "tensorShape": {"dim": [{"size": "2"}]}}}}}, {"name": "StatefulPartitionedCall/U2NetOneOutput/u2_net/rsu7/pink_4/concatenate_5/concat/axis", "op": "Const", "attr": {"dtype": {"type": "DT_INT32"}, "value": {"tensor": {"dtype": "DT_INT32", "tensorShape": {}}}}}, {"name": "StatefulPartitionedCall/U2NetOneOutput/u2_net/rsu4f/concatenate_20/concat/axis", "op": "Const", "attr": {"value": {"tensor": {"dtype": "DT_INT32", "tensorShape": {}}}, "dtype": {"type": "DT_INT32"}}}, {"name": "StatefulPartitionedCall/U2NetOneOutput/u2_net/rsu4f_1/concatenate_23/concat/axis", "op": "Const", "attr": {"dtype": {"type": "DT_INT32"}, "value": {"tensor": {"dtype": "DT_INT32", "tensorShape": {}}}}}, {"name": "StatefulPartitionedCall/U2NetOneOutput/u2_net/conv2d_118/Conv2D/ReadVariableOp", "op": "Const", "attr": {"dtype": {"type": "DT_FLOAT"}, "value": {"tensor": {"dtype": "DT_FLOAT", "tensorShape": {"dim": [{"size": "3"}, {"size": "3"}, {"size": "512"}, {"size": "1"}]}}}}}, {"name": "StatefulPartitionedCall/U2NetOneOutput/u2_net/conv2d_118/BiasAdd/ReadVariableOp", "op": "Const", "attr": {"value": {"tensor": {"dtype": "DT_FLOAT", "tensorShape": {"dim": [{"size": "1"}]}}}, "dtype": {"type": "DT_FLOAT"}}}, {"name": "StatefulPartitionedCall/U2NetOneOutput/u2_net/up_sampling2d_9/mul", "op": "Const", "attr": {"dtype": {"type": "DT_INT32"}, "value": {"tensor": {"dtype": "DT_INT32", "tensorShape": {"dim": [{"size": "2"}]}}}}}, {"name": "StatefulPartitionedCall/U2NetOneOutput/u2_net/concatenate_50/concat/axis", "op": "Const", "attr": {"dtype": {"type": "DT_INT32"}, "value": {"tensor": {"dtype": "DT_INT32", "tensorShape": {}}}}}, {"name": "StatefulPartitionedCall/U2NetOneOutput/u2_net/conv2d_112/Conv2D/ReadVariableOp", "op": "Const", "attr": {"dtype": {"type": "DT_FLOAT"}, "value": {"tensor": {"dtype": "DT_FLOAT", "tensorShape": {"dim": [{"size": "3"}, {"size": "3"}, {"size": "6"}, {"size": "1"}]}}}}}, {"name": "StatefulPartitionedCall/U2NetOneOutput/u2_net/conv2d_112/BiasAdd/ReadVariableOp", "op": "Const", "attr": {"value": {"tensor": {"dtype": "DT_FLOAT", "tensorShape": {"dim": [{"size": "1"}]}}}, "dtype": {"type": "DT_FLOAT"}}}, {"name": "input_1", "op": "Placeholder", "attr": {"shape": {"shape": {"dim": [{"size": "-1"}, {"size": "512"}, {"size": "512"}, {"size": "3"}]}}, "dtype": {"type": "DT_FLOAT"}}}, {"name": "StatefulPartitionedCall/U2NetOneOutput/u2_net/rsu7/green/conv2d/Conv2D_weights", "op": "Const", "attr": {"value": {"tensor": {"dtype": "DT_FLOAT", "tensorShape": {"dim": [{"size": "3"}, {"size": "3"}, {"size": "3"}, {"size": "64"}]}}}, "dtype": {"type": "DT_FLOAT"}}}, {"name": "StatefulPartitionedCall/U2NetOneOutput/u2_net/rsu7/green/conv2d/Conv2D_bn_offset", "op": "Const", "attr": {"value": {"tensor": {"dtype": "DT_FLOAT", "tensorShape": {"dim": [{"size": "64"}]}}}, "dtype": {"type": "DT_FLOAT"}}}, {"name": "StatefulPartitionedCall/U2NetOneOutput/u2_net/rsu7/green_1/conv2d_1/Conv2D_weights", "op": "Const", "attr": {"dtype": {"type": "DT_FLOAT"}, "value": {"tensor": {"dtype": "DT_FLOAT", "tensorShape": {"dim": [{"size": "3"}, {"size": "3"}, {"size": "64"}, {"size": "32"}]}}}}}, {"name": "StatefulPartitionedCall/U2NetOneOutput/u2_net/rsu7/green_1/conv2d_1/Conv2D_bn_offset", "op": "Const", "attr": {"dtype": {"type": "DT_FLOAT"}, "value": {"tensor": {"dtype": "DT_FLOAT", "tensorShape": {"dim": [{"size": "32"}]}}}}}, {"name": "StatefulPartitionedCall/U2NetOneOutput/u2_net/rsu7/blue/green_2/conv2d_2/Conv2D_weights", "op": "Const", "attr": {"value": {"tensor": {"dtype": "DT_FLOAT", "tensorShape": {"dim": [{"size": "3"}, {"size": "3"}, {"size": "32"}, {"size": "32"}]}}}, "dtype": {"type": "DT_FLOAT"}}}, {"name": "StatefulPartitionedCall/U2NetOneOutput/u2_net/rsu7_1/pink_26/green_110/conv2d_110/Conv2D_weights", "op": "Const", "attr": {"value": {"tensor": {"dtype": "DT_FLOAT", "tensorShape": {"dim": [{"size": "3"}, {"size": "3"}, {"size": "32"}, {"size": "16"}]}}}, "dtype": {"type": "DT_FLOAT"}}}, {"name": "StatefulPartitionedCall/U2NetOneOutput/u2_net/rsu7/blue/green_2/conv2d_2/Conv2D_bn_offset", "op": "Const", "attr": {"dtype": {"type": "DT_FLOAT"}, "value": {"tensor": {"dtype": "DT_FLOAT", "tensorShape": {"dim": [{"size": "32"}]}}}}}, {"name": "StatefulPartitionedCall/U2NetOneOutput/u2_net/rsu7/blue_1/green_3/conv2d_3/Conv2D_weights", "op": "Const", "attr": {"dtype": {"type": "DT_FLOAT"}, "value": {"tensor": {"dtype": "DT_FLOAT", "tensorShape": {"dim": [{"size": "3"}, {"size": "3"}, {"size": "32"}, {"size": "32"}]}}}}}, {"name": "StatefulPartitionedCall/U2NetOneOutput/u2_net/rsu7_1/pink_26/green_110/conv2d_110/Conv2D_bn_offset", "op": "Const", "attr": {"dtype": {"type": "DT_FLOAT"}, "value": {"tensor": {"dtype": "DT_FLOAT", "tensorShape": {"dim": [{"size": "16"}]}}}}}, {"name": "StatefulPartitionedCall/U2NetOneOutput/u2_net/rsu7/blue_1/green_3/conv2d_3/Conv2D_bn_offset", "op": "Const", "attr": {"dtype": {"type": "DT_FLOAT"}, "value": {"tensor": {"dtype": "DT_FLOAT", "tensorShape": {"dim": [{"size": "32"}]}}}}}, {"name": "StatefulPartitionedCall/U2NetOneOutput/u2_net/rsu7/blue_2/green_4/conv2d_4/Conv2D_weights", "op": "Const", "attr": {"dtype": {"type": "DT_FLOAT"}, "value": {"tensor": {"dtype": "DT_FLOAT", "tensorShape": {"dim": [{"size": "3"}, {"size": "3"}, {"size": "32"}, {"size": "32"}]}}}}}, {"name": "StatefulPartitionedCall/U2NetOneOutput/u2_net/rsu7/blue_2/green_4/conv2d_4/Conv2D_bn_offset", "op": "Const", "attr": {"dtype": {"type": "DT_FLOAT"}, "value": {"tensor": {"dtype": "DT_FLOAT", "tensorShape": {"dim": [{"size": "32"}]}}}}}, {"name": "StatefulPartitionedCall/U2NetOneOutput/u2_net/rsu7/blue_3/green_5/conv2d_5/Conv2D_weights", "op": "Const", "attr": {"value": {"tensor": {"dtype": "DT_FLOAT", "tensorShape": {"dim": [{"size": "3"}, {"size": "3"}, {"size": "32"}, {"size": "32"}]}}}, "dtype": {"type": "DT_FLOAT"}}}, {"name": "StatefulPartitionedCall/U2NetOneOutput/u2_net/rsu7/blue_3/green_5/conv2d_5/Conv2D_bn_offset", "op": "Const", "attr": {"dtype": {"type": "DT_FLOAT"}, "value": {"tensor": {"dtype": "DT_FLOAT", "tensorShape": {"dim": [{"size": "32"}]}}}}}, {"name": "StatefulPartitionedCall/U2NetOneOutput/u2_net/rsu7_1/pink_27/green_111/conv2d_111/Conv2D_weights", "op": "Const", "attr": {"dtype": {"type": "DT_FLOAT"}, "value": {"tensor": {"dtype": "DT_FLOAT", "tensorShape": {"dim": [{"size": "3"}, {"size": "3"}, {"size": "32"}, {"size": "64"}]}}}}}, {"name": "StatefulPartitionedCall/U2NetOneOutput/u2_net/rsu7/blue_4/green_6/conv2d_6/Conv2D_weights", "op": "Const", "attr": {"dtype": {"type": "DT_FLOAT"}, "value": {"tensor": {"dtype": "DT_FLOAT", "tensorShape": {"dim": [{"size": "3"}, {"size": "3"}, {"size": "32"}, {"size": "32"}]}}}}}, {"name": "StatefulPartitionedCall/U2NetOneOutput/u2_net/rsu7/green_7/batch_normalization_7/FusedBatchNormV3/Scaled", "op": "Const", "attr": {"value": {"tensor": {"dtype": "DT_FLOAT", "tensorShape": {"dim": [{"size": "32"}]}}}, "dtype": {"type": "DT_FLOAT"}}}, {"name": "StatefulPartitionedCall/U2NetOneOutput/u2_net/rsu7/blue_4/green_6/conv2d_6/Conv2D_bn_offset", "op": "Const", "attr": {"dtype": {"type": "DT_FLOAT"}, "value": {"tensor": {"dtype": "DT_FLOAT", "tensorShape": {"dim": [{"size": "32"}]}}}}}, {"name": "StatefulPartitionedCall/U2NetOneOutput/u2_net/rsu7_1/pink_27/green_111/conv2d_111/Conv2D_bn_offset", "op": "Const", "attr": {"dtype": {"type": "DT_FLOAT"}, "value": {"tensor": {"dtype": "DT_FLOAT", "tensorShape": {"dim": [{"size": "64"}]}}}}}, {"name": "StatefulPartitionedCall/U2NetOneOutput/u2_net/rsu7/green_8/conv2d_8/Conv2D_weights", "op": "Const", "attr": {"value": {"tensor": {"dtype": "DT_FLOAT", "tensorShape": {"dim": [{"size": "3"}, {"size": "3"}, {"size": "64"}, {"size": "32"}]}}}, "dtype": {"type": "DT_FLOAT"}}}, {"name": "StatefulPartitionedCall/U2NetOneOutput/u2_net/rsu7/green_8/conv2d_8/Conv2D_bn_offset", "op": "Const", "attr": {"value": {"tensor": {"dtype": "DT_FLOAT", "tensorShape": {"dim": [{"size": "32"}]}}}, "dtype": {"type": "DT_FLOAT"}}}, {"name": "StatefulPartitionedCall/U2NetOneOutput/u2_net/rsu7/pink/green_9/conv2d_9/Conv2D_weights", "op": "Const", "attr": {"dtype": {"type": "DT_FLOAT"}, "value": {"tensor": {"dtype": "DT_FLOAT", "tensorShape": {"dim": [{"size": "3"}, {"size": "3"}, {"size": "64"}, {"size": "32"}]}}}}}, {"name": "StatefulPartitionedCall/U2NetOneOutput/u2_net/rsu7/pink/green_9/conv2d_9/Conv2D_bn_offset", "op": "Const", "attr": {"dtype": {"type": "DT_FLOAT"}, "value": {"tensor": {"dtype": "DT_FLOAT", "tensorShape": {"dim": [{"size": "32"}]}}}}}, {"name": "StatefulPartitionedCall/U2NetOneOutput/u2_net/rsu7/pink_1/green_10/conv2d_10/Conv2D_weights", "op": "Const", "attr": {"value": {"tensor": {"dtype": "DT_FLOAT", "tensorShape": {"dim": [{"size": "3"}, {"size": "3"}, {"size": "64"}, {"size": "32"}]}}}, "dtype": {"type": "DT_FLOAT"}}}, {"name": "StatefulPartitionedCall/U2NetOneOutput/u2_net/rsu7/pink_1/green_10/conv2d_10/Conv2D_bn_offset", "op": "Const", "attr": {"value": {"tensor": {"dtype": "DT_FLOAT", "tensorShape": {"dim": [{"size": "32"}]}}}, "dtype": {"type": "DT_FLOAT"}}}, {"name": "StatefulPartitionedCall/U2NetOneOutput/u2_net/rsu7/pink_2/green_11/conv2d_11/Conv2D_weights", "op": "Const", "attr": {"dtype": {"type": "DT_FLOAT"}, "value": {"tensor": {"dtype": "DT_FLOAT", "tensorShape": {"dim": [{"size": "3"}, {"size": "3"}, {"size": "64"}, {"size": "32"}]}}}}}, {"name": "StatefulPartitionedCall/U2NetOneOutput/u2_net/rsu7/green_7/batch_normalization_7/FusedBatchNormV3/Offset", "op": "Const", "attr": {"dtype": {"type": "DT_FLOAT"}, "value": {"tensor": {"dtype": "DT_FLOAT", "tensorShape": {"dim": [{"size": "32"}]}}}}}, {"name": "StatefulPartitionedCall/U2NetOneOutput/u2_net/rsu7/pink_2/green_11/conv2d_11/Conv2D_bn_offset", "op": "Const", "attr": {"dtype": {"type": "DT_FLOAT"}, "value": {"tensor": {"dtype": "DT_FLOAT", "tensorShape": {"dim": [{"size": "32"}]}}}}}, {"name": "StatefulPartitionedCall/U2NetOneOutput/u2_net/rsu7/pink_3/green_12/conv2d_12/Conv2D_weights", "op": "Const", "attr": {"value": {"tensor": {"dtype": "DT_FLOAT", "tensorShape": {"dim": [{"size": "3"}, {"size": "3"}, {"size": "64"}, {"size": "32"}]}}}, "dtype": {"type": "DT_FLOAT"}}}, {"name": "StatefulPartitionedCall/U2NetOneOutput/u2_net/rsu7/pink_3/green_12/conv2d_12/Conv2D_bn_offset", "op": "Const", "attr": {"value": {"tensor": {"dtype": "DT_FLOAT", "tensorShape": {"dim": [{"size": "32"}]}}}, "dtype": {"type": "DT_FLOAT"}}}, {"name": "StatefulPartitionedCall/U2NetOneOutput/u2_net/rsu7/pink_4/green_13/conv2d_13/Conv2D_weights", "op": "Const", "attr": {"value": {"tensor": {"dtype": "DT_FLOAT", "tensorShape": {"dim": [{"size": "3"}, {"size": "3"}, {"size": "64"}, {"size": "64"}]}}}, "dtype": {"type": "DT_FLOAT"}}}, {"name": "StatefulPartitionedCall/U2NetOneOutput/u2_net/rsu7/pink_4/green_13/conv2d_13/Conv2D_bn_offset", "op": "Const", "attr": {"value": {"tensor": {"dtype": "DT_FLOAT", "tensorShape": {"dim": [{"size": "64"}]}}}, "dtype": {"type": "DT_FLOAT"}}}, {"name": "StatefulPartitionedCall/U2NetOneOutput/u2_net/rsu6/green_14/conv2d_14/Conv2D_weights", "op": "Const", "attr": {"dtype": {"type": "DT_FLOAT"}, "value": {"tensor": {"dtype": "DT_FLOAT", "tensorShape": {"dim": [{"size": "3"}, {"size": "3"}, {"size": "64"}, {"size": "128"}]}}}}}, {"name": "StatefulPartitionedCall/U2NetOneOutput/u2_net/rsu6/green_14/conv2d_14/Conv2D_bn_offset", "op": "Const", "attr": {"value": {"tensor": {"dtype": "DT_FLOAT", "tensorShape": {"dim": [{"size": "128"}]}}}, "dtype": {"type": "DT_FLOAT"}}}, {"name": "StatefulPartitionedCall/U2NetOneOutput/u2_net/rsu7_1/green_105/batch_normalization_105/FusedBatchNormV3/Scaled", "op": "Const", "attr": {"value": {"tensor": {"dtype": "DT_FLOAT", "tensorShape": {"dim": [{"size": "16"}]}}}, "dtype": {"type": "DT_FLOAT"}}}, {"name": "StatefulPartitionedCall/U2NetOneOutput/u2_net/rsu6/green_15/conv2d_15/Conv2D_weights", "op": "Const", "attr": {"dtype": {"type": "DT_FLOAT"}, "value": {"tensor": {"dtype": "DT_FLOAT", "tensorShape": {"dim": [{"size": "3"}, {"size": "3"}, {"size": "128"}, {"size": "32"}]}}}}}, {"name": "StatefulPartitionedCall/U2NetOneOutput/u2_net/rsu6/green_15/conv2d_15/Conv2D_bn_offset", "op": "Const", "attr": {"value": {"tensor": {"dtype": "DT_FLOAT", "tensorShape": {"dim": [{"size": "32"}]}}}, "dtype": {"type": "DT_FLOAT"}}}, {"name": "StatefulPartitionedCall/U2NetOneOutput/u2_net/rsu6/blue_5/green_16/conv2d_16/Conv2D_weights", "op": "Const", "attr": {"dtype": {"type": "DT_FLOAT"}, "value": {"tensor": {"dtype": "DT_FLOAT", "tensorShape": {"dim": [{"size": "3"}, {"size": "3"}, {"size": "32"}, {"size": "32"}]}}}}}, {"name": "StatefulPartitionedCall/U2NetOneOutput/u2_net/rsu7_1/green_105/batch_normalization_105/FusedBatchNormV3/Offset", "op": "Const", "attr": {"value": {"tensor": {"dtype": "DT_FLOAT", "tensorShape": {"dim": [{"size": "16"}]}}}, "dtype": {"type": "DT_FLOAT"}}}, {"name": "StatefulPartitionedCall/U2NetOneOutput/u2_net/rsu6/blue_5/green_16/conv2d_16/Conv2D_bn_offset", "op": "Const", "attr": {"dtype": {"type": "DT_FLOAT"}, "value": {"tensor": {"dtype": "DT_FLOAT", "tensorShape": {"dim": [{"size": "32"}]}}}}}, {"name": "StatefulPartitionedCall/U2NetOneOutput/u2_net/rsu6/blue_6/green_17/conv2d_17/Conv2D_weights", "op": "Const", "attr": {"dtype": {"type": "DT_FLOAT"}, "value": {"tensor": {"dtype": "DT_FLOAT", "tensorShape": {"dim": [{"size": "3"}, {"size": "3"}, {"size": "32"}, {"size": "32"}]}}}}}, {"name": "StatefulPartitionedCall/U2NetOneOutput/u2_net/rsu6/blue_6/green_17/conv2d_17/Conv2D_bn_offset", "op": "Const", "attr": {"dtype": {"type": "DT_FLOAT"}, "value": {"tensor": {"dtype": "DT_FLOAT", "tensorShape": {"dim": [{"size": "32"}]}}}}}, {"name": "StatefulPartitionedCall/U2NetOneOutput/u2_net/rsu6/blue_7/green_18/conv2d_18/Conv2D_weights", "op": "Const", "attr": {"dtype": {"type": "DT_FLOAT"}, "value": {"tensor": {"dtype": "DT_FLOAT", "tensorShape": {"dim": [{"size": "3"}, {"size": "3"}, {"size": "32"}, {"size": "32"}]}}}}}, {"name": "StatefulPartitionedCall/U2NetOneOutput/u2_net/rsu6_1/green_92/batch_normalization_92/FusedBatchNormV3/Scaled", "op": "Const", "attr": {"value": {"tensor": {"dtype": "DT_FLOAT", "tensorShape": {"dim": [{"size": "32"}]}}}, "dtype": {"type": "DT_FLOAT"}}}, {"name": "StatefulPartitionedCall/U2NetOneOutput/u2_net/rsu6/blue_7/green_18/conv2d_18/Conv2D_bn_offset", "op": "Const", "attr": {"dtype": {"type": "DT_FLOAT"}, "value": {"tensor": {"dtype": "DT_FLOAT", "tensorShape": {"dim": [{"size": "32"}]}}}}}, {"name": "StatefulPartitionedCall/U2NetOneOutput/u2_net/rsu6/blue_8/green_19/conv2d_19/Conv2D_weights", "op": "Const", "attr": {"dtype": {"type": "DT_FLOAT"}, "value": {"tensor": {"dtype": "DT_FLOAT", "tensorShape": {"dim": [{"size": "3"}, {"size": "3"}, {"size": "32"}, {"size": "32"}]}}}}}, {"name": "StatefulPartitionedCall/U2NetOneOutput/u2_net/rsu6/blue_8/green_19/conv2d_19/Conv2D_bn_offset", "op": "Const", "attr": {"value": {"tensor": {"dtype": "DT_FLOAT", "tensorShape": {"dim": [{"size": "32"}]}}}, "dtype": {"type": "DT_FLOAT"}}}, {"name": "StatefulPartitionedCall/U2NetOneOutput/u2_net/rsu6_1/green_92/batch_normalization_92/FusedBatchNormV3/Offset", "op": "Const", "attr": {"dtype": {"type": "DT_FLOAT"}, "value": {"tensor": {"dtype": "DT_FLOAT", "tensorShape": {"dim": [{"size": "32"}]}}}}}, {"name": "StatefulPartitionedCall/U2NetOneOutput/u2_net/rsu6/green_21/conv2d_21/Conv2D_weights", "op": "Const", "attr": {"value": {"tensor": {"dtype": "DT_FLOAT", "tensorShape": {"dim": [{"size": "3"}, {"size": "3"}, {"size": "64"}, {"size": "32"}]}}}, "dtype": {"type": "DT_FLOAT"}}}, {"name": "StatefulPartitionedCall/U2NetOneOutput/u2_net/rsu6/green_21/conv2d_21/Conv2D_bn_offset", "op": "Const", "attr": {"value": {"tensor": {"dtype": "DT_FLOAT", "tensorShape": {"dim": [{"size": "32"}]}}}, "dtype": {"type": "DT_FLOAT"}}}, {"name": "StatefulPartitionedCall/U2NetOneOutput/u2_net/rsu6/pink_5/green_22/conv2d_22/Conv2D_weights", "op": "Const", "attr": {"dtype": {"type": "DT_FLOAT"}, "value": {"tensor": {"dtype": "DT_FLOAT", "tensorShape": {"dim": [{"size": "3"}, {"size": "3"}, {"size": "64"}, {"size": "32"}]}}}}}, {"name": "StatefulPartitionedCall/U2NetOneOutput/u2_net/rsu6/pink_5/green_22/conv2d_22/Conv2D_bn_offset", "op": "Const", "attr": {"dtype": {"type": "DT_FLOAT"}, "value": {"tensor": {"dtype": "DT_FLOAT", "tensorShape": {"dim": [{"size": "32"}]}}}}}, {"name": "StatefulPartitionedCall/U2NetOneOutput/u2_net/rsu5_1/green_81/batch_normalization_81/FusedBatchNormV3/Scaled", "op": "Const", "attr": {"value": {"tensor": {"dtype": "DT_FLOAT", "tensorShape": {"dim": [{"size": "64"}]}}}, "dtype": {"type": "DT_FLOAT"}}}, {"name": "StatefulPartitionedCall/U2NetOneOutput/u2_net/rsu6/pink_6/green_23/conv2d_23/Conv2D_weights", "op": "Const", "attr": {"value": {"tensor": {"dtype": "DT_FLOAT", "tensorShape": {"dim": [{"size": "3"}, {"size": "3"}, {"size": "64"}, {"size": "32"}]}}}, "dtype": {"type": "DT_FLOAT"}}}, {"name": "StatefulPartitionedCall/U2NetOneOutput/u2_net/rsu6/pink_6/green_23/conv2d_23/Conv2D_bn_offset", "op": "Const", "attr": {"value": {"tensor": {"dtype": "DT_FLOAT", "tensorShape": {"dim": [{"size": "32"}]}}}, "dtype": {"type": "DT_FLOAT"}}}, {"name": "StatefulPartitionedCall/U2NetOneOutput/u2_net/rsu6/pink_7/green_24/conv2d_24/Conv2D_weights", "op": "Const", "attr": {"value": {"tensor": {"dtype": "DT_FLOAT", "tensorShape": {"dim": [{"size": "3"}, {"size": "3"}, {"size": "64"}, {"size": "32"}]}}}, "dtype": {"type": "DT_FLOAT"}}}, {"name": "StatefulPartitionedCall/U2NetOneOutput/u2_net/rsu5_1/green_81/batch_normalization_81/FusedBatchNormV3/Offset", "op": "Const", "attr": {"value": {"tensor": {"dtype": "DT_FLOAT", "tensorShape": {"dim": [{"size": "64"}]}}}, "dtype": {"type": "DT_FLOAT"}}}, {"name": "StatefulPartitionedCall/U2NetOneOutput/u2_net/rsu6/pink_7/green_24/conv2d_24/Conv2D_bn_offset", "op": "Const", "attr": {"dtype": {"type": "DT_FLOAT"}, "value": {"tensor": {"dtype": "DT_FLOAT", "tensorShape": {"dim": [{"size": "32"}]}}}}}, {"name": "StatefulPartitionedCall/U2NetOneOutput/u2_net/rsu6/pink_8/green_25/conv2d_25/Conv2D_weights", "op": "Const", "attr": {"dtype": {"type": "DT_FLOAT"}, "value": {"tensor": {"dtype": "DT_FLOAT", "tensorShape": {"dim": [{"size": "3"}, {"size": "3"}, {"size": "64"}, {"size": "128"}]}}}}}, {"name": "StatefulPartitionedCall/U2NetOneOutput/u2_net/rsu6/pink_8/green_25/conv2d_25/Conv2D_bn_offset", "op": "Const", "attr": {"value": {"tensor": {"dtype": "DT_FLOAT", "tensorShape": {"dim": [{"size": "128"}]}}}, "dtype": {"type": "DT_FLOAT"}}}, {"name": "StatefulPartitionedCall/U2NetOneOutput/u2_net/rsu5/green_26/conv2d_26/Conv2D_weights", "op": "Const", "attr": {"value": {"tensor": {"dtype": "DT_FLOAT", "tensorShape": {"dim": [{"size": "3"}, {"size": "3"}, {"size": "128"}, {"size": "256"}]}}}, "dtype": {"type": "DT_FLOAT"}}}, {"name": "StatefulPartitionedCall/U2NetOneOutput/u2_net/rsu4_1/green_72/batch_normalization_72/FusedBatchNormV3/Scaled", "op": "Const", "attr": {"dtype": {"type": "DT_FLOAT"}, "value": {"tensor": {"dtype": "DT_FLOAT", "tensorShape": {"dim": [{"size": "128"}]}}}}}, {"name": "StatefulPartitionedCall/U2NetOneOutput/u2_net/rsu5/green_26/conv2d_26/Conv2D_bn_offset", "op": "Const", "attr": {"dtype": {"type": "DT_FLOAT"}, "value": {"tensor": {"dtype": "DT_FLOAT", "tensorShape": {"dim": [{"size": "256"}]}}}}}, {"name": "StatefulPartitionedCall/U2NetOneOutput/u2_net/rsu5/green_27/conv2d_27/Conv2D_weights", "op": "Const", "attr": {"dtype": {"type": "DT_FLOAT"}, "value": {"tensor": {"dtype": "DT_FLOAT", "tensorShape": {"dim": [{"size": "3"}, {"size": "3"}, {"size": "256"}, {"size": "64"}]}}}}}, {"name": "StatefulPartitionedCall/U2NetOneOutput/u2_net/rsu5/green_27/conv2d_27/Conv2D_bn_offset", "op": "Const", "attr": {"dtype": {"type": "DT_FLOAT"}, "value": {"tensor": {"dtype": "DT_FLOAT", "tensorShape": {"dim": [{"size": "64"}]}}}}}, {"name": "StatefulPartitionedCall/U2NetOneOutput/u2_net/rsu4_1/green_72/batch_normalization_72/FusedBatchNormV3/Offset", "op": "Const", "attr": {"value": {"tensor": {"dtype": "DT_FLOAT", "tensorShape": {"dim": [{"size": "128"}]}}}, "dtype": {"type": "DT_FLOAT"}}}, {"name": "StatefulPartitionedCall/U2NetOneOutput/u2_net/rsu5/blue_9/green_28/conv2d_28/Conv2D_weights", "op": "Const", "attr": {"dtype": {"type": "DT_FLOAT"}, "value": {"tensor": {"dtype": "DT_FLOAT", "tensorShape": {"dim": [{"size": "3"}, {"size": "3"}, {"size": "64"}, {"size": "64"}]}}}}}, {"name": "StatefulPartitionedCall/U2NetOneOutput/u2_net/rsu5/blue_9/green_28/conv2d_28/Conv2D_bn_offset", "op": "Const", "attr": {"dtype": {"type": "DT_FLOAT"}, "value": {"tensor": {"dtype": "DT_FLOAT", "tensorShape": {"dim": [{"size": "64"}]}}}}}, {"name": "StatefulPartitionedCall/U2NetOneOutput/u2_net/rsu5/blue_10/green_29/conv2d_29/Conv2D_weights", "op": "Const", "attr": {"value": {"tensor": {"dtype": "DT_FLOAT", "tensorShape": {"dim": [{"size": "3"}, {"size": "3"}, {"size": "64"}, {"size": "64"}]}}}, "dtype": {"type": "DT_FLOAT"}}}, {"name": "StatefulPartitionedCall/U2NetOneOutput/u2_net/rsu5/blue_10/green_29/conv2d_29/Conv2D_bn_offset", "op": "Const", "attr": {"value": {"tensor": {"dtype": "DT_FLOAT", "tensorShape": {"dim": [{"size": "64"}]}}}, "dtype": {"type": "DT_FLOAT"}}}, {"name": "StatefulPartitionedCall/U2NetOneOutput/u2_net/rsu4f_2/green_66/batch_normalization_66/FusedBatchNormV3/Scaled", "op": "Const", "attr": {"dtype": {"type": "DT_FLOAT"}, "value": {"tensor": {"dtype": "DT_FLOAT", "tensorShape": {"dim": [{"size": "256"}]}}}}}, {"name": "StatefulPartitionedCall/U2NetOneOutput/u2_net/rsu5/blue_11/green_30/conv2d_30/Conv2D_weights", "op": "Const", "attr": {"value": {"tensor": {"dtype": "DT_FLOAT", "tensorShape": {"dim": [{"size": "3"}, {"size": "3"}, {"size": "64"}, {"size": "64"}]}}}, "dtype": {"type": "DT_FLOAT"}}}, {"name": "StatefulPartitionedCall/U2NetOneOutput/u2_net/rsu5/blue_11/green_30/conv2d_30/Conv2D_bn_offset", "op": "Const", "attr": {"dtype": {"type": "DT_FLOAT"}, "value": {"tensor": {"dtype": "DT_FLOAT", "tensorShape": {"dim": [{"size": "64"}]}}}}}, {"name": "StatefulPartitionedCall/U2NetOneOutput/u2_net/rsu5/green_32/conv2d_32/Conv2D_weights", "op": "Const", "attr": {"value": {"tensor": {"dtype": "DT_FLOAT", "tensorShape": {"dim": [{"size": "3"}, {"size": "3"}, {"size": "128"}, {"size": "64"}]}}}, "dtype": {"type": "DT_FLOAT"}}}, {"name": "StatefulPartitionedCall/U2NetOneOutput/u2_net/rsu4f_2/green_66/batch_normalization_66/FusedBatchNormV3/Offset", "op": "Const", "attr": {"dtype": {"type": "DT_FLOAT"}, "value": {"tensor": {"dtype": "DT_FLOAT", "tensorShape": {"dim": [{"size": "256"}]}}}}}, {"name": "StatefulPartitionedCall/U2NetOneOutput/u2_net/rsu5/green_32/conv2d_32/Conv2D_bn_offset", "op": "Const", "attr": {"value": {"tensor": {"dtype": "DT_FLOAT", "tensorShape": {"dim": [{"size": "64"}]}}}, "dtype": {"type": "DT_FLOAT"}}}, {"name": "StatefulPartitionedCall/U2NetOneOutput/u2_net/rsu5/pink_9/green_33/conv2d_33/Conv2D_weights", "op": "Const", "attr": {"dtype": {"type": "DT_FLOAT"}, "value": {"tensor": {"dtype": "DT_FLOAT", "tensorShape": {"dim": [{"size": "3"}, {"size": "3"}, {"size": "128"}, {"size": "64"}]}}}}}, {"name": "StatefulPartitionedCall/U2NetOneOutput/u2_net/rsu5/pink_9/green_33/conv2d_33/Conv2D_bn_offset", "op": "Const", "attr": {"value": {"tensor": {"dtype": "DT_FLOAT", "tensorShape": {"dim": [{"size": "64"}]}}}, "dtype": {"type": "DT_FLOAT"}}}, {"name": "StatefulPartitionedCall/U2NetOneOutput/u2_net/rsu5/pink_10/green_34/conv2d_34/Conv2D_weights", "op": "Const", "attr": {"dtype": {"type": "DT_FLOAT"}, "value": {"tensor": {"dtype": "DT_FLOAT", "tensorShape": {"dim": [{"size": "3"}, {"size": "3"}, {"size": "128"}, {"size": "64"}]}}}}}, {"name": "StatefulPartitionedCall/U2NetOneOutput/u2_net/rsu4f_2/green_65/batch_normalization_65/FusedBatchNormV3/Scaled", "op": "Const", "attr": {"dtype": {"type": "DT_FLOAT"}, "value": {"tensor": {"dtype": "DT_FLOAT", "tensorShape": {"dim": [{"size": "256"}]}}}}}, {"name": "StatefulPartitionedCall/U2NetOneOutput/u2_net/rsu5/pink_10/green_34/conv2d_34/Conv2D_bn_offset", "op": "Const", "attr": {"value": {"tensor": {"dtype": "DT_FLOAT", "tensorShape": {"dim": [{"size": "64"}]}}}, "dtype": {"type": "DT_FLOAT"}}}, {"name": "StatefulPartitionedCall/U2NetOneOutput/u2_net/rsu5/pink_11/green_35/conv2d_35/Conv2D_weights", "op": "Const", "attr": {"dtype": {"type": "DT_FLOAT"}, "value": {"tensor": {"dtype": "DT_FLOAT", "tensorShape": {"dim": [{"size": "3"}, {"size": "3"}, {"size": "128"}, {"size": "256"}]}}}}}, {"name": "StatefulPartitionedCall/U2NetOneOutput/u2_net/rsu5/pink_11/green_35/conv2d_35/Conv2D_bn_offset", "op": "Const", "attr": {"value": {"tensor": {"dtype": "DT_FLOAT", "tensorShape": {"dim": [{"size": "256"}]}}}, "dtype": {"type": "DT_FLOAT"}}}, {"name": "StatefulPartitionedCall/U2NetOneOutput/u2_net/rsu4f_2/green_65/batch_normalization_65/FusedBatchNormV3/Offset", "op": "Const", "attr": {"dtype": {"type": "DT_FLOAT"}, "value": {"tensor": {"dtype": "DT_FLOAT", "tensorShape": {"dim": [{"size": "256"}]}}}}}, {"name": "StatefulPartitionedCall/U2NetOneOutput/u2_net/rsu4/green_36/conv2d_36/Conv2D_weights", "op": "Const", "attr": {"dtype": {"type": "DT_FLOAT"}, "value": {"tensor": {"dtype": "DT_FLOAT", "tensorShape": {"dim": [{"size": "3"}, {"size": "3"}, {"size": "256"}, {"size": "512"}]}}}}}, {"name": "StatefulPartitionedCall/U2NetOneOutput/u2_net/rsu4/green_36/conv2d_36/Conv2D_bn_offset", "op": "Const", "attr": {"value": {"tensor": {"dtype": "DT_FLOAT", "tensorShape": {"dim": [{"size": "512"}]}}}, "dtype": {"type": "DT_FLOAT"}}}, {"name": "StatefulPartitionedCall/U2NetOneOutput/u2_net/rsu4/green_37/conv2d_37/Conv2D_weights", "op": "Const", "attr": {"value": {"tensor": {"dtype": "DT_FLOAT", "tensorShape": {"dim": [{"size": "3"}, {"size": "3"}, {"size": "512"}, {"size": "128"}]}}}, "dtype": {"type": "DT_FLOAT"}}}, {"name": "StatefulPartitionedCall/U2NetOneOutput/u2_net/rsu4/green_37/conv2d_37/Conv2D_bn_offset", "op": "Const", "attr": {"dtype": {"type": "DT_FLOAT"}, "value": {"tensor": {"dtype": "DT_FLOAT", "tensorShape": {"dim": [{"size": "128"}]}}}}}, {"name": "StatefulPartitionedCall/U2NetOneOutput/u2_net/rsu4f_2/green_64/batch_normalization_64/FusedBatchNormV3/Scaled", "op": "Const", "attr": {"value": {"tensor": {"dtype": "DT_FLOAT", "tensorShape": {"dim": [{"size": "256"}]}}}, "dtype": {"type": "DT_FLOAT"}}}, {"name": "StatefulPartitionedCall/U2NetOneOutput/u2_net/rsu4/blue_12/green_38/conv2d_38/Conv2D_weights", "op": "Const", "attr": {"dtype": {"type": "DT_FLOAT"}, "value": {"tensor": {"dtype": "DT_FLOAT", "tensorShape": {"dim": [{"size": "3"}, {"size": "3"}, {"size": "128"}, {"size": "128"}]}}}}}, {"name": "StatefulPartitionedCall/U2NetOneOutput/u2_net/rsu4/blue_12/green_38/conv2d_38/Conv2D_bn_offset", "op": "Const", "attr": {"dtype": {"type": "DT_FLOAT"}, "value": {"tensor": {"dtype": "DT_FLOAT", "tensorShape": {"dim": [{"size": "128"}]}}}}}, {"name": "StatefulPartitionedCall/U2NetOneOutput/u2_net/rsu4/blue_13/green_39/conv2d_39/Conv2D_weights", "op": "Const", "attr": {"value": {"tensor": {"dtype": "DT_FLOAT", "tensorShape": {"dim": [{"size": "3"}, {"size": "3"}, {"size": "128"}, {"size": "128"}]}}}, "dtype": {"type": "DT_FLOAT"}}}, {"name": "StatefulPartitionedCall/U2NetOneOutput/u2_net/rsu4f_2/green_64/batch_normalization_64/FusedBatchNormV3/Offset", "op": "Const", "attr": {"dtype": {"type": "DT_FLOAT"}, "value": {"tensor": {"dtype": "DT_FLOAT", "tensorShape": {"dim": [{"size": "256"}]}}}}}, {"name": "StatefulPartitionedCall/U2NetOneOutput/u2_net/rsu4/blue_13/green_39/conv2d_39/Conv2D_bn_offset", "op": "Const", "attr": {"dtype": {"type": "DT_FLOAT"}, "value": {"tensor": {"dtype": "DT_FLOAT", "tensorShape": {"dim": [{"size": "128"}]}}}}}, {"name": "StatefulPartitionedCall/U2NetOneOutput/u2_net/rsu4/green_41/conv2d_41/Conv2D_weights", "op": "Const", "attr": {"value": {"tensor": {"dtype": "DT_FLOAT", "tensorShape": {"dim": [{"size": "3"}, {"size": "3"}, {"size": "256"}, {"size": "128"}]}}}, "dtype": {"type": "DT_FLOAT"}}}, {"name": "StatefulPartitionedCall/U2NetOneOutput/u2_net/rsu4/green_41/conv2d_41/Conv2D_bn_offset", "op": "Const", "attr": {"dtype": {"type": "DT_FLOAT"}, "value": {"tensor": {"dtype": "DT_FLOAT", "tensorShape": {"dim": [{"size": "128"}]}}}}}, {"name": "StatefulPartitionedCall/U2NetOneOutput/u2_net/rsu4/pink_12/green_42/conv2d_42/Conv2D_weights", "op": "Const", "attr": {"dtype": {"type": "DT_FLOAT"}, "value": {"tensor": {"dtype": "DT_FLOAT", "tensorShape": {"dim": [{"size": "3"}, {"size": "3"}, {"size": "256"}, {"size": "128"}]}}}}}, {"name": "StatefulPartitionedCall/U2NetOneOutput/u2_net/rsu4f_2/green_63/batch_normalization_63/FusedBatchNormV3/Scaled", "op": "Const", "attr": {"dtype": {"type": "DT_FLOAT"}, "value": {"tensor": {"dtype": "DT_FLOAT", "tensorShape": {"dim": [{"size": "256"}]}}}}}, {"name": "StatefulPartitionedCall/U2NetOneOutput/u2_net/rsu4/pink_12/green_42/conv2d_42/Conv2D_bn_offset", "op": "Const", "attr": {"value": {"tensor": {"dtype": "DT_FLOAT", "tensorShape": {"dim": [{"size": "128"}]}}}, "dtype": {"type": "DT_FLOAT"}}}, {"name": "StatefulPartitionedCall/U2NetOneOutput/u2_net/rsu4/pink_13/green_43/conv2d_43/Conv2D_weights", "op": "Const", "attr": {"value": {"tensor": {"dtype": "DT_FLOAT", "tensorShape": {"dim": [{"size": "3"}, {"size": "3"}, {"size": "256"}, {"size": "512"}]}}}, "dtype": {"type": "DT_FLOAT"}}}, {"name": "StatefulPartitionedCall/U2NetOneOutput/u2_net/rsu4/pink_13/green_43/conv2d_43/Conv2D_bn_offset", "op": "Const", "attr": {"dtype": {"type": "DT_FLOAT"}, "value": {"tensor": {"dtype": "DT_FLOAT", "tensorShape": {"dim": [{"size": "512"}]}}}}}, {"name": "StatefulPartitionedCall/U2NetOneOutput/u2_net/rsu4f_2/green_63/batch_normalization_63/FusedBatchNormV3/Offset", "op": "Const", "attr": {"value": {"tensor": {"dtype": "DT_FLOAT", "tensorShape": {"dim": [{"size": "256"}]}}}, "dtype": {"type": "DT_FLOAT"}}}, {"name": "StatefulPartitionedCall/U2NetOneOutput/u2_net/rsu4f/green_44/conv2d_44/Conv2D_weights", "op": "Const", "attr": {"value": {"tensor": {"dtype": "DT_FLOAT", "tensorShape": {"dim": [{"size": "3"}, {"size": "3"}, {"size": "512"}, {"size": "512"}]}}}, "dtype": {"type": "DT_FLOAT"}}}, {"name": "StatefulPartitionedCall/U2NetOneOutput/u2_net/rsu4f/green_44/conv2d_44/Conv2D_bn_offset", "op": "Const", "attr": {"value": {"tensor": {"dtype": "DT_FLOAT", "tensorShape": {"dim": [{"size": "512"}]}}}, "dtype": {"type": "DT_FLOAT"}}}, {"name": "StatefulPartitionedCall/U2NetOneOutput/u2_net/rsu4f/green_45/conv2d_45/Conv2D_weights", "op": "Const", "attr": {"dtype": {"type": "DT_FLOAT"}, "value": {"tensor": {"dtype": "DT_FLOAT", "tensorShape": {"dim": [{"size": "3"}, {"size": "3"}, {"size": "512"}, {"size": "256"}]}}}}}, {"name": "StatefulPartitionedCall/U2NetOneOutput/u2_net/rsu4f/green_45/conv2d_45/Conv2D_bn_offset", "op": "Const", "attr": {"value": {"tensor": {"dtype": "DT_FLOAT", "tensorShape": {"dim": [{"size": "256"}]}}}, "dtype": {"type": "DT_FLOAT"}}}, {"name": "StatefulPartitionedCall/U2NetOneOutput/u2_net/rsu4f_2/green_62/batch_normalization_62/FusedBatchNormV3/Scaled", "op": "Const", "attr": {"dtype": {"type": "DT_FLOAT"}, "value": {"tensor": {"dtype": "DT_FLOAT", "tensorShape": {"dim": [{"size": "256"}]}}}}}, {"name": "StatefulPartitionedCall/U2NetOneOutput/u2_net/rsu4f/green_51/conv2d_51/Conv2D_weights", "op": "Const", "attr": {"value": {"tensor": {"dtype": "DT_FLOAT", "tensorShape": {"dim": [{"size": "3"}, {"size": "3"}, {"size": "512"}, {"size": "512"}]}}}, "dtype": {"type": "DT_FLOAT"}}}, {"name": "StatefulPartitionedCall/U2NetOneOutput/u2_net/rsu4f/green_51/conv2d_51/Conv2D_bn_offset", "op": "Const", "attr": {"dtype": {"type": "DT_FLOAT"}, "value": {"tensor": {"dtype": "DT_FLOAT", "tensorShape": {"dim": [{"size": "512"}]}}}}}, {"name": "StatefulPartitionedCall/U2NetOneOutput/u2_net/rsu4f_1/green_52/conv2d_52/Conv2D_weights", "op": "Const", "attr": {"value": {"tensor": {"dtype": "DT_FLOAT", "tensorShape": {"dim": [{"size": "3"}, {"size": "3"}, {"size": "512"}, {"size": "512"}]}}}, "dtype": {"type": "DT_FLOAT"}}}, {"name": "StatefulPartitionedCall/U2NetOneOutput/u2_net/rsu4f_2/green_62/batch_normalization_62/FusedBatchNormV3/Offset", "op": "Const", "attr": {"dtype": {"type": "DT_FLOAT"}, "value": {"tensor": {"dtype": "DT_FLOAT", "tensorShape": {"dim": [{"size": "256"}]}}}}}, {"name": "StatefulPartitionedCall/U2NetOneOutput/u2_net/rsu4f_1/green_52/conv2d_52/Conv2D_bn_offset", "op": "Const", "attr": {"value": {"tensor": {"dtype": "DT_FLOAT", "tensorShape": {"dim": [{"size": "512"}]}}}, "dtype": {"type": "DT_FLOAT"}}}, {"name": "StatefulPartitionedCall/U2NetOneOutput/u2_net/rsu4f_1/green_53/conv2d_53/Conv2D_weights", "op": "Const", "attr": {"value": {"tensor": {"dtype": "DT_FLOAT", "tensorShape": {"dim": [{"size": "3"}, {"size": "3"}, {"size": "512"}, {"size": "256"}]}}}, "dtype": {"type": "DT_FLOAT"}}}, {"name": "StatefulPartitionedCall/U2NetOneOutput/u2_net/rsu4f_1/green_53/conv2d_53/Conv2D_bn_offset", "op": "Const", "attr": {"dtype": {"type": "DT_FLOAT"}, "value": {"tensor": {"dtype": "DT_FLOAT", "tensorShape": {"dim": [{"size": "256"}]}}}}}, {"name": "StatefulPartitionedCall/U2NetOneOutput/u2_net/rsu4f_1/green_59/conv2d_59/Conv2D_weights", "op": "Const", "attr": {"dtype": {"type": "DT_FLOAT"}, "value": {"tensor": {"dtype": "DT_FLOAT", "tensorShape": {"dim": [{"size": "3"}, {"size": "3"}, {"size": "512"}, {"size": "512"}]}}}}}, {"name": "StatefulPartitionedCall/U2NetOneOutput/u2_net/rsu4f_1/green_58/batch_normalization_58/FusedBatchNormV3/Scaled", "op": "Const", "attr": {"dtype": {"type": "DT_FLOAT"}, "value": {"tensor": {"dtype": "DT_FLOAT", "tensorShape": {"dim": [{"size": "256"}]}}}}}, {"name": "StatefulPartitionedCall/U2NetOneOutput/u2_net/rsu4f_1/green_59/conv2d_59/Conv2D_bn_offset", "op": "Const", "attr": {"value": {"tensor": {"dtype": "DT_FLOAT", "tensorShape": {"dim": [{"size": "512"}]}}}, "dtype": {"type": "DT_FLOAT"}}}, {"name": "StatefulPartitionedCall/U2NetOneOutput/u2_net/rsu4f_2/green_60/conv2d_60/Conv2D_weights", "op": "Const", "attr": {"dtype": {"type": "DT_FLOAT"}, "value": {"tensor": {"dtype": "DT_FLOAT", "tensorShape": {"dim": [{"size": "3"}, {"size": "3"}, {"size": "1024"}, {"size": "512"}]}}}}}, {"name": "StatefulPartitionedCall/U2NetOneOutput/u2_net/rsu4f_1/green_58/batch_normalization_58/FusedBatchNormV3/Offset", "op": "Const", "attr": {"value": {"tensor": {"dtype": "DT_FLOAT", "tensorShape": {"dim": [{"size": "256"}]}}}, "dtype": {"type": "DT_FLOAT"}}}, {"name": "StatefulPartitionedCall/U2NetOneOutput/u2_net/rsu4f_2/green_60/conv2d_60/Conv2D_bn_offset", "op": "Const", "attr": {"dtype": {"type": "DT_FLOAT"}, "value": {"tensor": {"dtype": "DT_FLOAT", "tensorShape": {"dim": [{"size": "512"}]}}}}}, {"name": "StatefulPartitionedCall/U2NetOneOutput/u2_net/rsu4f_2/green_61/conv2d_61/Conv2D_weights", "op": "Const", "attr": {"value": {"tensor": {"dtype": "DT_FLOAT", "tensorShape": {"dim": [{"size": "3"}, {"size": "3"}, {"size": "512"}, {"size": "256"}]}}}, "dtype": {"type": "DT_FLOAT"}}}, {"name": "StatefulPartitionedCall/U2NetOneOutput/u2_net/rsu4f_2/green_61/conv2d_61/Conv2D_bn_offset", "op": "Const", "attr": {"value": {"tensor": {"dtype": "DT_FLOAT", "tensorShape": {"dim": [{"size": "256"}]}}}, "dtype": {"type": "DT_FLOAT"}}}, {"name": "StatefulPartitionedCall/U2NetOneOutput/u2_net/rsu4f_2/green_67/conv2d_67/Conv2D_weights", "op": "Const", "attr": {"value": {"tensor": {"dtype": "DT_FLOAT", "tensorShape": {"dim": [{"size": "3"}, {"size": "3"}, {"size": "512"}, {"size": "512"}]}}}, "dtype": {"type": "DT_FLOAT"}}}, {"name": "StatefulPartitionedCall/U2NetOneOutput/u2_net/rsu4f_1/green_57/batch_normalization_57/FusedBatchNormV3/Scaled", "op": "Const", "attr": {"dtype": {"type": "DT_FLOAT"}, "value": {"tensor": {"dtype": "DT_FLOAT", "tensorShape": {"dim": [{"size": "256"}]}}}}}, {"name": "StatefulPartitionedCall/U2NetOneOutput/u2_net/rsu4f_2/green_67/conv2d_67/Conv2D_bn_offset", "op": "Const", "attr": {"dtype": {"type": "DT_FLOAT"}, "value": {"tensor": {"dtype": "DT_FLOAT", "tensorShape": {"dim": [{"size": "512"}]}}}}}, {"name": "StatefulPartitionedCall/U2NetOneOutput/u2_net/rsu4_1/green_68/conv2d_68/Conv2D_weights", "op": "Const", "attr": {"dtype": {"type": "DT_FLOAT"}, "value": {"tensor": {"dtype": "DT_FLOAT", "tensorShape": {"dim": [{"size": "3"}, {"size": "3"}, {"size": "1024"}, {"size": "256"}]}}}}}, {"name": "StatefulPartitionedCall/U2NetOneOutput/u2_net/rsu4f_1/green_57/batch_normalization_57/FusedBatchNormV3/Offset", "op": "Const", "attr": {"dtype": {"type": "DT_FLOAT"}, "value": {"tensor": {"dtype": "DT_FLOAT", "tensorShape": {"dim": [{"size": "256"}]}}}}}, {"name": "StatefulPartitionedCall/U2NetOneOutput/u2_net/rsu4_1/green_68/conv2d_68/Conv2D_bn_offset", "op": "Const", "attr": {"dtype": {"type": "DT_FLOAT"}, "value": {"tensor": {"dtype": "DT_FLOAT", "tensorShape": {"dim": [{"size": "256"}]}}}}}, {"name": "StatefulPartitionedCall/U2NetOneOutput/u2_net/rsu4_1/green_69/conv2d_69/Conv2D_weights", "op": "Const", "attr": {"value": {"tensor": {"dtype": "DT_FLOAT", "tensorShape": {"dim": [{"size": "3"}, {"size": "3"}, {"size": "256"}, {"size": "128"}]}}}, "dtype": {"type": "DT_FLOAT"}}}, {"name": "StatefulPartitionedCall/U2NetOneOutput/u2_net/rsu4_1/green_69/conv2d_69/Conv2D_bn_offset", "op": "Const", "attr": {"value": {"tensor": {"dtype": "DT_FLOAT", "tensorShape": {"dim": [{"size": "128"}]}}}, "dtype": {"type": "DT_FLOAT"}}}, {"name": "StatefulPartitionedCall/U2NetOneOutput/u2_net/rsu4_1/blue_14/green_70/conv2d_70/Conv2D_weights", "op": "Const", "attr": {"dtype": {"type": "DT_FLOAT"}, "value": {"tensor": {"dtype": "DT_FLOAT", "tensorShape": {"dim": [{"size": "3"}, {"size": "3"}, {"size": "128"}, {"size": "128"}]}}}}}, {"name": "StatefulPartitionedCall/U2NetOneOutput/u2_net/rsu4f_1/green_56/batch_normalization_56/FusedBatchNormV3/Scaled", "op": "Const", "attr": {"value": {"tensor": {"dtype": "DT_FLOAT", "tensorShape": {"dim": [{"size": "256"}]}}}, "dtype": {"type": "DT_FLOAT"}}}, {"name": "StatefulPartitionedCall/U2NetOneOutput/u2_net/rsu4_1/blue_14/green_70/conv2d_70/Conv2D_bn_offset", "op": "Const", "attr": {"dtype": {"type": "DT_FLOAT"}, "value": {"tensor": {"dtype": "DT_FLOAT", "tensorShape": {"dim": [{"size": "128"}]}}}}}, {"name": "StatefulPartitionedCall/U2NetOneOutput/u2_net/rsu4_1/blue_15/green_71/conv2d_71/Conv2D_weights", "op": "Const", "attr": {"value": {"tensor": {"dtype": "DT_FLOAT", "tensorShape": {"dim": [{"size": "3"}, {"size": "3"}, {"size": "128"}, {"size": "128"}]}}}, "dtype": {"type": "DT_FLOAT"}}}, {"name": "StatefulPartitionedCall/U2NetOneOutput/u2_net/rsu4_1/blue_15/green_71/conv2d_71/Conv2D_bn_offset", "op": "Const", "attr": {"dtype": {"type": "DT_FLOAT"}, "value": {"tensor": {"dtype": "DT_FLOAT", "tensorShape": {"dim": [{"size": "128"}]}}}}}, {"name": "StatefulPartitionedCall/U2NetOneOutput/u2_net/rsu4f_1/green_56/batch_normalization_56/FusedBatchNormV3/Offset", "op": "Const", "attr": {"value": {"tensor": {"dtype": "DT_FLOAT", "tensorShape": {"dim": [{"size": "256"}]}}}, "dtype": {"type": "DT_FLOAT"}}}, {"name": "StatefulPartitionedCall/U2NetOneOutput/u2_net/rsu4_1/green_73/conv2d_73/Conv2D_weights", "op": "Const", "attr": {"value": {"tensor": {"dtype": "DT_FLOAT", "tensorShape": {"dim": [{"size": "3"}, {"size": "3"}, {"size": "256"}, {"size": "128"}]}}}, "dtype": {"type": "DT_FLOAT"}}}, {"name": "StatefulPartitionedCall/U2NetOneOutput/u2_net/rsu4_1/green_73/conv2d_73/Conv2D_bn_offset", "op": "Const", "attr": {"dtype": {"type": "DT_FLOAT"}, "value": {"tensor": {"dtype": "DT_FLOAT", "tensorShape": {"dim": [{"size": "128"}]}}}}}, {"name": "StatefulPartitionedCall/U2NetOneOutput/u2_net/rsu4_1/pink_14/green_74/conv2d_74/Conv2D_weights", "op": "Const", "attr": {"value": {"tensor": {"dtype": "DT_FLOAT", "tensorShape": {"dim": [{"size": "3"}, {"size": "3"}, {"size": "256"}, {"size": "128"}]}}}, "dtype": {"type": "DT_FLOAT"}}}, {"name": "StatefulPartitionedCall/U2NetOneOutput/u2_net/rsu4_1/pink_14/green_74/conv2d_74/Conv2D_bn_offset", "op": "Const", "attr": {"value": {"tensor": {"dtype": "DT_FLOAT", "tensorShape": {"dim": [{"size": "128"}]}}}, "dtype": {"type": "DT_FLOAT"}}}, {"name": "StatefulPartitionedCall/U2NetOneOutput/u2_net/rsu4f_1/green_55/batch_normalization_55/FusedBatchNormV3/Scaled", "op": "Const", "attr": {"value": {"tensor": {"dtype": "DT_FLOAT", "tensorShape": {"dim": [{"size": "256"}]}}}, "dtype": {"type": "DT_FLOAT"}}}, {"name": "StatefulPartitionedCall/U2NetOneOutput/u2_net/rsu4_1/pink_15/green_75/conv2d_75/Conv2D_weights", "op": "Const", "attr": {"dtype": {"type": "DT_FLOAT"}, "value": {"tensor": {"dtype": "DT_FLOAT", "tensorShape": {"dim": [{"size": "3"}, {"size": "3"}, {"size": "256"}, {"size": "256"}]}}}}}, {"name": "StatefulPartitionedCall/U2NetOneOutput/u2_net/rsu4_1/pink_15/green_75/conv2d_75/Conv2D_bn_offset", "op": "Const", "attr": {"dtype": {"type": "DT_FLOAT"}, "value": {"tensor": {"dtype": "DT_FLOAT", "tensorShape": {"dim": [{"size": "256"}]}}}}}, {"name": "StatefulPartitionedCall/U2NetOneOutput/u2_net/rsu4f_1/green_55/batch_normalization_55/FusedBatchNormV3/Offset", "op": "Const", "attr": {"dtype": {"type": "DT_FLOAT"}, "value": {"tensor": {"dtype": "DT_FLOAT", "tensorShape": {"dim": [{"size": "256"}]}}}}}, {"name": "StatefulPartitionedCall/U2NetOneOutput/u2_net/rsu5_1/green_76/conv2d_76/Conv2D_weights", "op": "Const", "attr": {"value": {"tensor": {"dtype": "DT_FLOAT", "tensorShape": {"dim": [{"size": "3"}, {"size": "3"}, {"size": "512"}, {"size": "128"}]}}}, "dtype": {"type": "DT_FLOAT"}}}, {"name": "StatefulPartitionedCall/U2NetOneOutput/u2_net/rsu5_1/green_76/conv2d_76/Conv2D_bn_offset", "op": "Const", "attr": {"dtype": {"type": "DT_FLOAT"}, "value": {"tensor": {"dtype": "DT_FLOAT", "tensorShape": {"dim": [{"size": "128"}]}}}}}, {"name": "StatefulPartitionedCall/U2NetOneOutput/u2_net/rsu5_1/green_77/conv2d_77/Conv2D_weights", "op": "Const", "attr": {"value": {"tensor": {"dtype": "DT_FLOAT", "tensorShape": {"dim": [{"size": "3"}, {"size": "3"}, {"size": "128"}, {"size": "64"}]}}}, "dtype": {"type": "DT_FLOAT"}}}, {"name": "StatefulPartitionedCall/U2NetOneOutput/u2_net/rsu5_1/green_77/conv2d_77/Conv2D_bn_offset", "op": "Const", "attr": {"value": {"tensor": {"dtype": "DT_FLOAT", "tensorShape": {"dim": [{"size": "64"}]}}}, "dtype": {"type": "DT_FLOAT"}}}, {"name": "StatefulPartitionedCall/U2NetOneOutput/u2_net/rsu4f_1/green_54/batch_normalization_54/FusedBatchNormV3/Scaled", "op": "Const", "attr": {"dtype": {"type": "DT_FLOAT"}, "value": {"tensor": {"dtype": "DT_FLOAT", "tensorShape": {"dim": [{"size": "256"}]}}}}}, {"name": "StatefulPartitionedCall/U2NetOneOutput/u2_net/rsu5_1/blue_16/green_78/conv2d_78/Conv2D_weights", "op": "Const", "attr": {"dtype": {"type": "DT_FLOAT"}, "value": {"tensor": {"dtype": "DT_FLOAT", "tensorShape": {"dim": [{"size": "3"}, {"size": "3"}, {"size": "64"}, {"size": "64"}]}}}}}, {"name": "StatefulPartitionedCall/U2NetOneOutput/u2_net/rsu5_1/blue_16/green_78/conv2d_78/Conv2D_bn_offset", "op": "Const", "attr": {"value": {"tensor": {"dtype": "DT_FLOAT", "tensorShape": {"dim": [{"size": "64"}]}}}, "dtype": {"type": "DT_FLOAT"}}}, {"name": "StatefulPartitionedCall/U2NetOneOutput/u2_net/rsu5_1/blue_17/green_79/conv2d_79/Conv2D_weights", "op": "Const", "attr": {"dtype": {"type": "DT_FLOAT"}, "value": {"tensor": {"dtype": "DT_FLOAT", "tensorShape": {"dim": [{"size": "3"}, {"size": "3"}, {"size": "64"}, {"size": "64"}]}}}}}, {"name": "StatefulPartitionedCall/U2NetOneOutput/u2_net/rsu4f_1/green_54/batch_normalization_54/FusedBatchNormV3/Offset", "op": "Const", "attr": {"value": {"tensor": {"dtype": "DT_FLOAT", "tensorShape": {"dim": [{"size": "256"}]}}}, "dtype": {"type": "DT_FLOAT"}}}, {"name": "StatefulPartitionedCall/U2NetOneOutput/u2_net/rsu5_1/blue_17/green_79/conv2d_79/Conv2D_bn_offset", "op": "Const", "attr": {"value": {"tensor": {"dtype": "DT_FLOAT", "tensorShape": {"dim": [{"size": "64"}]}}}, "dtype": {"type": "DT_FLOAT"}}}, {"name": "StatefulPartitionedCall/U2NetOneOutput/u2_net/rsu5_1/blue_18/green_80/conv2d_80/Conv2D_weights", "op": "Const", "attr": {"value": {"tensor": {"dtype": "DT_FLOAT", "tensorShape": {"dim": [{"size": "3"}, {"size": "3"}, {"size": "64"}, {"size": "64"}]}}}, "dtype": {"type": "DT_FLOAT"}}}, {"name": "StatefulPartitionedCall/U2NetOneOutput/u2_net/rsu5_1/blue_18/green_80/conv2d_80/Conv2D_bn_offset", "op": "Const", "attr": {"value": {"tensor": {"dtype": "DT_FLOAT", "tensorShape": {"dim": [{"size": "64"}]}}}, "dtype": {"type": "DT_FLOAT"}}}, {"name": "StatefulPartitionedCall/U2NetOneOutput/u2_net/rsu5_1/green_82/conv2d_82/Conv2D_weights", "op": "Const", "attr": {"dtype": {"type": "DT_FLOAT"}, "value": {"tensor": {"dtype": "DT_FLOAT", "tensorShape": {"dim": [{"size": "3"}, {"size": "3"}, {"size": "128"}, {"size": "64"}]}}}}}, {"name": "StatefulPartitionedCall/U2NetOneOutput/u2_net/rsu4f/green_50/batch_normalization_50/FusedBatchNormV3/Scaled", "op": "Const", "attr": {"dtype": {"type": "DT_FLOAT"}, "value": {"tensor": {"dtype": "DT_FLOAT", "tensorShape": {"dim": [{"size": "256"}]}}}}}, {"name": "StatefulPartitionedCall/U2NetOneOutput/u2_net/rsu5_1/green_82/conv2d_82/Conv2D_bn_offset", "op": "Const", "attr": {"value": {"tensor": {"dtype": "DT_FLOAT", "tensorShape": {"dim": [{"size": "64"}]}}}, "dtype": {"type": "DT_FLOAT"}}}, {"name": "StatefulPartitionedCall/U2NetOneOutput/u2_net/rsu5_1/pink_16/green_83/conv2d_83/Conv2D_weights", "op": "Const", "attr": {"dtype": {"type": "DT_FLOAT"}, "value": {"tensor": {"dtype": "DT_FLOAT", "tensorShape": {"dim": [{"size": "3"}, {"size": "3"}, {"size": "128"}, {"size": "64"}]}}}}}, {"name": "StatefulPartitionedCall/U2NetOneOutput/u2_net/rsu5_1/pink_16/green_83/conv2d_83/Conv2D_bn_offset", "op": "Const", "attr": {"dtype": {"type": "DT_FLOAT"}, "value": {"tensor": {"dtype": "DT_FLOAT", "tensorShape": {"dim": [{"size": "64"}]}}}}}, {"name": "StatefulPartitionedCall/U2NetOneOutput/u2_net/rsu4f/green_50/batch_normalization_50/FusedBatchNormV3/Offset", "op": "Const", "attr": {"value": {"tensor": {"dtype": "DT_FLOAT", "tensorShape": {"dim": [{"size": "256"}]}}}, "dtype": {"type": "DT_FLOAT"}}}, {"name": "StatefulPartitionedCall/U2NetOneOutput/u2_net/rsu5_1/pink_17/green_84/conv2d_84/Conv2D_weights", "op": "Const", "attr": {"dtype": {"type": "DT_FLOAT"}, "value": {"tensor": {"dtype": "DT_FLOAT", "tensorShape": {"dim": [{"size": "3"}, {"size": "3"}, {"size": "128"}, {"size": "64"}]}}}}}, {"name": "StatefulPartitionedCall/U2NetOneOutput/u2_net/rsu5_1/pink_17/green_84/conv2d_84/Conv2D_bn_offset", "op": "Const", "attr": {"dtype": {"type": "DT_FLOAT"}, "value": {"tensor": {"dtype": "DT_FLOAT", "tensorShape": {"dim": [{"size": "64"}]}}}}}, {"name": "StatefulPartitionedCall/U2NetOneOutput/u2_net/rsu5_1/pink_18/green_85/conv2d_85/Conv2D_weights", "op": "Const", "attr": {"dtype": {"type": "DT_FLOAT"}, "value": {"tensor": {"dtype": "DT_FLOAT", "tensorShape": {"dim": [{"size": "3"}, {"size": "3"}, {"size": "128"}, {"size": "128"}]}}}}}, {"name": "StatefulPartitionedCall/U2NetOneOutput/u2_net/rsu5_1/pink_18/green_85/conv2d_85/Conv2D_bn_offset", "op": "Const", "attr": {"value": {"tensor": {"dtype": "DT_FLOAT", "tensorShape": {"dim": [{"size": "128"}]}}}, "dtype": {"type": "DT_FLOAT"}}}, {"name": "StatefulPartitionedCall/U2NetOneOutput/u2_net/rsu4f/green_49/batch_normalization_49/FusedBatchNormV3/Scaled", "op": "Const", "attr": {"value": {"tensor": {"dtype": "DT_FLOAT", "tensorShape": {"dim": [{"size": "256"}]}}}, "dtype": {"type": "DT_FLOAT"}}}, {"name": "StatefulPartitionedCall/U2NetOneOutput/u2_net/rsu6_1/green_86/conv2d_86/Conv2D_weights", "op": "Const", "attr": {"dtype": {"type": "DT_FLOAT"}, "value": {"tensor": {"dtype": "DT_FLOAT", "tensorShape": {"dim": [{"size": "3"}, {"size": "3"}, {"size": "256"}, {"size": "64"}]}}}}}, {"name": "StatefulPartitionedCall/U2NetOneOutput/u2_net/rsu6_1/green_86/conv2d_86/Conv2D_bn_offset", "op": "Const", "attr": {"dtype": {"type": "DT_FLOAT"}, "value": {"tensor": {"dtype": "DT_FLOAT", "tensorShape": {"dim": [{"size": "64"}]}}}}}, {"name": "StatefulPartitionedCall/U2NetOneOutput/u2_net/rsu4f/green_49/batch_normalization_49/FusedBatchNormV3/Offset", "op": "Const", "attr": {"dtype": {"type": "DT_FLOAT"}, "value": {"tensor": {"dtype": "DT_FLOAT", "tensorShape": {"dim": [{"size": "256"}]}}}}}, {"name": "StatefulPartitionedCall/U2NetOneOutput/u2_net/rsu6_1/green_87/conv2d_87/Conv2D_weights", "op": "Const", "attr": {"dtype": {"type": "DT_FLOAT"}, "value": {"tensor": {"dtype": "DT_FLOAT", "tensorShape": {"dim": [{"size": "3"}, {"size": "3"}, {"size": "64"}, {"size": "32"}]}}}}}, {"name": "StatefulPartitionedCall/U2NetOneOutput/u2_net/rsu6_1/green_87/conv2d_87/Conv2D_bn_offset", "op": "Const", "attr": {"value": {"tensor": {"dtype": "DT_FLOAT", "tensorShape": {"dim": [{"size": "32"}]}}}, "dtype": {"type": "DT_FLOAT"}}}, {"name": "StatefulPartitionedCall/U2NetOneOutput/u2_net/rsu6_1/blue_19/green_88/conv2d_88/Conv2D_weights", "op": "Const", "attr": {"value": {"tensor": {"dtype": "DT_FLOAT", "tensorShape": {"dim": [{"size": "3"}, {"size": "3"}, {"size": "32"}, {"size": "32"}]}}}, "dtype": {"type": "DT_FLOAT"}}}, {"name": "StatefulPartitionedCall/U2NetOneOutput/u2_net/rsu6_1/blue_19/green_88/conv2d_88/Conv2D_bn_offset", "op": "Const", "attr": {"value": {"tensor": {"dtype": "DT_FLOAT", "tensorShape": {"dim": [{"size": "32"}]}}}, "dtype": {"type": "DT_FLOAT"}}}, {"name": "StatefulPartitionedCall/U2NetOneOutput/u2_net/rsu4f/green_48/batch_normalization_48/FusedBatchNormV3/Scaled", "op": "Const", "attr": {"value": {"tensor": {"dtype": "DT_FLOAT", "tensorShape": {"dim": [{"size": "256"}]}}}, "dtype": {"type": "DT_FLOAT"}}}, {"name": "StatefulPartitionedCall/U2NetOneOutput/u2_net/rsu6_1/blue_20/green_89/conv2d_89/Conv2D_weights", "op": "Const", "attr": {"value": {"tensor": {"dtype": "DT_FLOAT", "tensorShape": {"dim": [{"size": "3"}, {"size": "3"}, {"size": "32"}, {"size": "32"}]}}}, "dtype": {"type": "DT_FLOAT"}}}, {"name": "StatefulPartitionedCall/U2NetOneOutput/u2_net/rsu6_1/blue_20/green_89/conv2d_89/Conv2D_bn_offset", "op": "Const", "attr": {"dtype": {"type": "DT_FLOAT"}, "value": {"tensor": {"dtype": "DT_FLOAT", "tensorShape": {"dim": [{"size": "32"}]}}}}}, {"name": "StatefulPartitionedCall/U2NetOneOutput/u2_net/rsu6_1/blue_21/green_90/conv2d_90/Conv2D_weights", "op": "Const", "attr": {"value": {"tensor": {"dtype": "DT_FLOAT", "tensorShape": {"dim": [{"size": "3"}, {"size": "3"}, {"size": "32"}, {"size": "32"}]}}}, "dtype": {"type": "DT_FLOAT"}}}, {"name": "StatefulPartitionedCall/U2NetOneOutput/u2_net/rsu4f/green_48/batch_normalization_48/FusedBatchNormV3/Offset", "op": "Const", "attr": {"value": {"tensor": {"dtype": "DT_FLOAT", "tensorShape": {"dim": [{"size": "256"}]}}}, "dtype": {"type": "DT_FLOAT"}}}, {"name": "StatefulPartitionedCall/U2NetOneOutput/u2_net/rsu6_1/blue_21/green_90/conv2d_90/Conv2D_bn_offset", "op": "Const", "attr": {"dtype": {"type": "DT_FLOAT"}, "value": {"tensor": {"dtype": "DT_FLOAT", "tensorShape": {"dim": [{"size": "32"}]}}}}}, {"name": "StatefulPartitionedCall/U2NetOneOutput/u2_net/rsu6_1/blue_22/green_91/conv2d_91/Conv2D_weights", "op": "Const", "attr": {"dtype": {"type": "DT_FLOAT"}, "value": {"tensor": {"dtype": "DT_FLOAT", "tensorShape": {"dim": [{"size": "3"}, {"size": "3"}, {"size": "32"}, {"size": "32"}]}}}}}, {"name": "StatefulPartitionedCall/U2NetOneOutput/u2_net/rsu6_1/blue_22/green_91/conv2d_91/Conv2D_bn_offset", "op": "Const", "attr": {"dtype": {"type": "DT_FLOAT"}, "value": {"tensor": {"dtype": "DT_FLOAT", "tensorShape": {"dim": [{"size": "32"}]}}}}}, {"name": "StatefulPartitionedCall/U2NetOneOutput/u2_net/rsu6_1/green_93/conv2d_93/Conv2D_weights", "op": "Const", "attr": {"dtype": {"type": "DT_FLOAT"}, "value": {"tensor": {"dtype": "DT_FLOAT", "tensorShape": {"dim": [{"size": "3"}, {"size": "3"}, {"size": "64"}, {"size": "32"}]}}}}}, {"name": "StatefulPartitionedCall/U2NetOneOutput/u2_net/rsu4f/green_47/batch_normalization_47/FusedBatchNormV3/Scaled", "op": "Const", "attr": {"dtype": {"type": "DT_FLOAT"}, "value": {"tensor": {"dtype": "DT_FLOAT", "tensorShape": {"dim": [{"size": "256"}]}}}}}, {"name": "StatefulPartitionedCall/U2NetOneOutput/u2_net/rsu6_1/green_93/conv2d_93/Conv2D_bn_offset", "op": "Const", "attr": {"value": {"tensor": {"dtype": "DT_FLOAT", "tensorShape": {"dim": [{"size": "32"}]}}}, "dtype": {"type": "DT_FLOAT"}}}, {"name": "StatefulPartitionedCall/U2NetOneOutput/u2_net/rsu6_1/pink_19/green_94/conv2d_94/Conv2D_weights", "op": "Const", "attr": {"dtype": {"type": "DT_FLOAT"}, "value": {"tensor": {"dtype": "DT_FLOAT", "tensorShape": {"dim": [{"size": "3"}, {"size": "3"}, {"size": "64"}, {"size": "32"}]}}}}}, {"name": "StatefulPartitionedCall/U2NetOneOutput/u2_net/rsu6_1/pink_19/green_94/conv2d_94/Conv2D_bn_offset", "op": "Const", "attr": {"value": {"tensor": {"dtype": "DT_FLOAT", "tensorShape": {"dim": [{"size": "32"}]}}}, "dtype": {"type": "DT_FLOAT"}}}, {"name": "StatefulPartitionedCall/U2NetOneOutput/u2_net/rsu4f/green_47/batch_normalization_47/FusedBatchNormV3/Offset", "op": "Const", "attr": {"value": {"tensor": {"dtype": "DT_FLOAT", "tensorShape": {"dim": [{"size": "256"}]}}}, "dtype": {"type": "DT_FLOAT"}}}, {"name": "StatefulPartitionedCall/U2NetOneOutput/u2_net/rsu6_1/pink_20/green_95/conv2d_95/Conv2D_weights", "op": "Const", "attr": {"value": {"tensor": {"dtype": "DT_FLOAT", "tensorShape": {"dim": [{"size": "3"}, {"size": "3"}, {"size": "64"}, {"size": "32"}]}}}, "dtype": {"type": "DT_FLOAT"}}}, {"name": "StatefulPartitionedCall/U2NetOneOutput/u2_net/rsu6_1/pink_20/green_95/conv2d_95/Conv2D_bn_offset", "op": "Const", "attr": {"dtype": {"type": "DT_FLOAT"}, "value": {"tensor": {"dtype": "DT_FLOAT", "tensorShape": {"dim": [{"size": "32"}]}}}}}, {"name": "StatefulPartitionedCall/U2NetOneOutput/u2_net/rsu6_1/pink_21/green_96/conv2d_96/Conv2D_weights", "op": "Const", "attr": {"dtype": {"type": "DT_FLOAT"}, "value": {"tensor": {"dtype": "DT_FLOAT", "tensorShape": {"dim": [{"size": "3"}, {"size": "3"}, {"size": "64"}, {"size": "32"}]}}}}}, {"name": "StatefulPartitionedCall/U2NetOneOutput/u2_net/rsu6_1/pink_21/green_96/conv2d_96/Conv2D_bn_offset", "op": "Const", "attr": {"value": {"tensor": {"dtype": "DT_FLOAT", "tensorShape": {"dim": [{"size": "32"}]}}}, "dtype": {"type": "DT_FLOAT"}}}, {"name": "StatefulPartitionedCall/U2NetOneOutput/u2_net/rsu4f/green_46/batch_normalization_46/FusedBatchNormV3/Scaled", "op": "Const", "attr": {"dtype": {"type": "DT_FLOAT"}, "value": {"tensor": {"dtype": "DT_FLOAT", "tensorShape": {"dim": [{"size": "256"}]}}}}}, {"name": "StatefulPartitionedCall/U2NetOneOutput/u2_net/rsu6_1/pink_22/green_97/conv2d_97/Conv2D_weights", "op": "Const", "attr": {"dtype": {"type": "DT_FLOAT"}, "value": {"tensor": {"dtype": "DT_FLOAT", "tensorShape": {"dim": [{"size": "3"}, {"size": "3"}, {"size": "64"}, {"size": "64"}]}}}}}, {"name": "StatefulPartitionedCall/U2NetOneOutput/u2_net/rsu6_1/pink_22/green_97/conv2d_97/Conv2D_bn_offset", "op": "Const", "attr": {"value": {"tensor": {"dtype": "DT_FLOAT", "tensorShape": {"dim": [{"size": "64"}]}}}, "dtype": {"type": "DT_FLOAT"}}}, {"name": "StatefulPartitionedCall/U2NetOneOutput/u2_net/rsu4f/green_46/batch_normalization_46/FusedBatchNormV3/Offset", "op": "Const", "attr": {"value": {"tensor": {"dtype": "DT_FLOAT", "tensorShape": {"dim": [{"size": "256"}]}}}, "dtype": {"type": "DT_FLOAT"}}}, {"name": "StatefulPartitionedCall/U2NetOneOutput/u2_net/rsu7_1/green_98/conv2d_98/Conv2D_weights", "op": "Const", "attr": {"dtype": {"type": "DT_FLOAT"}, "value": {"tensor": {"dtype": "DT_FLOAT", "tensorShape": {"dim": [{"size": "3"}, {"size": "3"}, {"size": "128"}, {"size": "64"}]}}}}}, {"name": "StatefulPartitionedCall/U2NetOneOutput/u2_net/rsu7_1/green_98/conv2d_98/Conv2D_bn_offset", "op": "Const", "attr": {"dtype": {"type": "DT_FLOAT"}, "value": {"tensor": {"dtype": "DT_FLOAT", "tensorShape": {"dim": [{"size": "64"}]}}}}}, {"name": "StatefulPartitionedCall/U2NetOneOutput/u2_net/rsu7_1/green_99/conv2d_99/Conv2D_weights", "op": "Const", "attr": {"value": {"tensor": {"dtype": "DT_FLOAT", "tensorShape": {"dim": [{"size": "3"}, {"size": "3"}, {"size": "64"}, {"size": "16"}]}}}, "dtype": {"type": "DT_FLOAT"}}}, {"name": "StatefulPartitionedCall/U2NetOneOutput/u2_net/rsu7_1/green_99/conv2d_99/Conv2D_bn_offset", "op": "Const", "attr": {"value": {"tensor": {"dtype": "DT_FLOAT", "tensorShape": {"dim": [{"size": "16"}]}}}, "dtype": {"type": "DT_FLOAT"}}}, {"name": "StatefulPartitionedCall/U2NetOneOutput/u2_net/rsu4/green_40/batch_normalization_40/FusedBatchNormV3/Scaled", "op": "Const", "attr": {"value": {"tensor": {"dtype": "DT_FLOAT", "tensorShape": {"dim": [{"size": "128"}]}}}, "dtype": {"type": "DT_FLOAT"}}}, {"name": "StatefulPartitionedCall/U2NetOneOutput/u2_net/rsu7_1/blue_23/green_100/conv2d_100/Conv2D_weights", "op": "Const", "attr": {"dtype": {"type": "DT_FLOAT"}, "value": {"tensor": {"dtype": "DT_FLOAT", "tensorShape": {"dim": [{"size": "3"}, {"size": "3"}, {"size": "16"}, {"size": "16"}]}}}}}, {"name": "StatefulPartitionedCall/U2NetOneOutput/u2_net/rsu7_1/blue_23/green_100/conv2d_100/Conv2D_bn_offset", "op": "Const", "attr": {"dtype": {"type": "DT_FLOAT"}, "value": {"tensor": {"dtype": "DT_FLOAT", "tensorShape": {"dim": [{"size": "16"}]}}}}}, {"name": "StatefulPartitionedCall/U2NetOneOutput/u2_net/rsu7_1/blue_24/green_101/conv2d_101/Conv2D_weights", "op": "Const", "attr": {"value": {"tensor": {"dtype": "DT_FLOAT", "tensorShape": {"dim": [{"size": "3"}, {"size": "3"}, {"size": "16"}, {"size": "16"}]}}}, "dtype": {"type": "DT_FLOAT"}}}, {"name": "StatefulPartitionedCall/U2NetOneOutput/u2_net/rsu4/green_40/batch_normalization_40/FusedBatchNormV3/Offset", "op": "Const", "attr": {"dtype": {"type": "DT_FLOAT"}, "value": {"tensor": {"dtype": "DT_FLOAT", "tensorShape": {"dim": [{"size": "128"}]}}}}}, {"name": "StatefulPartitionedCall/U2NetOneOutput/u2_net/rsu7_1/blue_24/green_101/conv2d_101/Conv2D_bn_offset", "op": "Const", "attr": {"value": {"tensor": {"dtype": "DT_FLOAT", "tensorShape": {"dim": [{"size": "16"}]}}}, "dtype": {"type": "DT_FLOAT"}}}, {"name": "StatefulPartitionedCall/U2NetOneOutput/u2_net/rsu7_1/blue_25/green_102/conv2d_102/Conv2D_weights", "op": "Const", "attr": {"value": {"tensor": {"dtype": "DT_FLOAT", "tensorShape": {"dim": [{"size": "3"}, {"size": "3"}, {"size": "16"}, {"size": "16"}]}}}, "dtype": {"type": "DT_FLOAT"}}}, {"name": "StatefulPartitionedCall/U2NetOneOutput/u2_net/rsu7_1/blue_25/green_102/conv2d_102/Conv2D_bn_offset", "op": "Const", "attr": {"dtype": {"type": "DT_FLOAT"}, "value": {"tensor": {"dtype": "DT_FLOAT", "tensorShape": {"dim": [{"size": "16"}]}}}}}, {"name": "StatefulPartitionedCall/U2NetOneOutput/u2_net/rsu7_1/blue_26/green_103/conv2d_103/Conv2D_weights", "op": "Const", "attr": {"value": {"tensor": {"dtype": "DT_FLOAT", "tensorShape": {"dim": [{"size": "3"}, {"size": "3"}, {"size": "16"}, {"size": "16"}]}}}, "dtype": {"type": "DT_FLOAT"}}}, {"name": "StatefulPartitionedCall/U2NetOneOutput/u2_net/rsu5/green_31/batch_normalization_31/FusedBatchNormV3/Scaled", "op": "Const", "attr": {"value": {"tensor": {"dtype": "DT_FLOAT", "tensorShape": {"dim": [{"size": "64"}]}}}, "dtype": {"type": "DT_FLOAT"}}}, {"name": "StatefulPartitionedCall/U2NetOneOutput/u2_net/rsu7_1/blue_26/green_103/conv2d_103/Conv2D_bn_offset", "op": "Const", "attr": {"value": {"tensor": {"dtype": "DT_FLOAT", "tensorShape": {"dim": [{"size": "16"}]}}}, "dtype": {"type": "DT_FLOAT"}}}, {"name": "StatefulPartitionedCall/U2NetOneOutput/u2_net/rsu7_1/blue_27/green_104/conv2d_104/Conv2D_weights", "op": "Const", "attr": {"value": {"tensor": {"dtype": "DT_FLOAT", "tensorShape": {"dim": [{"size": "3"}, {"size": "3"}, {"size": "16"}, {"size": "16"}]}}}, "dtype": {"type": "DT_FLOAT"}}}, {"name": "StatefulPartitionedCall/U2NetOneOutput/u2_net/rsu7_1/blue_27/green_104/conv2d_104/Conv2D_bn_offset", "op": "Const", "attr": {"dtype": {"type": "DT_FLOAT"}, "value": {"tensor": {"dtype": "DT_FLOAT", "tensorShape": {"dim": [{"size": "16"}]}}}}}, {"name": "StatefulPartitionedCall/U2NetOneOutput/u2_net/rsu5/green_31/batch_normalization_31/FusedBatchNormV3/Offset", "op": "Const", "attr": {"dtype": {"type": "DT_FLOAT"}, "value": {"tensor": {"dtype": "DT_FLOAT", "tensorShape": {"dim": [{"size": "64"}]}}}}}, {"name": "StatefulPartitionedCall/U2NetOneOutput/u2_net/rsu7_1/green_106/conv2d_106/Conv2D_weights", "op": "Const", "attr": {"dtype": {"type": "DT_FLOAT"}, "value": {"tensor": {"dtype": "DT_FLOAT", "tensorShape": {"dim": [{"size": "3"}, {"size": "3"}, {"size": "32"}, {"size": "16"}]}}}}}, {"name": "StatefulPartitionedCall/U2NetOneOutput/u2_net/rsu7_1/green_106/conv2d_106/Conv2D_bn_offset", "op": "Const", "attr": {"dtype": {"type": "DT_FLOAT"}, "value": {"tensor": {"dtype": "DT_FLOAT", "tensorShape": {"dim": [{"size": "16"}]}}}}}, {"name": "StatefulPartitionedCall/U2NetOneOutput/u2_net/rsu7_1/pink_23/green_107/conv2d_107/Conv2D_weights", "op": "Const", "attr": {"value": {"tensor": {"dtype": "DT_FLOAT", "tensorShape": {"dim": [{"size": "3"}, {"size": "3"}, {"size": "32"}, {"size": "16"}]}}}, "dtype": {"type": "DT_FLOAT"}}}, {"name": "StatefulPartitionedCall/U2NetOneOutput/u2_net/rsu7_1/pink_23/green_107/conv2d_107/Conv2D_bn_offset", "op": "Const", "attr": {"value": {"tensor": {"dtype": "DT_FLOAT", "tensorShape": {"dim": [{"size": "16"}]}}}, "dtype": {"type": "DT_FLOAT"}}}, {"name": "StatefulPartitionedCall/U2NetOneOutput/u2_net/rsu6/green_20/batch_normalization_20/FusedBatchNormV3/Scaled", "op": "Const", "attr": {"value": {"tensor": {"dtype": "DT_FLOAT", "tensorShape": {"dim": [{"size": "32"}]}}}, "dtype": {"type": "DT_FLOAT"}}}, {"name": "StatefulPartitionedCall/U2NetOneOutput/u2_net/rsu7_1/pink_24/green_108/conv2d_108/Conv2D_weights", "op": "Const", "attr": {"value": {"tensor": {"dtype": "DT_FLOAT", "tensorShape": {"dim": [{"size": "3"}, {"size": "3"}, {"size": "32"}, {"size": "16"}]}}}, "dtype": {"type": "DT_FLOAT"}}}, {"name": "StatefulPartitionedCall/U2NetOneOutput/u2_net/rsu7_1/pink_24/green_108/conv2d_108/Conv2D_bn_offset", "op": "Const", "attr": {"value": {"tensor": {"dtype": "DT_FLOAT", "tensorShape": {"dim": [{"size": "16"}]}}}, "dtype": {"type": "DT_FLOAT"}}}, {"name": "StatefulPartitionedCall/U2NetOneOutput/u2_net/rsu7_1/pink_25/green_109/conv2d_109/Conv2D_weights", "op": "Const", "attr": {"value": {"tensor": {"dtype": "DT_FLOAT", "tensorShape": {"dim": [{"size": "3"}, {"size": "3"}, {"size": "32"}, {"size": "16"}]}}}, "dtype": {"type": "DT_FLOAT"}}}, {"name": "StatefulPartitionedCall/U2NetOneOutput/u2_net/rsu6/green_20/batch_normalization_20/FusedBatchNormV3/Offset", "op": "Const", "attr": {"dtype": {"type": "DT_FLOAT"}, "value": {"tensor": {"dtype": "DT_FLOAT", "tensorShape": {"dim": [{"size": "32"}]}}}}}, {"name": "StatefulPartitionedCall/U2NetOneOutput/u2_net/rsu7_1/pink_25/green_109/conv2d_109/Conv2D_bn_offset", "op": "Const", "attr": {"dtype": {"type": "DT_FLOAT"}, "value": {"tensor": {"dtype": "DT_FLOAT", "tensorShape": {"dim": [{"size": "16"}]}}}}}, {"name": "StatefulPartitionedCall/U2NetOneOutput/u2_net/rsu7/green/activation/Relu", "op": "_FusedConv2D", "input": ["input_1", "StatefulPartitionedCall/U2NetOneOutput/u2_net/rsu7/green/conv2d/Conv2D_weights", "StatefulPartitionedCall/U2NetOneOutput/u2_net/rsu7/green/conv2d/Conv2D_bn_offset"], "device": "/device:CPU:0", "attr": {"use_cudnn_on_gpu": {"b": true}, "explicit_paddings": {"list": {}}, "num_args": {"i": "1"}, "filter_format": {"s": "SFdJTw=="}, "padding": {"s": "U0FNRQ=="}, "strides": {"list": {"i": ["1", "1", "1", "1"]}}, "leakyrelu_alpha": {"f": 0.2}, "num_host_args": {"i": "0"}, "data_format": {"s": "TkhXQw=="}, "T": {"type": "DT_FLOAT"}, "dilations": {"list": {"i": ["1", "1", "1", "1"]}}, "epsilon": {"f": 0.0}, "fused_ops": {"list": {"s": ["Qmlhc0FkZA==", "UmVsdQ=="]}}, "TArgs": {"list": {"type": ["DT_FLOAT"]}}}}, {"name": "StatefulPartitionedCall/U2NetOneOutput/u2_net/rsu7/green_1/activation_1/Relu", "op": "_FusedConv2D", "input": ["StatefulPartitionedCall/U2NetOneOutput/u2_net/rsu7/green/activation/Relu", "StatefulPartitionedCall/U2NetOneOutput/u2_net/rsu7/green_1/conv2d_1/Conv2D_weights", "StatefulPartitionedCall/U2NetOneOutput/u2_net/rsu7/green_1/conv2d_1/Conv2D_bn_offset"], "device": "/device:CPU:0", "attr": {"T": {"type": "DT_FLOAT"}, "num_args": {"i": "1"}, "filter_format": {"s": "SFdJTw=="}, "TArgs": {"list": {"type": ["DT_FLOAT"]}}, "strides": {"list": {"i": ["1", "1", "1", "1"]}}, "dilations": {"list": {"i": ["1", "1", "1", "1"]}}, "epsilon": {"f": 0.0}, "fused_ops": {"list": {"s": ["Qmlhc0FkZA==", "UmVsdQ=="]}}, "data_format": {"s": "TkhXQw=="}, "padding": {"s": "U0FNRQ=="}, "use_cudnn_on_gpu": {"b": true}, "leakyrelu_alpha": {"f": 0.2}, "num_host_args": {"i": "0"}, "explicit_paddings": {"list": {}}}}, {"name": "StatefulPartitionedCall/U2NetOneOutput/u2_net/rsu7/blue/max_pooling2d/MaxPool", "op": "MaxPool", "input": ["StatefulPartitionedCall/U2NetOneOutput/u2_net/rsu7/green_1/activation_1/Relu"], "attr": {"padding": {"s": "VkFMSUQ="}, "ksize": {"list": {"i": ["1", "2", "2", "1"]}}, "data_format": {"s": "TkhXQw=="}, "strides": {"list": {"i": ["1", "2", "2", "1"]}}, "T": {"type": "DT_FLOAT"}, "explicit_paddings": {"list": {}}}}, {"name": "StatefulPartitionedCall/U2NetOneOutput/u2_net/rsu7/blue/green_2/activation_2/Relu", "op": "_FusedConv2D", "input": ["StatefulPartitionedCall/U2NetOneOutput/u2_net/rsu7/blue/max_pooling2d/MaxPool", "StatefulPartitionedCall/U2NetOneOutput/u2_net/rsu7/blue/green_2/conv2d_2/Conv2D_weights", "StatefulPartitionedCall/U2NetOneOutput/u2_net/rsu7/blue/green_2/conv2d_2/Conv2D_bn_offset"], "device": "/device:CPU:0", "attr": {"filter_format": {"s": "SFdJTw=="}, "num_args": {"i": "1"}, "padding": {"s": "U0FNRQ=="}, "fused_ops": {"list": {"s": ["Qmlhc0FkZA==", "UmVsdQ=="]}}, "T": {"type": "DT_FLOAT"}, "use_cudnn_on_gpu": {"b": true}, "explicit_paddings": {"list": {}}, "num_host_args": {"i": "0"}, "TArgs": {"list": {"type": ["DT_FLOAT"]}}, "epsilon": {"f": 0.0}, "strides": {"list": {"i": ["1", "1", "1", "1"]}}, "dilations": {"list": {"i": ["1", "1", "1", "1"]}}, "data_format": {"s": "TkhXQw=="}, "leakyrelu_alpha": {"f": 0.2}}}, {"name": "StatefulPartitionedCall/U2NetOneOutput/u2_net/rsu7/blue_1/max_pooling2d_1/MaxPool", "op": "MaxPool", "input": ["StatefulPartitionedCall/U2NetOneOutput/u2_net/rsu7/blue/green_2/activation_2/Relu"], "attr": {"data_format": {"s": "TkhXQw=="}, "explicit_paddings": {"list": {}}, "ksize": {"list": {"i": ["1", "2", "2", "1"]}}, "strides": {"list": {"i": ["1", "2", "2", "1"]}}, "T": {"type": "DT_FLOAT"}, "padding": {"s": "VkFMSUQ="}}}, {"name": "StatefulPartitionedCall/U2NetOneOutput/u2_net/rsu7/blue_1/green_3/activation_3/Relu", "op": "_FusedConv2D", "input": ["StatefulPartitionedCall/U2NetOneOutput/u2_net/rsu7/blue_1/max_pooling2d_1/MaxPool", "StatefulPartitionedCall/U2NetOneOutput/u2_net/rsu7/blue_1/green_3/conv2d_3/Conv2D_weights", "StatefulPartitionedCall/U2NetOneOutput/u2_net/rsu7/blue_1/green_3/conv2d_3/Conv2D_bn_offset"], "device": "/device:CPU:0", "attr": {"epsilon": {"f": 0.0}, "dilations": {"list": {"i": ["1", "1", "1", "1"]}}, "use_cudnn_on_gpu": {"b": true}, "TArgs": {"list": {"type": ["DT_FLOAT"]}}, "explicit_paddings": {"list": {}}, "num_args": {"i": "1"}, "filter_format": {"s": "SFdJTw=="}, "leakyrelu_alpha": {"f": 0.2}, "fused_ops": {"list": {"s": ["Qmlhc0FkZA==", "UmVsdQ=="]}}, "num_host_args": {"i": "0"}, "data_format": {"s": "TkhXQw=="}, "strides": {"list": {"i": ["1", "1", "1", "1"]}}, "padding": {"s": "U0FNRQ=="}, "T": {"type": "DT_FLOAT"}}}, {"name": "StatefulPartitionedCall/U2NetOneOutput/u2_net/rsu7/blue_2/max_pooling2d_2/MaxPool", "op": "MaxPool", "input": ["StatefulPartitionedCall/U2NetOneOutput/u2_net/rsu7/blue_1/green_3/activation_3/Relu"], "attr": {"strides": {"list": {"i": ["1", "2", "2", "1"]}}, "explicit_paddings": {"list": {}}, "data_format": {"s": "TkhXQw=="}, "T": {"type": "DT_FLOAT"}, "ksize": {"list": {"i": ["1", "2", "2", "1"]}}, "padding": {"s": "VkFMSUQ="}}}, {"name": "StatefulPartitionedCall/U2NetOneOutput/u2_net/rsu7/blue_2/green_4/activation_4/Relu", "op": "_FusedConv2D", "input": ["StatefulPartitionedCall/U2NetOneOutput/u2_net/rsu7/blue_2/max_pooling2d_2/MaxPool", "StatefulPartitionedCall/U2NetOneOutput/u2_net/rsu7/blue_2/green_4/conv2d_4/Conv2D_weights", "StatefulPartitionedCall/U2NetOneOutput/u2_net/rsu7/blue_2/green_4/conv2d_4/Conv2D_bn_offset"], "device": "/device:CPU:0", "attr": {"T": {"type": "DT_FLOAT"}, "TArgs": {"list": {"type": ["DT_FLOAT"]}}, "num_host_args": {"i": "0"}, "leakyrelu_alpha": {"f": 0.2}, "filter_format": {"s": "SFdJTw=="}, "num_args": {"i": "1"}, "data_format": {"s": "TkhXQw=="}, "explicit_paddings": {"list": {}}, "strides": {"list": {"i": ["1", "1", "1", "1"]}}, "use_cudnn_on_gpu": {"b": true}, "fused_ops": {"list": {"s": ["Qmlhc0FkZA==", "UmVsdQ=="]}}, "padding": {"s": "U0FNRQ=="}, "dilations": {"list": {"i": ["1", "1", "1", "1"]}}, "epsilon": {"f": 0.0}}}, {"name": "StatefulPartitionedCall/U2NetOneOutput/u2_net/rsu7/blue_3/max_pooling2d_3/MaxPool", "op": "MaxPool", "input": ["StatefulPartitionedCall/U2NetOneOutput/u2_net/rsu7/blue_2/green_4/activation_4/Relu"], "attr": {"strides": {"list": {"i": ["1", "2", "2", "1"]}}, "data_format": {"s": "TkhXQw=="}, "T": {"type": "DT_FLOAT"}, "ksize": {"list": {"i": ["1", "2", "2", "1"]}}, "explicit_paddings": {"list": {}}, "padding": {"s": "VkFMSUQ="}}}, {"name": "StatefulPartitionedCall/U2NetOneOutput/u2_net/rsu7/blue_3/green_5/activation_5/Relu", "op": "_FusedConv2D", "input": ["StatefulPartitionedCall/U2NetOneOutput/u2_net/rsu7/blue_3/max_pooling2d_3/MaxPool", "StatefulPartitionedCall/U2NetOneOutput/u2_net/rsu7/blue_3/green_5/conv2d_5/Conv2D_weights", "StatefulPartitionedCall/U2NetOneOutput/u2_net/rsu7/blue_3/green_5/conv2d_5/Conv2D_bn_offset"], "device": "/device:CPU:0", "attr": {"dilations": {"list": {"i": ["1", "1", "1", "1"]}}, "filter_format": {"s": "SFdJTw=="}, "T": {"type": "DT_FLOAT"}, "explicit_paddings": {"list": {}}, "leakyrelu_alpha": {"f": 0.2}, "TArgs": {"list": {"type": ["DT_FLOAT"]}}, "epsilon": {"f": 0.0}, "strides": {"list": {"i": ["1", "1", "1", "1"]}}, "num_host_args": {"i": "0"}, "num_args": {"i": "1"}, "padding": {"s": "U0FNRQ=="}, "data_format": {"s": "TkhXQw=="}, "fused_ops": {"list": {"s": ["Qmlhc0FkZA==", "UmVsdQ=="]}}, "use_cudnn_on_gpu": {"b": true}}}, {"name": "StatefulPartitionedCall/U2NetOneOutput/u2_net/rsu7/blue_4/max_pooling2d_4/MaxPool", "op": "MaxPool", "input": ["StatefulPartitionedCall/U2NetOneOutput/u2_net/rsu7/blue_3/green_5/activation_5/Relu"], "attr": {"ksize": {"list": {"i": ["1", "2", "2", "1"]}}, "T": {"type": "DT_FLOAT"}, "data_format": {"s": "TkhXQw=="}, "padding": {"s": "VkFMSUQ="}, "explicit_paddings": {"list": {}}, "strides": {"list": {"i": ["1", "2", "2", "1"]}}}}, {"name": "StatefulPartitionedCall/U2NetOneOutput/u2_net/rsu7/blue_4/green_6/activation_6/Relu", "op": "_FusedConv2D", "input": ["StatefulPartitionedCall/U2NetOneOutput/u2_net/rsu7/blue_4/max_pooling2d_4/MaxPool", "StatefulPartitionedCall/U2NetOneOutput/u2_net/rsu7/blue_4/green_6/conv2d_6/Conv2D_weights", "StatefulPartitionedCall/U2NetOneOutput/u2_net/rsu7/blue_4/green_6/conv2d_6/Conv2D_bn_offset"], "device": "/device:CPU:0", "attr": {"epsilon": {"f": 0.0}, "fused_ops": {"list": {"s": ["Qmlhc0FkZA==", "UmVsdQ=="]}}, "leakyrelu_alpha": {"f": 0.2}, "data_format": {"s": "TkhXQw=="}, "num_args": {"i": "1"}, "num_host_args": {"i": "0"}, "explicit_paddings": {"list": {}}, "T": {"type": "DT_FLOAT"}, "TArgs": {"list": {"type": ["DT_FLOAT"]}}, "strides": {"list": {"i": ["1", "1", "1", "1"]}}, "use_cudnn_on_gpu": {"b": true}, "padding": {"s": "U0FNRQ=="}, "dilations": {"list": {"i": ["1", "1", "1", "1"]}}, "filter_format": {"s": "SFdJTw=="}}}, {"name": "StatefulPartitionedCall/U2NetOneOutput/u2_net/rsu7/green_7/conv2d_7/Conv2D/SpaceToBatchND", "op": "SpaceToBatchND", "input": ["StatefulPartitionedCall/U2NetOneOutput/u2_net/rsu7/blue_4/green_6/activation_6/Relu", "StatefulPartitionedCall/U2NetOneOutput/u2_net/rsu7/green_7/conv2d_7/Conv2D/SpaceToBatchND/block_shape", "StatefulPartitionedCall/U2NetOneOutput/u2_net/rsu7/green_7/conv2d_7/Conv2D/SpaceToBatchND/paddings"], "attr": {"Tpaddings": {"type": "DT_INT32"}, "Tblock_shape": {"type": "DT_INT32"}, "T": {"type": "DT_FLOAT"}}}, {"name": "StatefulPartitionedCall/U2NetOneOutput/u2_net/rsu7/green_7/conv2d_7/Conv2D", "op": "Conv2D", "input": ["StatefulPartitionedCall/U2NetOneOutput/u2_net/rsu7/green_7/conv2d_7/Conv2D/SpaceToBatchND", "StatefulPartitionedCall/U2NetOneOutput/u2_net/rsu7/green_7/conv2d_7/Conv2D/ReadVariableOp"], "device": "/device:CPU:0", "attr": {"T": {"type": "DT_FLOAT"}, "dilations": {"list": {"i": ["1", "1", "1", "1"]}}, "use_cudnn_on_gpu": {"b": true}, "padding": {"s": "VkFMSUQ="}, "data_format": {"s": "TkhXQw=="}, "strides": {"list": {"i": ["1", "1", "1", "1"]}}, "explicit_paddings": {"list": {}}}}, {"name": "StatefulPartitionedCall/U2NetOneOutput/u2_net/rsu7/green_7/conv2d_7/Conv2D/BatchToSpaceND", "op": "BatchToSpaceND", "input": ["StatefulPartitionedCall/U2NetOneOutput/u2_net/rsu7/green_7/conv2d_7/Conv2D", "StatefulPartitionedCall/U2NetOneOutput/u2_net/rsu7/green_7/conv2d_7/Conv2D/BatchToSpaceND/block_shape", "StatefulPartitionedCall/U2NetOneOutput/u2_net/rsu7/green_7/conv2d_7/Conv2D/BatchToSpaceND/crops"], "attr": {"Tblock_shape": {"type": "DT_INT32"}, "Tcrops": {"type": "DT_INT32"}, "T": {"type": "DT_FLOAT"}}}, {"name": "StatefulPartitionedCall/U2NetOneOutput/u2_net/rsu7/green_7/conv2d_7/BiasAdd", "op": "BiasAdd", "input": ["StatefulPartitionedCall/U2NetOneOutput/u2_net/rsu7/green_7/conv2d_7/Conv2D/BatchToSpaceND", "StatefulPartitionedCall/U2NetOneOutput/u2_net/rsu7/green_7/conv2d_7/BiasAdd/ReadVariableOp"], "attr": {"data_format": {"s": "TkhXQw=="}, "T": {"type": "DT_FLOAT"}}}, {"name": "StatefulPartitionedCall/U2NetOneOutput/u2_net/rsu7/green_7/batch_normalization_7/FusedBatchNormV3/Mul", "op": "Mul", "input": ["StatefulPartitionedCall/U2NetOneOutput/u2_net/rsu7/green_7/conv2d_7/BiasAdd", "StatefulPartitionedCall/U2NetOneOutput/u2_net/rsu7/green_7/batch_normalization_7/FusedBatchNormV3/Scaled"], "attr": {"T": {"type": "DT_FLOAT"}}}, {"name": "StatefulPartitionedCall/U2NetOneOutput/u2_net/rsu7/green_7/batch_normalization_7/FusedBatchNormV3", "op": "Add", "input": ["StatefulPartitionedCall/U2NetOneOutput/u2_net/rsu7/green_7/batch_normalization_7/FusedBatchNormV3/Mul", "StatefulPartitionedCall/U2NetOneOutput/u2_net/rsu7/green_7/batch_normalization_7/FusedBatchNormV3/Offset"], "attr": {"T": {"type": "DT_FLOAT"}}}, {"name": "StatefulPartitionedCall/U2NetOneOutput/u2_net/rsu7/green_7/activation_7/Relu", "op": "Relu", "input": ["StatefulPartitionedCall/U2NetOneOutput/u2_net/rsu7/green_7/batch_normalization_7/FusedBatchNormV3"], "attr": {"T": {"type": "DT_FLOAT"}}}, {"name": "StatefulPartitionedCall/U2NetOneOutput/u2_net/rsu7/concatenate/concat", "op": "ConcatV2", "input": ["StatefulPartitionedCall/U2NetOneOutput/u2_net/rsu7/green_7/activation_7/Relu", "StatefulPartitionedCall/U2NetOneOutput/u2_net/rsu7/blue_4/green_6/activation_6/Relu", "StatefulPartitionedCall/U2NetOneOutput/u2_net/rsu7/concatenate/concat/axis"], "attr": {"T": {"type": "DT_FLOAT"}, "Tidx": {"type": "DT_INT32"}, "N": {"i": "2"}}}, {"name": "StatefulPartitionedCall/U2NetOneOutput/u2_net/rsu7/green_8/activation_8/Relu", "op": "_FusedConv2D", "input": ["StatefulPartitionedCall/U2NetOneOutput/u2_net/rsu7/concatenate/concat", "StatefulPartitionedCall/U2NetOneOutput/u2_net/rsu7/green_8/conv2d_8/Conv2D_weights", "StatefulPartitionedCall/U2NetOneOutput/u2_net/rsu7/green_8/conv2d_8/Conv2D_bn_offset"], "device": "/device:CPU:0", "attr": {"leakyrelu_alpha": {"f": 0.2}, "padding": {"s": "U0FNRQ=="}, "fused_ops": {"list": {"s": ["Qmlhc0FkZA==", "UmVsdQ=="]}}, "dilations": {"list": {"i": ["1", "1", "1", "1"]}}, "num_args": {"i": "1"}, "epsilon": {"f": 0.0}, "strides": {"list": {"i": ["1", "1", "1", "1"]}}, "num_host_args": {"i": "0"}, "T": {"type": "DT_FLOAT"}, "explicit_paddings": {"list": {}}, "filter_format": {"s": "SFdJTw=="}, "use_cudnn_on_gpu": {"b": true}, "TArgs": {"list": {"type": ["DT_FLOAT"]}}, "data_format": {"s": "TkhXQw=="}}}, {"name": "StatefulPartitionedCall/U2NetOneOutput/u2_net/rsu7/pink/up_sampling2d/resize/ResizeBilinear", "op": "ResizeBilinear", "input": ["StatefulPartitionedCall/U2NetOneOutput/u2_net/rsu7/green_8/activation_8/Relu", "StatefulPartitionedCall/U2NetOneOutput/u2_net/rsu7/pink/up_sampling2d/mul"], "attr": {"half_pixel_centers": {"b": true}, "align_corners": {"b": false}, "T": {"type": "DT_FLOAT"}}}, {"name": "StatefulPartitionedCall/U2NetOneOutput/u2_net/rsu7/pink/concatenate_1/concat", "op": "ConcatV2", "input": ["StatefulPartitionedCall/U2NetOneOutput/u2_net/rsu7/pink/up_sampling2d/resize/ResizeBilinear", "StatefulPartitionedCall/U2NetOneOutput/u2_net/rsu7/blue_3/green_5/activation_5/Relu", "StatefulPartitionedCall/U2NetOneOutput/u2_net/rsu7/pink/concatenate_1/concat/axis"], "attr": {"N": {"i": "2"}, "T": {"type": "DT_FLOAT"}, "Tidx": {"type": "DT_INT32"}}}, {"name": "StatefulPartitionedCall/U2NetOneOutput/u2_net/rsu7/pink/green_9/activation_9/Relu", "op": "_FusedConv2D", "input": ["StatefulPartitionedCall/U2NetOneOutput/u2_net/rsu7/pink/concatenate_1/concat", "StatefulPartitionedCall/U2NetOneOutput/u2_net/rsu7/pink/green_9/conv2d_9/Conv2D_weights", "StatefulPartitionedCall/U2NetOneOutput/u2_net/rsu7/pink/green_9/conv2d_9/Conv2D_bn_offset"], "device": "/device:CPU:0", "attr": {"use_cudnn_on_gpu": {"b": true}, "padding": {"s": "U0FNRQ=="}, "leakyrelu_alpha": {"f": 0.2}, "explicit_paddings": {"list": {}}, "T": {"type": "DT_FLOAT"}, "dilations": {"list": {"i": ["1", "1", "1", "1"]}}, "TArgs": {"list": {"type": ["DT_FLOAT"]}}, "fused_ops": {"list": {"s": ["Qmlhc0FkZA==", "UmVsdQ=="]}}, "data_format": {"s": "TkhXQw=="}, "epsilon": {"f": 0.0}, "num_args": {"i": "1"}, "strides": {"list": {"i": ["1", "1", "1", "1"]}}, "filter_format": {"s": "SFdJTw=="}, "num_host_args": {"i": "0"}}}, {"name": "StatefulPartitionedCall/U2NetOneOutput/u2_net/rsu7/pink_1/up_sampling2d_1/resize/ResizeBilinear", "op": "ResizeBilinear", "input": ["StatefulPartitionedCall/U2NetOneOutput/u2_net/rsu7/pink/green_9/activation_9/Relu", "StatefulPartitionedCall/U2NetOneOutput/u2_net/rsu7/pink_1/up_sampling2d_1/mul"], "attr": {"align_corners": {"b": false}, "half_pixel_centers": {"b": true}, "T": {"type": "DT_FLOAT"}}}, {"name": "StatefulPartitionedCall/U2NetOneOutput/u2_net/rsu7/pink_1/concatenate_2/concat", "op": "ConcatV2", "input": ["StatefulPartitionedCall/U2NetOneOutput/u2_net/rsu7/pink_1/up_sampling2d_1/resize/ResizeBilinear", "StatefulPartitionedCall/U2NetOneOutput/u2_net/rsu7/blue_2/green_4/activation_4/Relu", "StatefulPartitionedCall/U2NetOneOutput/u2_net/rsu7/pink_1/concatenate_2/concat/axis"], "attr": {"Tidx": {"type": "DT_INT32"}, "N": {"i": "2"}, "T": {"type": "DT_FLOAT"}}}, {"name": "StatefulPartitionedCall/U2NetOneOutput/u2_net/rsu7/pink_1/green_10/activation_10/Relu", "op": "_FusedConv2D", "input": ["StatefulPartitionedCall/U2NetOneOutput/u2_net/rsu7/pink_1/concatenate_2/concat", "StatefulPartitionedCall/U2NetOneOutput/u2_net/rsu7/pink_1/green_10/conv2d_10/Conv2D_weights", "StatefulPartitionedCall/U2NetOneOutput/u2_net/rsu7/pink_1/green_10/conv2d_10/Conv2D_bn_offset"], "device": "/device:CPU:0", "attr": {"padding": {"s": "U0FNRQ=="}, "T": {"type": "DT_FLOAT"}, "num_args": {"i": "1"}, "strides": {"list": {"i": ["1", "1", "1", "1"]}}, "filter_format": {"s": "SFdJTw=="}, "use_cudnn_on_gpu": {"b": true}, "explicit_paddings": {"list": {}}, "TArgs": {"list": {"type": ["DT_FLOAT"]}}, "fused_ops": {"list": {"s": ["Qmlhc0FkZA==", "UmVsdQ=="]}}, "dilations": {"list": {"i": ["1", "1", "1", "1"]}}, "num_host_args": {"i": "0"}, "leakyrelu_alpha": {"f": 0.2}, "epsilon": {"f": 0.0}, "data_format": {"s": "TkhXQw=="}}}, {"name": "StatefulPartitionedCall/U2NetOneOutput/u2_net/rsu7/pink_2/up_sampling2d_2/resize/ResizeBilinear", "op": "ResizeBilinear", "input": ["StatefulPartitionedCall/U2NetOneOutput/u2_net/rsu7/pink_1/green_10/activation_10/Relu", "StatefulPartitionedCall/U2NetOneOutput/u2_net/rsu7/pink_2/up_sampling2d_2/mul"], "attr": {"T": {"type": "DT_FLOAT"}, "align_corners": {"b": false}, "half_pixel_centers": {"b": true}}}, {"name": "StatefulPartitionedCall/U2NetOneOutput/u2_net/rsu7/pink_2/concatenate_3/concat", "op": "ConcatV2", "input": ["StatefulPartitionedCall/U2NetOneOutput/u2_net/rsu7/pink_2/up_sampling2d_2/resize/ResizeBilinear", "StatefulPartitionedCall/U2NetOneOutput/u2_net/rsu7/blue_1/green_3/activation_3/Relu", "StatefulPartitionedCall/U2NetOneOutput/u2_net/rsu7/pink_2/concatenate_3/concat/axis"], "attr": {"Tidx": {"type": "DT_INT32"}, "T": {"type": "DT_FLOAT"}, "N": {"i": "2"}}}, {"name": "StatefulPartitionedCall/U2NetOneOutput/u2_net/rsu7/pink_2/green_11/activation_11/Relu", "op": "_FusedConv2D", "input": ["StatefulPartitionedCall/U2NetOneOutput/u2_net/rsu7/pink_2/concatenate_3/concat", "StatefulPartitionedCall/U2NetOneOutput/u2_net/rsu7/pink_2/green_11/conv2d_11/Conv2D_weights", "StatefulPartitionedCall/U2NetOneOutput/u2_net/rsu7/pink_2/green_11/conv2d_11/Conv2D_bn_offset"], "device": "/device:CPU:0", "attr": {"fused_ops": {"list": {"s": ["Qmlhc0FkZA==", "UmVsdQ=="]}}, "T": {"type": "DT_FLOAT"}, "filter_format": {"s": "SFdJTw=="}, "strides": {"list": {"i": ["1", "1", "1", "1"]}}, "use_cudnn_on_gpu": {"b": true}, "dilations": {"list": {"i": ["1", "1", "1", "1"]}}, "TArgs": {"list": {"type": ["DT_FLOAT"]}}, "data_format": {"s": "TkhXQw=="}, "padding": {"s": "U0FNRQ=="}, "num_args": {"i": "1"}, "leakyrelu_alpha": {"f": 0.2}, "epsilon": {"f": 0.0}, "num_host_args": {"i": "0"}, "explicit_paddings": {"list": {}}}}, {"name": "StatefulPartitionedCall/U2NetOneOutput/u2_net/rsu7/pink_3/up_sampling2d_3/resize/ResizeBilinear", "op": "ResizeBilinear", "input": ["StatefulPartitionedCall/U2NetOneOutput/u2_net/rsu7/pink_2/green_11/activation_11/Relu", "StatefulPartitionedCall/U2NetOneOutput/u2_net/rsu7/pink_3/up_sampling2d_3/mul"], "attr": {"T": {"type": "DT_FLOAT"}, "half_pixel_centers": {"b": true}, "align_corners": {"b": false}}}, {"name": "StatefulPartitionedCall/U2NetOneOutput/u2_net/rsu7/pink_3/concatenate_4/concat", "op": "ConcatV2", "input": ["StatefulPartitionedCall/U2NetOneOutput/u2_net/rsu7/pink_3/up_sampling2d_3/resize/ResizeBilinear", "StatefulPartitionedCall/U2NetOneOutput/u2_net/rsu7/blue/green_2/activation_2/Relu", "StatefulPartitionedCall/U2NetOneOutput/u2_net/rsu7/pink_3/concatenate_4/concat/axis"], "attr": {"Tidx": {"type": "DT_INT32"}, "N": {"i": "2"}, "T": {"type": "DT_FLOAT"}}}, {"name": "StatefulPartitionedCall/U2NetOneOutput/u2_net/rsu7/pink_3/green_12/activation_12/Relu", "op": "_FusedConv2D", "input": ["StatefulPartitionedCall/U2NetOneOutput/u2_net/rsu7/pink_3/concatenate_4/concat", "StatefulPartitionedCall/U2NetOneOutput/u2_net/rsu7/pink_3/green_12/conv2d_12/Conv2D_weights", "StatefulPartitionedCall/U2NetOneOutput/u2_net/rsu7/pink_3/green_12/conv2d_12/Conv2D_bn_offset"], "device": "/device:CPU:0", "attr": {"leakyrelu_alpha": {"f": 0.2}, "strides": {"list": {"i": ["1", "1", "1", "1"]}}, "data_format": {"s": "TkhXQw=="}, "dilations": {"list": {"i": ["1", "1", "1", "1"]}}, "num_host_args": {"i": "0"}, "num_args": {"i": "1"}, "use_cudnn_on_gpu": {"b": true}, "fused_ops": {"list": {"s": ["Qmlhc0FkZA==", "UmVsdQ=="]}}, "TArgs": {"list": {"type": ["DT_FLOAT"]}}, "filter_format": {"s": "SFdJTw=="}, "explicit_paddings": {"list": {}}, "epsilon": {"f": 0.0}, "T": {"type": "DT_FLOAT"}, "padding": {"s": "U0FNRQ=="}}}, {"name": "StatefulPartitionedCall/U2NetOneOutput/u2_net/rsu7/pink_4/up_sampling2d_4/resize/ResizeBilinear", "op": "ResizeBilinear", "input": ["StatefulPartitionedCall/U2NetOneOutput/u2_net/rsu7/pink_3/green_12/activation_12/Relu", "StatefulPartitionedCall/U2NetOneOutput/u2_net/rsu7/pink_4/up_sampling2d_4/mul"], "attr": {"half_pixel_centers": {"b": true}, "align_corners": {"b": false}, "T": {"type": "DT_FLOAT"}}}, {"name": "StatefulPartitionedCall/U2NetOneOutput/u2_net/rsu7/pink_4/concatenate_5/concat", "op": "ConcatV2", "input": ["StatefulPartitionedCall/U2NetOneOutput/u2_net/rsu7/pink_4/up_sampling2d_4/resize/ResizeBilinear", "StatefulPartitionedCall/U2NetOneOutput/u2_net/rsu7/green_1/activation_1/Relu", "StatefulPartitionedCall/U2NetOneOutput/u2_net/rsu7/pink_4/concatenate_5/concat/axis"], "attr": {"N": {"i": "2"}, "T": {"type": "DT_FLOAT"}, "Tidx": {"type": "DT_INT32"}}}, {"name": "StatefulPartitionedCall/U2NetOneOutput/u2_net/rsu7/pink_4/green_13/activation_13/Relu", "op": "_FusedConv2D", "input": ["StatefulPartitionedCall/U2NetOneOutput/u2_net/rsu7/pink_4/concatenate_5/concat", "StatefulPartitionedCall/U2NetOneOutput/u2_net/rsu7/pink_4/green_13/conv2d_13/Conv2D_weights", "StatefulPartitionedCall/U2NetOneOutput/u2_net/rsu7/pink_4/green_13/conv2d_13/Conv2D_bn_offset"], "device": "/device:CPU:0", "attr": {"epsilon": {"f": 0.0}, "explicit_paddings": {"list": {}}, "T": {"type": "DT_FLOAT"}, "strides": {"list": {"i": ["1", "1", "1", "1"]}}, "leakyrelu_alpha": {"f": 0.2}, "TArgs": {"list": {"type": ["DT_FLOAT"]}}, "use_cudnn_on_gpu": {"b": true}, "fused_ops": {"list": {"s": ["Qmlhc0FkZA==", "UmVsdQ=="]}}, "filter_format": {"s": "SFdJTw=="}, "num_args": {"i": "1"}, "dilations": {"list": {"i": ["1", "1", "1", "1"]}}, "data_format": {"s": "TkhXQw=="}, "padding": {"s": "U0FNRQ=="}, "num_host_args": {"i": "0"}}}, {"name": "StatefulPartitionedCall/U2NetOneOutput/u2_net/rsu7/add/add", "op": "AddV2", "input": ["StatefulPartitionedCall/U2NetOneOutput/u2_net/rsu7/pink_4/green_13/activation_13/Relu", "StatefulPartitionedCall/U2NetOneOutput/u2_net/rsu7/green/activation/Relu"], "attr": {"T": {"type": "DT_FLOAT"}}}, {"name": "StatefulPartitionedCall/U2NetOneOutput/u2_net/max_pooling2d/MaxPool", "op": "MaxPool", "input": ["StatefulPartitionedCall/U2NetOneOutput/u2_net/rsu7/add/add"], "attr": {"data_format": {"s": "TkhXQw=="}, "ksize": {"list": {"i": ["1", "2", "2", "1"]}}, "explicit_paddings": {"list": {}}, "padding": {"s": "VkFMSUQ="}, "T": {"type": "DT_FLOAT"}, "strides": {"list": {"i": ["1", "2", "2", "1"]}}}}, {"name": "StatefulPartitionedCall/U2NetOneOutput/u2_net/rsu6/green_14/activation_14/Relu", "op": "_FusedConv2D", "input": ["StatefulPartitionedCall/U2NetOneOutput/u2_net/max_pooling2d/MaxPool", "StatefulPartitionedCall/U2NetOneOutput/u2_net/rsu6/green_14/conv2d_14/Conv2D_weights", "StatefulPartitionedCall/U2NetOneOutput/u2_net/rsu6/green_14/conv2d_14/Conv2D_bn_offset"], "device": "/device:CPU:0", "attr": {"padding": {"s": "U0FNRQ=="}, "filter_format": {"s": "SFdJTw=="}, "num_args": {"i": "1"}, "TArgs": {"list": {"type": ["DT_FLOAT"]}}, "leakyrelu_alpha": {"f": 0.2}, "epsilon": {"f": 0.0}, "T": {"type": "DT_FLOAT"}, "explicit_paddings": {"list": {}}, "strides": {"list": {"i": ["1", "1", "1", "1"]}}, "dilations": {"list": {"i": ["1", "1", "1", "1"]}}, "data_format": {"s": "TkhXQw=="}, "fused_ops": {"list": {"s": ["Qmlhc0FkZA==", "UmVsdQ=="]}}, "num_host_args": {"i": "0"}, "use_cudnn_on_gpu": {"b": true}}}, {"name": "StatefulPartitionedCall/U2NetOneOutput/u2_net/rsu6/green_15/activation_15/Relu", "op": "_FusedConv2D", "input": ["StatefulPartitionedCall/U2NetOneOutput/u2_net/rsu6/green_14/activation_14/Relu", "StatefulPartitionedCall/U2NetOneOutput/u2_net/rsu6/green_15/conv2d_15/Conv2D_weights", "StatefulPartitionedCall/U2NetOneOutput/u2_net/rsu6/green_15/conv2d_15/Conv2D_bn_offset"], "device": "/device:CPU:0", "attr": {"TArgs": {"list": {"type": ["DT_FLOAT"]}}, "explicit_paddings": {"list": {}}, "leakyrelu_alpha": {"f": 0.2}, "strides": {"list": {"i": ["1", "1", "1", "1"]}}, "T": {"type": "DT_FLOAT"}, "dilations": {"list": {"i": ["1", "1", "1", "1"]}}, "epsilon": {"f": 0.0}, "num_args": {"i": "1"}, "data_format": {"s": "TkhXQw=="}, "fused_ops": {"list": {"s": ["Qmlhc0FkZA==", "UmVsdQ=="]}}, "use_cudnn_on_gpu": {"b": true}, "num_host_args": {"i": "0"}, "padding": {"s": "U0FNRQ=="}, "filter_format": {"s": "SFdJTw=="}}}, {"name": "StatefulPartitionedCall/U2NetOneOutput/u2_net/rsu6/blue_5/max_pooling2d_5/MaxPool", "op": "MaxPool", "input": ["StatefulPartitionedCall/U2NetOneOutput/u2_net/rsu6/green_15/activation_15/Relu"], "attr": {"ksize": {"list": {"i": ["1", "2", "2", "1"]}}, "data_format": {"s": "TkhXQw=="}, "T": {"type": "DT_FLOAT"}, "explicit_paddings": {"list": {}}, "padding": {"s": "VkFMSUQ="}, "strides": {"list": {"i": ["1", "2", "2", "1"]}}}}, {"name": "StatefulPartitionedCall/U2NetOneOutput/u2_net/rsu6/blue_5/green_16/activation_16/Relu", "op": "_FusedConv2D", "input": ["StatefulPartitionedCall/U2NetOneOutput/u2_net/rsu6/blue_5/max_pooling2d_5/MaxPool", "StatefulPartitionedCall/U2NetOneOutput/u2_net/rsu6/blue_5/green_16/conv2d_16/Conv2D_weights", "StatefulPartitionedCall/U2NetOneOutput/u2_net/rsu6/blue_5/green_16/conv2d_16/Conv2D_bn_offset"], "device": "/device:CPU:0", "attr": {"num_host_args": {"i": "0"}, "padding": {"s": "U0FNRQ=="}, "dilations": {"list": {"i": ["1", "1", "1", "1"]}}, "TArgs": {"list": {"type": ["DT_FLOAT"]}}, "strides": {"list": {"i": ["1", "1", "1", "1"]}}, "filter_format": {"s": "SFdJTw=="}, "epsilon": {"f": 0.0}, "leakyrelu_alpha": {"f": 0.2}, "T": {"type": "DT_FLOAT"}, "fused_ops": {"list": {"s": ["Qmlhc0FkZA==", "UmVsdQ=="]}}, "num_args": {"i": "1"}, "data_format": {"s": "TkhXQw=="}, "use_cudnn_on_gpu": {"b": true}, "explicit_paddings": {"list": {}}}}, {"name": "StatefulPartitionedCall/U2NetOneOutput/u2_net/rsu6/blue_6/max_pooling2d_6/MaxPool", "op": "MaxPool", "input": ["StatefulPartitionedCall/U2NetOneOutput/u2_net/rsu6/blue_5/green_16/activation_16/Relu"], "attr": {"ksize": {"list": {"i": ["1", "2", "2", "1"]}}, "explicit_paddings": {"list": {}}, "data_format": {"s": "TkhXQw=="}, "padding": {"s": "VkFMSUQ="}, "strides": {"list": {"i": ["1", "2", "2", "1"]}}, "T": {"type": "DT_FLOAT"}}}, {"name": "StatefulPartitionedCall/U2NetOneOutput/u2_net/rsu6/blue_6/green_17/activation_17/Relu", "op": "_FusedConv2D", "input": ["StatefulPartitionedCall/U2NetOneOutput/u2_net/rsu6/blue_6/max_pooling2d_6/MaxPool", "StatefulPartitionedCall/U2NetOneOutput/u2_net/rsu6/blue_6/green_17/conv2d_17/Conv2D_weights", "StatefulPartitionedCall/U2NetOneOutput/u2_net/rsu6/blue_6/green_17/conv2d_17/Conv2D_bn_offset"], "device": "/device:CPU:0", "attr": {"use_cudnn_on_gpu": {"b": true}, "explicit_paddings": {"list": {}}, "strides": {"list": {"i": ["1", "1", "1", "1"]}}, "T": {"type": "DT_FLOAT"}, "TArgs": {"list": {"type": ["DT_FLOAT"]}}, "fused_ops": {"list": {"s": ["Qmlhc0FkZA==", "UmVsdQ=="]}}, "num_host_args": {"i": "0"}, "dilations": {"list": {"i": ["1", "1", "1", "1"]}}, "padding": {"s": "U0FNRQ=="}, "num_args": {"i": "1"}, "epsilon": {"f": 0.0}, "data_format": {"s": "TkhXQw=="}, "filter_format": {"s": "SFdJTw=="}, "leakyrelu_alpha": {"f": 0.2}}}, {"name": "StatefulPartitionedCall/U2NetOneOutput/u2_net/rsu6/blue_7/max_pooling2d_7/MaxPool", "op": "MaxPool", "input": ["StatefulPartitionedCall/U2NetOneOutput/u2_net/rsu6/blue_6/green_17/activation_17/Relu"], "attr": {"T": {"type": "DT_FLOAT"}, "ksize": {"list": {"i": ["1", "2", "2", "1"]}}, "strides": {"list": {"i": ["1", "2", "2", "1"]}}, "explicit_paddings": {"list": {}}, "data_format": {"s": "TkhXQw=="}, "padding": {"s": "VkFMSUQ="}}}, {"name": "StatefulPartitionedCall/U2NetOneOutput/u2_net/rsu6/blue_7/green_18/activation_18/Relu", "op": "_FusedConv2D", "input": ["StatefulPartitionedCall/U2NetOneOutput/u2_net/rsu6/blue_7/max_pooling2d_7/MaxPool", "StatefulPartitionedCall/U2NetOneOutput/u2_net/rsu6/blue_7/green_18/conv2d_18/Conv2D_weights", "StatefulPartitionedCall/U2NetOneOutput/u2_net/rsu6/blue_7/green_18/conv2d_18/Conv2D_bn_offset"], "device": "/device:CPU:0", "attr": {"fused_ops": {"list": {"s": ["Qmlhc0FkZA==", "UmVsdQ=="]}}, "explicit_paddings": {"list": {}}, "filter_format": {"s": "SFdJTw=="}, "dilations": {"list": {"i": ["1", "1", "1", "1"]}}, "strides": {"list": {"i": ["1", "1", "1", "1"]}}, "data_format": {"s": "TkhXQw=="}, "TArgs": {"list": {"type": ["DT_F…
ings", "shape": [2, 2], "dtype": "int32"}, {"name": "StatefulPartitionedCall/U2NetOneOutput/u2_net/rsu4f_1/green_55/conv2d_55/Conv2D/ReadVariableOp", "shape": [3, 3, 256, 256], "dtype": "float32"}, {"name": "StatefulPartitionedCall/U2NetOneOutput/u2_net/rsu4f_1/green_55/conv2d_55/Conv2D/BatchToSpaceND/block_shape", "shape": [2], "dtype": "int32"}, {"name": "StatefulPartitionedCall/U2NetOneOutput/u2_net/rsu4f_1/green_55/conv2d_55/Conv2D/BatchToSpaceND/crops", "shape": [2, 2], "dtype": "int32"}, {"name": "StatefulPartitionedCall/U2NetOneOutput/u2_net/rsu4f_1/green_55/conv2d_55/BiasAdd/ReadVariableOp", "shape": [256], "dtype": "float32"}, {"name": "StatefulPartitionedCall/U2NetOneOutput/u2_net/rsu4f_1/concatenate_21/concat/axis", "shape": [], "dtype": "int32"}, {"name": "StatefulPartitionedCall/U2NetOneOutput/u2_net/rsu4f_1/green_57/conv2d_57/Conv2D/SpaceToBatchND/block_shape", "shape": [2], "dtype": "int32"}, {"name": "StatefulPartitionedCall/U2NetOneOutput/u2_net/rsu4f_1/green_57/conv2d_57/Conv2D/SpaceToBatchND/paddings", "shape": [2, 2], "dtype": "int32"}, {"name": "StatefulPartitionedCall/U2NetOneOutput/u2_net/rsu4f_1/green_57/conv2d_57/Conv2D/ReadVariableOp", "shape": [3, 3, 512, 256], "dtype": "float32"}, {"name": "StatefulPartitionedCall/U2NetOneOutput/u2_net/rsu4f_1/green_57/conv2d_57/Conv2D/BatchToSpaceND/block_shape", "shape": [2], "dtype": "int32"}, {"name": "StatefulPartitionedCall/U2NetOneOutput/u2_net/rsu4f_1/green_57/conv2d_57/Conv2D/BatchToSpaceND/crops", "shape": [2, 2], "dtype": "int32"}, {"name": "StatefulPartitionedCall/U2NetOneOutput/u2_net/rsu4f_1/green_57/conv2d_57/BiasAdd/ReadVariableOp", "shape": [256], "dtype": "float32"}, {"name": "StatefulPartitionedCall/U2NetOneOutput/u2_net/rsu4f_1/green_54/conv2d_54/Conv2D/SpaceToBatchND/block_shape", "shape": [2], "dtype": "int32"}, {"name": "StatefulPartitionedCall/U2NetOneOutput/u2_net/rsu4f_1/green_54/conv2d_54/Conv2D/SpaceToBatchND/paddings", "shape": [2, 2], "dtype": "int32"}, {"name": "StatefulPartitionedCall/U2NetOneOutput/u2_net/rsu4f_1/green_54/conv2d_54/Conv2D/ReadVariableOp", "shape": [3, 3, 256, 256], "dtype": "float32"}, {"name": "StatefulPartitionedCall/U2NetOneOutput/u2_net/rsu4f_1/green_54/conv2d_54/Conv2D/BatchToSpaceND/block_shape", "shape": [2], "dtype": "int32"}, {"name": "StatefulPartitionedCall/U2NetOneOutput/u2_net/rsu4f_1/green_54/conv2d_54/Conv2D/BatchToSpaceND/crops", "shape": [2, 2], "dtype": "int32"}, {"name": "StatefulPartitionedCall/U2NetOneOutput/u2_net/rsu4f_1/green_54/conv2d_54/BiasAdd/ReadVariableOp", "shape": [256], "dtype": "float32"}, {"name": "StatefulPartitionedCall/U2NetOneOutput/u2_net/rsu4f_1/concatenate_22/concat/axis", "shape": [], "dtype": "int32"}, {"name": "StatefulPartitionedCall/U2NetOneOutput/u2_net/rsu4f_1/green_58/conv2d_58/Conv2D/SpaceToBatchND/block_shape", "shape": [2], "dtype": "int32"}, {"name": "StatefulPartitionedCall/U2NetOneOutput/u2_net/rsu4f_1/green_58/conv2d_58/Conv2D/SpaceToBatchND/paddings", "shape": [2, 2], "dtype": "int32"}, {"name": "StatefulPartitionedCall/U2NetOneOutput/u2_net/rsu4f_1/green_58/conv2d_58/Conv2D/ReadVariableOp", "shape": [3, 3, 512, 256], "dtype": "float32"}, {"name": "StatefulPartitionedCall/U2NetOneOutput/u2_net/rsu4f_1/green_58/conv2d_58/Conv2D/BatchToSpaceND/block_shape", "shape": [2], "dtype": "int32"}, {"name": "StatefulPartitionedCall/U2NetOneOutput/u2_net/rsu4f_1/green_58/conv2d_58/Conv2D/BatchToSpaceND/crops", "shape": [2, 2], "dtype": "int32"}, {"name": "StatefulPartitionedCall/U2NetOneOutput/u2_net/rsu4f_1/green_58/conv2d_58/BiasAdd/ReadVariableOp", "shape": [256], "dtype": "float32"}, {"name": "StatefulPartitionedCall/U2NetOneOutput/u2_net/rsu4f/green_48/conv2d_48/Conv2D/SpaceToBatchND/block_shape", "shape": [2], "dtype": "int32"}, {"name": "StatefulPartitionedCall/U2NetOneOutput/u2_net/rsu4f/green_48/conv2d_48/Conv2D/SpaceToBatchND/paddings", "shape": [2, 2], "dtype": "int32"}, {"name": "StatefulPartitionedCall/U2NetOneOutput/u2_net/rsu4f/green_48/conv2d_48/Conv2D/ReadVariableOp", "shape": [3, 3, 256, 256], "dtype": "float32"}, {"name": "StatefulPartitionedCall/U2NetOneOutput/u2_net/rsu4f/green_48/conv2d_48/Conv2D/BatchToSpaceND/block_shape", "shape": [2], "dtype": "int32"}, {"name": "StatefulPartitionedCall/U2NetOneOutput/u2_net/rsu4f/green_48/conv2d_48/Conv2D/BatchToSpaceND/crops", "shape": [2, 2], "dtype": "int32"}, {"name": "StatefulPartitionedCall/U2NetOneOutput/u2_net/rsu4f/green_48/conv2d_48/BiasAdd/ReadVariableOp", "shape": [256], "dtype": "float32"}, {"name": "StatefulPartitionedCall/U2NetOneOutput/u2_net/rsu4f/green_47/conv2d_47/Conv2D/SpaceToBatchND/block_shape", "shape": [2], "dtype": "int32"}, {"name": "StatefulPartitionedCall/U2NetOneOutput/u2_net/rsu4f/green_47/conv2d_47/Conv2D/SpaceToBatchND/paddings", "shape": [2, 2], "dtype": "int32"}, {"name": "StatefulPartitionedCall/U2NetOneOutput/u2_net/rsu4f/green_47/conv2d_47/Conv2D/ReadVariableOp", "shape": [3, 3, 256, 256], "dtype": "float32"}, {"name": "StatefulPartitionedCall/U2NetOneOutput/u2_net/rsu4f/green_47/conv2d_47/Conv2D/BatchToSpaceND/block_shape", "shape": [2], "dtype": "int32"}, {"name": "StatefulPartitionedCall/U2NetOneOutput/u2_net/rsu4f/green_47/conv2d_47/Conv2D/BatchToSpaceND/crops", "shape": [2, 2], "dtype": "int32"}, {"name": "StatefulPartitionedCall/U2NetOneOutput/u2_net/rsu4f/green_47/conv2d_47/BiasAdd/ReadVariableOp", "shape": [256], "dtype": "float32"}, {"name": "StatefulPartitionedCall/U2NetOneOutput/u2_net/rsu4f/concatenate_18/concat/axis", "shape": [], "dtype": "int32"}, {"name": "StatefulPartitionedCall/U2NetOneOutput/u2_net/rsu4f/green_49/conv2d_49/Conv2D/SpaceToBatchND/block_shape", "shape": [2], "dtype": "int32"}, {"name": "StatefulPartitionedCall/U2NetOneOutput/u2_net/rsu4f/green_49/conv2d_49/Conv2D/SpaceToBatchND/paddings", "shape": [2, 2], "dtype": "int32"}, {"name": "StatefulPartitionedCall/U2NetOneOutput/u2_net/rsu4f/green_49/conv2d_49/Conv2D/ReadVariableOp", "shape": [3, 3, 512, 256], "dtype": "float32"}, {"name": "StatefulPartitionedCall/U2NetOneOutput/u2_net/rsu4f/green_49/conv2d_49/Conv2D/BatchToSpaceND/block_shape", "shape": [2], "dtype": "int32"}, {"name": "StatefulPartitionedCall/U2NetOneOutput/u2_net/rsu4f/green_49/conv2d_49/Conv2D/BatchToSpaceND/crops", "shape": [2, 2], "dtype": "int32"}, {"name": "StatefulPartitionedCall/U2NetOneOutput/u2_net/rsu4f/green_49/conv2d_49/BiasAdd/ReadVariableOp", "shape": [256], "dtype": "float32"}, {"name": "StatefulPartitionedCall/U2NetOneOutput/u2_net/rsu4f/green_46/conv2d_46/Conv2D/SpaceToBatchND/block_shape", "shape": [2], "dtype": "int32"}, {"name": "StatefulPartitionedCall/U2NetOneOutput/u2_net/rsu4f/green_46/conv2d_46/Conv2D/SpaceToBatchND/paddings", "shape": [2, 2], "dtype": "int32"}, {"name": "StatefulPartitionedCall/U2NetOneOutput/u2_net/rsu4f/green_46/conv2d_46/Conv2D/ReadVariableOp", "shape": [3, 3, 256, 256], "dtype": "float32"}, {"name": "StatefulPartitionedCall/U2NetOneOutput/u2_net/rsu4f/green_46/conv2d_46/Conv2D/BatchToSpaceND/block_shape", "shape": [2], "dtype": "int32"}, {"name": "StatefulPartitionedCall/U2NetOneOutput/u2_net/rsu4f/green_46/conv2d_46/Conv2D/BatchToSpaceND/crops", "shape": [2, 2], "dtype": "int32"}, {"name": "StatefulPartitionedCall/U2NetOneOutput/u2_net/rsu4f/green_46/conv2d_46/BiasAdd/ReadVariableOp", "shape": [256], "dtype": "float32"}, {"name": "StatefulPartitionedCall/U2NetOneOutput/u2_net/rsu4f/concatenate_19/concat/axis", "shape": [], "dtype": "int32"}, {"name": "StatefulPartitionedCall/U2NetOneOutput/u2_net/rsu4f/green_50/conv2d_50/Conv2D/SpaceToBatchND/block_shape", "shape": [2], "dtype": "int32"}, {"name": "StatefulPartitionedCall/U2NetOneOutput/u2_net/rsu4f/green_50/conv2d_50/Conv2D/SpaceToBatchND/paddings", "shape": [2, 2], "dtype": "int32"}, {"name": "StatefulPartitionedCall/U2NetOneOutput/u2_net/rsu4f/green_50/conv2d_50/Conv2D/ReadVariableOp", "shape": [3, 3, 512, 256], "dtype": "float32"}, {"name": "StatefulPartitionedCall/U2NetOneOutput/u2_net/rsu4f/green_50/conv2d_50/Conv2D/BatchToSpaceND/block_shape", "shape": [2], "dtype": "int32"}, {"name": "StatefulPartitionedCall/U2NetOneOutput/u2_net/rsu4f/green_50/conv2d_50/Conv2D/BatchToSpaceND/crops", "shape": [2, 2], "dtype": "int32"}, {"name": "StatefulPartitionedCall/U2NetOneOutput/u2_net/rsu4f/green_50/conv2d_50/BiasAdd/ReadVariableOp", "shape": [256], "dtype": "float32"}, {"name": "StatefulPartitionedCall/U2NetOneOutput/u2_net/rsu4/green_40/conv2d_40/Conv2D/SpaceToBatchND/block_shape", "shape": [2], "dtype": "int32"}, {"name": "StatefulPartitionedCall/U2NetOneOutput/u2_net/rsu4/green_40/conv2d_40/Conv2D/SpaceToBatchND/paddings", "shape": [2, 2], "dtype": "int32"}, {"name": "StatefulPartitionedCall/U2NetOneOutput/u2_net/rsu4/green_40/conv2d_40/Conv2D/ReadVariableOp", "shape": [3, 3, 128, 128], "dtype": "float32"}, {"name": "StatefulPartitionedCall/U2NetOneOutput/u2_net/rsu4/green_40/conv2d_40/Conv2D/BatchToSpaceND/block_shape", "shape": [2], "dtype": "int32"}, {"name": "StatefulPartitionedCall/U2NetOneOutput/u2_net/rsu4/green_40/conv2d_40/Conv2D/BatchToSpaceND/crops", "shape": [2, 2], "dtype": "int32"}, {"name": "StatefulPartitionedCall/U2NetOneOutput/u2_net/rsu4/green_40/conv2d_40/BiasAdd/ReadVariableOp", "shape": [128], "dtype": "float32"}, {"name": "StatefulPartitionedCall/U2NetOneOutput/u2_net/rsu4/concatenate_15/concat/axis", "shape": [], "dtype": "int32"}, {"name": "StatefulPartitionedCall/U2NetOneOutput/u2_net/rsu4/pink_12/up_sampling2d_12/mul", "shape": [2], "dtype": "int32"}, {"name": "StatefulPartitionedCall/U2NetOneOutput/u2_net/rsu4/pink_12/concatenate_16/concat/axis", "shape": [], "dtype": "int32"}, {"name": "StatefulPartitionedCall/U2NetOneOutput/u2_net/rsu4/pink_13/up_sampling2d_13/mul", "shape": [2], "dtype": "int32"}, {"name": "StatefulPartitionedCall/U2NetOneOutput/u2_net/rsu4/pink_13/concatenate_17/concat/axis", "shape": [], "dtype": "int32"}, {"name": "StatefulPartitionedCall/U2NetOneOutput/u2_net/rsu5/green_31/conv2d_31/Conv2D/SpaceToBatchND/block_shape", "shape": [2], "dtype": "int32"}, {"name": "StatefulPartitionedCall/U2NetOneOutput/u2_net/rsu5/green_31/conv2d_31/Conv2D/SpaceToBatchND/paddings", "shape": [2, 2], "dtype": "int32"}, {"name": "StatefulPartitionedCall/U2NetOneOutput/u2_net/rsu5/green_31/conv2d_31/Conv2D/ReadVariableOp", "shape": [3, 3, 64, 64], "dtype": "float32"}, {"name": "StatefulPartitionedCall/U2NetOneOutput/u2_net/rsu5/green_31/conv2d_31/Conv2D/BatchToSpaceND/block_shape", "shape": [2], "dtype": "int32"}, {"name": "StatefulPartitionedCall/U2NetOneOutput/u2_net/rsu5/green_31/conv2d_31/Conv2D/BatchToSpaceND/crops", "shape": [2, 2], "dtype": "int32"}, {"name": "StatefulPartitionedCall/U2NetOneOutput/u2_net/rsu5/green_31/conv2d_31/BiasAdd/ReadVariableOp", "shape": [64], "dtype": "float32"}, {"name": "StatefulPartitionedCall/U2NetOneOutput/u2_net/rsu5/concatenate_11/concat/axis", "shape": [], "dtype": "int32"}, {"name": "StatefulPartitionedCall/U2NetOneOutput/u2_net/rsu5/pink_9/up_sampling2d_9/mul", "shape": [2], "dtype": "int32"}, {"name": "StatefulPartitionedCall/U2NetOneOutput/u2_net/rsu5/pink_9/concatenate_12/concat/axis", "shape": [], "dtype": "int32"}, {"name": "StatefulPartitionedCall/U2NetOneOutput/u2_net/rsu5/pink_10/up_sampling2d_10/mul", "shape": [2], "dtype": "int32"}, {"name": "StatefulPartitionedCall/U2NetOneOutput/u2_net/rsu5/pink_10/concatenate_13/concat/axis", "shape": [], "dtype": "int32"}, {"name": "StatefulPartitionedCall/U2NetOneOutput/u2_net/rsu5/pink_11/up_sampling2d_11/mul", "shape": [2], "dtype": "int32"}, {"name": "StatefulPartitionedCall/U2NetOneOutput/u2_net/rsu5/pink_11/concatenate_14/concat/axis", "shape": [], "dtype": "int32"}, {"name": "StatefulPartitionedCall/U2NetOneOutput/u2_net/rsu6/green_20/conv2d_20/Conv2D/SpaceToBatchND/block_shape", "shape": [2], "dtype": "int32"}, {"name": "StatefulPartitionedCall/U2NetOneOutput/u2_net/rsu6/green_20/conv2d_20/Conv2D/SpaceToBatchND/paddings", "shape": [2, 2], "dtype": "int32"}, {"name": "StatefulPartitionedCall/U2NetOneOutput/u2_net/rsu6/green_20/conv2d_20/Conv2D/ReadVariableOp", "shape": [3, 3, 32, 32], "dtype": "float32"}, {"name": "StatefulPartitionedCall/U2NetOneOutput/u2_net/rsu6/green_20/conv2d_20/Conv2D/BatchToSpaceND/block_shape", "shape": [2], "dtype": "int32"}, {"name": "StatefulPartitionedCall/U2NetOneOutput/u2_net/rsu6/green_20/conv2d_20/Conv2D/BatchToSpaceND/crops", "shape": [2, 2], "dtype": "int32"}, {"name": "StatefulPartitionedCall/U2NetOneOutput/u2_net/rsu6/green_20/conv2d_20/BiasAdd/ReadVariableOp", "shape": [32], "dtype": "float32"}, {"name": "StatefulPartitionedCall/U2NetOneOutput/u2_net/rsu6/concatenate_6/concat/axis", "shape": [], "dtype": "int32"}, {"name": "StatefulPartitionedCall/U2NetOneOutput/u2_net/rsu6/pink_5/up_sampling2d_5/mul", "shape": [2], "dtype": "int32"}, {"name": "StatefulPartitionedCall/U2NetOneOutput/u2_net/rsu6/pink_5/concatenate_7/concat/axis", "shape": [], "dtype": "int32"}, {"name": "StatefulPartitionedCall/U2NetOneOutput/u2_net/rsu6/pink_6/up_sampling2d_6/mul", "shape": [2], "dtype": "int32"}, {"name": "StatefulPartitionedCall/U2NetOneOutput/u2_net/rsu6/pink_6/concatenate_8/concat/axis", "shape": [], "dtype": "int32"}, {"name": "StatefulPartitionedCall/U2NetOneOutput/u2_net/rsu6/pink_7/up_sampling2d_7/mul", "shape": [2], "dtype": "int32"}, {"name": "StatefulPartitionedCall/U2NetOneOutput/u2_net/rsu6/pink_7/concatenate_9/concat/axis", "shape": [], "dtype": "int32"}, {"name": "StatefulPartitionedCall/U2NetOneOutput/u2_net/rsu6/pink_8/up_sampling2d_8/mul", "shape": [2], "dtype": "int32"}, {"name": "StatefulPartitionedCall/U2NetOneOutput/u2_net/rsu6/pink_8/concatenate_10/concat/axis", "shape": [], "dtype": "int32"}, {"name": "StatefulPartitionedCall/U2NetOneOutput/u2_net/rsu7/green_7/conv2d_7/Conv2D/SpaceToBatchND/block_shape", "shape": [2], "dtype": "int32"}, {"name": "StatefulPartitionedCall/U2NetOneOutput/u2_net/rsu7/green_7/conv2d_7/Conv2D/SpaceToBatchND/paddings", "shape": [2, 2], "dtype": "int32"}, {"name": "StatefulPartitionedCall/U2NetOneOutput/u2_net/rsu7/green_7/conv2d_7/Conv2D/ReadVariableOp", "shape": [3, 3, 32, 32], "dtype": "float32"}, {"name": "StatefulPartitionedCall/U2NetOneOutput/u2_net/rsu7/green_7/conv2d_7/Conv2D/BatchToSpaceND/block_shape", "shape": [2], "dtype": "int32"}, {"name": "StatefulPartitionedCall/U2NetOneOutput/u2_net/rsu7/green_7/conv2d_7/Conv2D/BatchToSpaceND/crops", "shape": [2, 2], "dtype": "int32"}, {"name": "StatefulPartitionedCall/U2NetOneOutput/u2_net/rsu7/green_7/conv2d_7/BiasAdd/ReadVariableOp", "shape": [32], "dtype": "float32"}, {"name": "StatefulPartitionedCall/U2NetOneOutput/u2_net/rsu7/concatenate/concat/axis", "shape": [], "dtype": "int32"}, {"name": "StatefulPartitionedCall/U2NetOneOutput/u2_net/rsu7/pink/up_sampling2d/mul", "shape": [2], "dtype": "int32"}, {"name": "StatefulPartitionedCall/U2NetOneOutput/u2_net/rsu7/pink/concatenate_1/concat/axis", "shape": [], "dtype": "int32"}, {"name": "StatefulPartitionedCall/U2NetOneOutput/u2_net/rsu7/pink_1/up_sampling2d_1/mul", "shape": [2], "dtype": "int32"}, {"name": "StatefulPartitionedCall/U2NetOneOutput/u2_net/rsu7/pink_1/concatenate_2/concat/axis", "shape": [], "dtype": "int32"}, {"name": "StatefulPartitionedCall/U2NetOneOutput/u2_net/rsu7/pink_2/up_sampling2d_2/mul", "shape": [2], "dtype": "int32"}, {"name": "StatefulPartitionedCall/U2NetOneOutput/u2_net/rsu7/pink_2/concatenate_3/concat/axis", "shape": [], "dtype": "int32"}, {"name": "StatefulPartitionedCall/U2NetOneOutput/u2_net/rsu7/pink_3/up_sampling2d_3/mul", "shape": [2], "dtype": "int32"}, {"name": "StatefulPartitionedCall/U2NetOneOutput/u2_net/rsu7/pink_3/concatenate_4/concat/axis", "shape": [], "dtype": "int32"}, {"name": "StatefulPartitionedCall/U2NetOneOutput/u2_net/rsu7/pink_4/up_sampling2d_4/mul", "shape": [2], "dtype": "int32"}, {"name": "StatefulPartitionedCall/U2NetOneOutput/u2_net/rsu7/pink_4/concatenate_5/concat/axis", "shape": [], "dtype": "int32"}, {"name": "StatefulPartitionedCall/U2NetOneOutput/u2_net/rsu4f/concatenate_20/concat/axis", "shape": [], "dtype": "int32"}, {"name": "StatefulPartitionedCall/U2NetOneOutput/u2_net/rsu4f_1/concatenate_23/concat/axis", "shape": [], "dtype": "int32"}, {"name": "StatefulPartitionedCall/U2NetOneOutput/u2_net/conv2d_118/Conv2D/ReadVariableOp", "shape": [3, 3, 512, 1], "dtype": "float32"}, {"name": "StatefulPartitionedCall/U2NetOneOutput/u2_net/conv2d_118/BiasAdd/ReadVariableOp", "shape": [1], "dtype": "float32"}, {"name": "StatefulPartitionedCall/U2NetOneOutput/u2_net/up_sampling2d_9/mul", "shape": [2], "dtype": "int32"}, {"name": "StatefulPartitionedCall/U2NetOneOutput/u2_net/concatenate_50/concat/axis", "shape": [], "dtype": "int32"}, {"name": "StatefulPartitionedCall/U2NetOneOutput/u2_net/conv2d_112/Conv2D/ReadVariableOp", "shape": [3, 3, 6, 1], "dtype": "float32"}, {"name": "StatefulPartitionedCall/U2NetOneOutput/u2_net/conv2d_112/BiasAdd/ReadVariableOp", "shape": [1], "dtype": "float32"}, {"name": "StatefulPartitionedCall/U2NetOneOutput/u2_net/rsu7/green/conv2d/Conv2D_weights", "shape": [3, 3, 3, 64], "dtype": "float32"}, {"name": "StatefulPartitionedCall/U2NetOneOutput/u2_net/rsu7/green/conv2d/Conv2D_bn_offset", "shape": [64], "dtype": "float32"}, {"name": "StatefulPartitionedCall/U2NetOneOutput/u2_net/rsu7/green_1/conv2d_1/Conv2D_weights", "shape": [3, 3, 64, 32], "dtype": "float32"}, {"name": "StatefulPartitionedCall/U2NetOneOutput/u2_net/rsu7/green_1/conv2d_1/Conv2D_bn_offset", "shape": [32], "dtype": "float32"}, {"name": "StatefulPartitionedCall/U2NetOneOutput/u2_net/rsu7/blue/green_2/conv2d_2/Conv2D_weights", "shape": [3, 3, 32, 32], "dtype": "float32"}, {"name": "StatefulPartitionedCall/U2NetOneOutput/u2_net/rsu7_1/pink_26/green_110/conv2d_110/Conv2D_weights", "shape": [3, 3, 32, 16], "dtype": "float32"}, {"name": "StatefulPartitionedCall/U2NetOneOutput/u2_net/rsu7/blue/green_2/conv2d_2/Conv2D_bn_offset", "shape": [32], "dtype": "float32"}, {"name": "StatefulPartitionedCall/U2NetOneOutput/u2_net/rsu7/blue_1/green_3/conv2d_3/Conv2D_weights", "shape": [3, 3, 32, 32], "dtype": "float32"}, {"name": "StatefulPartitionedCall/U2NetOneOutput/u2_net/rsu7_1/pink_26/green_110/conv2d_110/Conv2D_bn_offset", "shape": [16], "dtype": "float32"}, {"name": "StatefulPartitionedCall/U2NetOneOutput/u2_net/rsu7/blue_1/green_3/conv2d_3/Conv2D_bn_offset", "shape": [32], "dtype": "float32"}, {"name": "StatefulPartitionedCall/U2NetOneOutput/u2_net/rsu7/blue_2/green_4/conv2d_4/Conv2D_weights", "shape": [3, 3, 32, 32], "dtype": "float32"}, {"name": "StatefulPartitionedCall/U2NetOneOutput/u2_net/rsu7/blue_2/green_4/conv2d_4/Conv2D_bn_offset", "shape": [32], "dtype": "float32"}, {"name": "StatefulPartitionedCall/U2NetOneOutput/u2_net/rsu7/blue_3/green_5/conv2d_5/Conv2D_weights", "shape": [3, 3, 32, 32], "dtype": "float32"}, {"name": "StatefulPartitionedCall/U2NetOneOutput/u2_net/rsu7/blue_3/green_5/conv2d_5/Conv2D_bn_offset", "shape": [32], "dtype": "float32"}, {"name": "StatefulPartitionedCall/U2NetOneOutput/u2_net/rsu7_1/pink_27/green_111/conv2d_111/Conv2D_weights", "shape": [3, 3, 32, 64], "dtype": "float32"}, {"name": "StatefulPartitionedCall/U2NetOneOutput/u2_net/rsu7/blue_4/green_6/conv2d_6/Conv2D_weights", "shape": [3, 3, 32, 32], "dtype": "float32"}, {"name": "StatefulPartitionedCall/U2NetOneOutput/u2_net/rsu7/green_7/batch_normalization_7/FusedBatchNormV3/Scaled", "shape": [32], "dtype": "float32"}, {"name": "StatefulPartitionedCall/U2NetOneOutput/u2_net/rsu7/blue_4/green_6/conv2d_6/Conv2D_bn_offset", "shape": [32], "dtype": "float32"}, {"name": "StatefulPartitionedCall/U2NetOneOutput/u2_net/rsu7_1/pink_27/green_111/conv2d_111/Conv2D_bn_offset", "shape": [64], "dtype": "float32"}, {"name": "StatefulPartitionedCall/U2NetOneOutput/u2_net/rsu7/green_8/conv2d_8/Conv2D_weights", "shape": [3, 3, 64, 32], "dtype": "float32"}, {"name": "StatefulPartitionedCall/U2NetOneOutput/u2_net/rsu7/green_8/conv2d_8/Conv2D_bn_offset", "shape": [32], "dtype": "float32"}, {"name": "StatefulPartitionedCall/U2NetOneOutput/u2_net/rsu7/pink/green_9/conv2d_9/Conv2D_weights", "shape": [3, 3, 64, 32], "dtype": "float32"}, {"name": "StatefulPartitionedCall/U2NetOneOutput/u2_net/rsu7/pink/green_9/conv2d_9/Conv2D_bn_offset", "shape": [32], "dtype": "float32"}, {"name": "StatefulPartitionedCall/U2NetOneOutput/u2_net/rsu7/pink_1/green_10/conv2d_10/Conv2D_weights", "shape": [3, 3, 64, 32], "dtype": "float32"}, {"name": "StatefulPartitionedCall/U2NetOneOutput/u2_net/rsu7/pink_1/green_10/conv2d_10/Conv2D_bn_offset", "shape": [32], "dtype": "float32"}, {"name": "StatefulPartitionedCall/U2NetOneOutput/u2_net/rsu7/pink_2/green_11/conv2d_11/Conv2D_weights", "shape": [3, 3, 64, 32], "dtype": "float32"}, {"name": "StatefulPartitionedCall/U2NetOneOutput/u2_net/rsu7/green_7/batch_normalization_7/FusedBatchNormV3/Offset", "shape": [32], "dtype": "float32"}, {"name": "StatefulPartitionedCall/U2NetOneOutput/u2_net/rsu7/pink_2/green_11/conv2d_11/Conv2D_bn_offset", "shape": [32], "dtype": "float32"}, {"name": "StatefulPartitionedCall/U2NetOneOutput/u2_net/rsu7/pink_3/green_12/conv2d_12/Conv2D_weights", "shape": [3, 3, 64, 32], "dtype": "float32"}, {"name": "StatefulPartitionedCall/U2NetOneOutput/u2_net/rsu7/pink_3/green_12/conv2d_12/Conv2D_bn_offset", "shape": [32], "dtype": "float32"}, {"name": "StatefulPartitionedCall/U2NetOneOutput/u2_net/rsu7/pink_4/green_13/conv2d_13/Conv2D_weights", "shape": [3, 3, 64, 64], "dtype": "float32"}, {"name": "StatefulPartitionedCall/U2NetOneOutput/u2_net/rsu7/pink_4/green_13/conv2d_13/Conv2D_bn_offset", "shape": [64], "dtype": "float32"}, {"name": "StatefulPartitionedCall/U2NetOneOutput/u2_net/rsu6/green_14/conv2d_14/Conv2D_weights", "shape": [3, 3, 64, 128], "dtype": "float32"}, {"name": "StatefulPartitionedCall/U2NetOneOutput/u2_net/rsu6/green_14/conv2d_14/Conv2D_bn_offset", "shape": [128], "dtype": "float32"}, {"name": "StatefulPartitionedCall/U2NetOneOutput/u2_net/rsu7_1/green_105/batch_normalization_105/FusedBatchNormV3/Scaled", "shape": [16], "dtype": "float32"}, {"name": "StatefulPartitionedCall/U2NetOneOutput/u2_net/rsu6/green_15/conv2d_15/Conv2D_weights", "shape": [3, 3, 128, 32], "dtype": "float32"}, {"name": "StatefulPartitionedCall/U2NetOneOutput/u2_net/rsu6/green_15/conv2d_15/Conv2D_bn_offset", "shape": [32], "dtype": "float32"}, {"name": "StatefulPartitionedCall/U2NetOneOutput/u2_net/rsu6/blue_5/green_16/conv2d_16/Conv2D_weights", "shape": [3, 3, 32, 32], "dtype": "float32"}, {"name": "StatefulPartitionedCall/U2NetOneOutput/u2_net/rsu7_1/green_105/batch_normalization_105/FusedBatchNormV3/Offset", "shape": [16], "dtype": "float32"}, {"name": "StatefulPartitionedCall/U2NetOneOutput/u2_net/rsu6/blue_5/green_16/conv2d_16/Conv2D_bn_offset", "shape": [32], "dtype": "float32"}, {"name": "StatefulPartitionedCall/U2NetOneOutput/u2_net/rsu6/blue_6/green_17/conv2d_17/Conv2D_weights", "shape": [3, 3, 32, 32], "dtype": "float32"}, {"name": "StatefulPartitionedCall/U2NetOneOutput/u2_net/rsu6/blue_6/green_17/conv2d_17/Conv2D_bn_offset", "shape": [32], "dtype": "float32"}, {"name": "StatefulPartitionedCall/U2NetOneOutput/u2_net/rsu6/blue_7/green_18/conv2d_18/Conv2D_weights", "shape": [3, 3, 32, 32], "dtype": "float32"}, {"name": "StatefulPartitionedCall/U2NetOneOutput/u2_net/rsu6_1/green_92/batch_normalization_92/FusedBatchNormV3/Scaled", "shape": [32], "dtype": "float32"}, {"name": "StatefulPartitionedCall/U2NetOneOutput/u2_net/rsu6/blue_7/green_18/conv2d_18/Conv2D_bn_offset", "shape": [32], "dtype": "float32"}, {"name": "StatefulPartitionedCall/U2NetOneOutput/u2_net/rsu6/blue_8/green_19/conv2d_19/Conv2D_weights", "shape": [3, 3, 32, 32], "dtype": "float32"}, {"name": "StatefulPartitionedCall/U2NetOneOutput/u2_net/rsu6/blue_8/green_19/conv2d_19/Conv2D_bn_offset", "shape": [32], "dtype": "float32"}, {"name": "StatefulPartitionedCall/U2NetOneOutput/u2_net/rsu6_1/green_92/batch_normalization_92/FusedBatchNormV3/Offset", "shape": [32], "dtype": "float32"}, {"name": "StatefulPartitionedCall/U2NetOneOutput/u2_net/rsu6/green_21/conv2d_21/Conv2D_weights", "shape": [3, 3, 64, 32], "dtype": "float32"}, {"name": "StatefulPartitionedCall/U2NetOneOutput/u2_net/rsu6/green_21/conv2d_21/Conv2D_bn_offset", "shape": [32], "dtype": "float32"}, {"name": "StatefulPartitionedCall/U2NetOneOutput/u2_net/rsu6/pink_5/green_22/conv2d_22/Conv2D_weights", "shape": [3, 3, 64, 32], "dtype": "float32"}, {"name": "StatefulPartitionedCall/U2NetOneOutput/u2_net/rsu6/pink_5/green_22/conv2d_22/Conv2D_bn_offset", "shape": [32], "dtype": "float32"}, {"name": "StatefulPartitionedCall/U2NetOneOutput/u2_net/rsu5_1/green_81/batch_normalization_81/FusedBatchNormV3/Scaled", "shape": [64], "dtype": "float32"}, {"name": "StatefulPartitionedCall/U2NetOneOutput/u2_net/rsu6/pink_6/green_23/conv2d_23/Conv2D_weights", "shape": [3, 3, 64, 32], "dtype": "float32"}, {"name": "StatefulPartitionedCall/U2NetOneOutput/u2_net/rsu6/pink_6/green_23/conv2d_23/Conv2D_bn_offset", "shape": [32], "dtype": "float32"}, {"name": "StatefulPartitionedCall/U2NetOneOutput/u2_net/rsu6/pink_7/green_24/conv2d_24/Conv2D_weights", "shape": [3, 3, 64, 32], "dtype": "float32"}, {"name": "StatefulPartitionedCall/U2NetOneOutput/u2_net/rsu5_1/green_81/batch_normalization_81/FusedBatchNormV3/Offset", "shape": [64], "dtype": "float32"}, {"name": "StatefulPartitionedCall/U2NetOneOutput/u2_net/rsu6/pink_7/green_24/conv2d_24/Conv2D_bn_offset", "shape": [32], "dtype": "float32"}, {"name": "StatefulPartitionedCall/U2NetOneOutput/u2_net/rsu6/pink_8/green_25/conv2d_25/Conv2D_weights", "shape": [3, 3, 64, 128], "dtype": "float32"}, {"name": "StatefulPartitionedCall/U2NetOneOutput/u2_net/rsu6/pink_8/green_25/conv2d_25/Conv2D_bn_offset", "shape": [128], "dtype": "float32"}, {"name": "StatefulPartitionedCall/U2NetOneOutput/u2_net/rsu5/green_26/conv2d_26/Conv2D_weights", "shape": [3, 3, 128, 256], "dtype": "float32"}, {"name": "StatefulPartitionedCall/U2NetOneOutput/u2_net/rsu4_1/green_72/batch_normalization_72/FusedBatchNormV3/Scaled", "shape": [128], "dtype": "float32"}, {"name": "StatefulPartitionedCall/U2NetOneOutput/u2_net/rsu5/green_26/conv2d_26/Conv2D_bn_offset", "shape": [256], "dtype": "float32"}, {"name": "StatefulPartitionedCall/U2NetOneOutput/u2_net/rsu5/green_27/conv2d_27/Conv2D_weights", "shape": [3, 3, 256, 64], "dtype": "float32"}, {"name": "StatefulPartitionedCall/U2NetOneOutput/u2_net/rsu5/green_27/conv2d_27/Conv2D_bn_offset", "shape": [64], "dtype": "float32"}, {"name": "StatefulPartitionedCall/U2NetOneOutput/u2_net/rsu4_1/green_72/batch_normalization_72/FusedBatchNormV3/Offset", "shape": [128], "dtype": "float32"}, {"name": "StatefulPartitionedCall/U2NetOneOutput/u2_net/rsu5/blue_9/green_28/conv2d_28/Conv2D_weights", "shape": [3, 3, 64, 64], "dtype": "float32"}, {"name": "StatefulPartitionedCall/U2NetOneOutput/u2_net/rsu5/blue_9/green_28/conv2d_28/Conv2D_bn_offset", "shape": [64], "dtype": "float32"}, {"name": "StatefulPartitionedCall/U2NetOneOutput/u2_net/rsu5/blue_10/green_29/conv2d_29/Conv2D_weights", "shape": [3, 3, 64, 64], "dtype": "float32"}, {"name": "StatefulPartitionedCall/U2NetOneOutput/u2_net/rsu5/blue_10/green_29/conv2d_29/Conv2D_bn_offset", "shape": [64], "dtype": "float32"}, {"name": "StatefulPartitionedCall/U2NetOneOutput/u2_net/rsu4f_2/green_66/batch_normalization_66/FusedBatchNormV3/Scaled", "shape": [256], "dtype": "float32"}, {"name": "StatefulPartitionedCall/U2NetOneOutput/u2_net/rsu5/blue_11/green_30/conv2d_30/Conv2D_weights", "shape": [3, 3, 64, 64], "dtype": "float32"}, {"name": "StatefulPartitionedCall/U2NetOneOutput/u2_net/rsu5/blue_11/green_30/conv2d_30/Conv2D_bn_offset", "shape": [64], "dtype": "float32"}, {"name": "StatefulPartitionedCall/U2NetOneOutput/u2_net/rsu5/green_32/conv2d_32/Conv2D_weights", "shape": [3, 3, 128, 64], "dtype": "float32"}, {"name": "StatefulPartitionedCall/U2NetOneOutput/u2_net/rsu4f_2/green_66/batch_normalization_66/FusedBatchNormV3/Offset", "shape": [256], "dtype": "float32"}, {"name": "StatefulPartitionedCall/U2NetOneOutput/u2_net/rsu5/green_32/conv2d_32/Conv2D_bn_offset", "shape": [64], "dtype": "float32"}, {"name": "StatefulPartitionedCall/U2NetOneOutput/u2_net/rsu5/pink_9/green_33/conv2d_33/Conv2D_weights", "shape": [3, 3, 128, 64], "dtype": "float32"}, {"name": "StatefulPartitionedCall/U2NetOneOutput/u2_net/rsu5/pink_9/green_33/conv2d_33/Conv2D_bn_offset", "shape": [64], "dtype": "float32"}, {"name": "StatefulPartitionedCall/U2NetOneOutput/u2_net/rsu5/pink_10/green_34/conv2d_34/Conv2D_weights", "shape": [3, 3, 128, 64], "dtype": "float32"}, {"name": "StatefulPartitionedCall/U2NetOneOutput/u2_net/rsu4f_2/green_65/batch_normalization_65/FusedBatchNormV3/Scaled", "shape": [256], "dtype": "float32"}, {"name": "StatefulPartitionedCall/U2NetOneOutput/u2_net/rsu5/pink_10/green_34/conv2d_34/Conv2D_bn_offset", "shape": [64], "dtype": "float32"}, {"name": "StatefulPartitionedCall/U2NetOneOutput/u2_net/rsu5/pink_11/green_35/conv2d_35/Conv2D_weights", "shape": [3, 3, 128, 256], "dtype": "float32"}, {"name": "StatefulPartitionedCall/U2NetOneOutput/u2_net/rsu5/pink_11/green_35/conv2d_35/Conv2D_bn_offset", "shape": [256], "dtype": "float32"}, {"name": "StatefulPartitionedCall/U2NetOneOutput/u2_net/rsu4f_2/green_65/batch_normalization_65/FusedBatchNormV3/Offset", "shape": [256], "dtype": "float32"}, {"name": "StatefulPartitionedCall/U2NetOneOutput/u2_net/rsu4/green_36/conv2d_36/Conv2D_weights", "shape": [3, 3, 256, 512], "dtype": "float32"}, {"name": "StatefulPartitionedCall/U2NetOneOutput/u2_net/rsu4/green_36/conv2d_36/Conv2D_bn_offset", "shape": [512], "dtype": "float32"}, {"name": "StatefulPartitionedCall/U2NetOneOutput/u2_net/rsu4/green_37/conv2d_37/Conv2D_weights", "shape": [3, 3, 512, 128], "dtype": "float32"}, {"name": "StatefulPartitionedCall/U2NetOneOutput/u2_net/rsu4/green_37/conv2d_37/Conv2D_bn_offset", "shape": [128], "dtype": "float32"}, {"name": "StatefulPartitionedCall/U2NetOneOutput/u2_net/rsu4f_2/green_64/batch_normalization_64/FusedBatchNormV3/Scaled", "shape": [256], "dtype": "float32"}, {"name": "StatefulPartitionedCall/U2NetOneOutput/u2_net/rsu4/blue_12/green_38/conv2d_38/Conv2D_weights", "shape": [3, 3, 128, 128], "dtype": "float32"}, {"name": "StatefulPartitionedCall/U2NetOneOutput/u2_net/rsu4/blue_12/green_38/conv2d_38/Conv2D_bn_offset", "shape": [128], "dtype": "float32"}, {"name": "StatefulPartitionedCall/U2NetOneOutput/u2_net/rsu4/blue_13/green_39/conv2d_39/Conv2D_weights", "shape": [3, 3, 128, 128], "dtype": "float32"}, {"name": "StatefulPartitionedCall/U2NetOneOutput/u2_net/rsu4f_2/green_64/batch_normalization_64/FusedBatchNormV3/Offset", "shape": [256], "dtype": "float32"}, {"name": "StatefulPartitionedCall/U2NetOneOutput/u2_net/rsu4/blue_13/green_39/conv2d_39/Conv2D_bn_offset", "shape": [128], "dtype": "float32"}, {"name": "StatefulPartitionedCall/U2NetOneOutput/u2_net/rsu4/green_41/conv2d_41/Conv2D_weights", "shape": [3, 3, 256, 128], "dtype": "float32"}, {"name": "StatefulPartitionedCall/U2NetOneOutput/u2_net/rsu4/green_41/conv2d_41/Conv2D_bn_offset", "shape": [128], "dtype": "float32"}, {"name": "StatefulPartitionedCall/U2NetOneOutput/u2_net/rsu4/pink_12/green_42/conv2d_42/Conv2D_weights", "shape": [3, 3, 256, 128], "dtype": "float32"}, {"name": "StatefulPartitionedCall/U2NetOneOutput/u2_net/rsu4f_2/green_63/batch_normalization_63/FusedBatchNormV3/Scaled", "shape": [256], "dtype": "float32"}, {"name": "StatefulPartitionedCall/U2NetOneOutput/u2_net/rsu4/pink_12/green_42/conv2d_42/Conv2D_bn_offset", "shape": [128], "dtype": "float32"}, {"name": "StatefulPartitionedCall/U2NetOneOutput/u2_net/rsu4/pink_13/green_43/conv2d_43/Conv2D_weights", "shape": [3, 3, 256, 512], "dtype": "float32"}, {"name": "StatefulPartitionedCall/U2NetOneOutput/u2_net/rsu4/pink_13/green_43/conv2d_43/Conv2D_bn_offset", "shape": [512], "dtype": "float32"}, {"name": "StatefulPartitionedCall/U2NetOneOutput/u2_net/rsu4f_2/green_63/batch_normalization_63/FusedBatchNormV3/Offset", "shape": [256], "dtype": "float32"}, {"name": "StatefulPartitionedCall/U2NetOneOutput/u2_net/rsu4f/green_44/conv2d_44/Conv2D_weights", "shape": [3, 3, 512, 512], "dtype": "float32"}, {"name": "StatefulPartitionedCall/U2NetOneOutput/u2_net/rsu4f/green_44/conv2d_44/Conv2D_bn_offset", "shape": [512], "dtype": "float32"}, {"name": "StatefulPartitionedCall/U2NetOneOutput/u2_net/rsu4f/green_45/conv2d_45/Conv2D_weights", "shape": [3, 3, 512, 256], "dtype": "float32"}, {"name": "StatefulPartitionedCall/U2NetOneOutput/u2_net/rsu4f/green_45/conv2d_45/Conv2D_bn_offset", "shape": [256], "dtype": "float32"}, {"name": "StatefulPartitionedCall/U2NetOneOutput/u2_net/rsu4f_2/green_62/batch_normalization_62/FusedBatchNormV3/Scaled", "shape": [256], "dtype": "float32"}, {"name": "StatefulPartitionedCall/U2NetOneOutput/u2_net/rsu4f/green_51/conv2d_51/Conv2D_weights", "shape": [3, 3, 512, 512], "dtype": "float32"}, {"name": "StatefulPartitionedCall/U2NetOneOutput/u2_net/rsu4f/green_51/conv2d_51/Conv2D_bn_offset", "shape": [512], "dtype": "float32"}, {"name": "StatefulPartitionedCall/U2NetOneOutput/u2_net/rsu4f_1/green_52/conv2d_52/Conv2D_weights", "shape": [3, 3, 512, 512], "dtype": "float32"}, {"name": "StatefulPartitionedCall/U2NetOneOutput/u2_net/rsu4f_2/green_62/batch_normalization_62/FusedBatchNormV3/Offset", "shape": [256], "dtype": "float32"}, {"name": "StatefulPartitionedCall/U2NetOneOutput/u2_net/rsu4f_1/green_52/conv2d_52/Conv2D_bn_offset", "shape": [512], "dtype": "float32"}, {"name": "StatefulPartitionedCall/U2NetOneOutput/u2_net/rsu4f_1/green_53/conv2d_53/Conv2D_weights", "shape": [3, 3, 512, 256], "dtype": "float32"}, {"name": "StatefulPartitionedCall/U2NetOneOutput/u2_net/rsu4f_1/green_53/conv2d_53/Conv2D_bn_offset", "shape": [256], "dtype": "float32"}, {"name": "StatefulPartitionedCall/U2NetOneOutput/u2_net/rsu4f_1/green_59/conv2d_59/Conv2D_weights", "shape": [3, 3, 512, 512], "dtype": "float32"}, {"name": "StatefulPartitionedCall/U2NetOneOutput/u2_net/rsu4f_1/green_58/batch_normalization_58/FusedBatchNormV3/Scaled", "shape": [256], "dtype": "float32"}, {"name": "StatefulPartitionedCall/U2NetOneOutput/u2_net/rsu4f_1/green_59/conv2d_59/Conv2D_bn_offset", "shape": [512], "dtype": "float32"}, {"name": "StatefulPartitionedCall/U2NetOneOutput/u2_net/rsu4f_2/green_60/conv2d_60/Conv2D_weights", "shape": [3, 3, 1024, 512], "dtype": "float32"}, {"name": "StatefulPartitionedCall/U2NetOneOutput/u2_net/rsu4f_1/green_58/batch_normalization_58/FusedBatchNormV3/Offset", "shape": [256], "dtype": "float32"}, {"name": "StatefulPartitionedCall/U2NetOneOutput/u2_net/rsu4f_2/green_60/conv2d_60/Conv2D_bn_offset", "shape": [512], "dtype": "float32"}, {"name": "StatefulPartitionedCall/U2NetOneOutput/u2_net/rsu4f_2/green_61/conv2d_61/Conv2D_weights", "shape": [3, 3, 512, 256], "dtype": "float32"}, {"name": "StatefulPartitionedCall/U2NetOneOutput/u2_net/rsu4f_2/green_61/conv2d_61/Conv2D_bn_offset", "shape": [256], "dtype": "float32"}, {"name": "StatefulPartitionedCall/U2NetOneOutput/u2_net/rsu4f_2/green_67/conv2d_67/Conv2D_weights", "shape": [3, 3, 512, 512], "dtype": "float32"}, {"name": "StatefulPartitionedCall/U2NetOneOutput/u2_net/rsu4f_1/green_57/batch_normalization_57/FusedBatchNormV3/Scaled", "shape": [256], "dtype": "float32"}, {"name": "StatefulPartitionedCall/U2NetOneOutput/u2_net/rsu4f_2/green_67/conv2d_67/Conv2D_bn_offset", "shape": [512], "dtype": "float32"}, {"name": "StatefulPartitionedCall/U2NetOneOutput/u2_net/rsu4_1/green_68/conv2d_68/Conv2D_weights", "shape": [3, 3, 1024, 256], "dtype": "float32"}, {"name": "StatefulPartitionedCall/U2NetOneOutput/u2_net/rsu4f_1/green_57/batch_normalization_57/FusedBatchNormV3/Offset", "shape": [256], "dtype": "float32"}, {"name": "StatefulPartitionedCall/U2NetOneOutput/u2_net/rsu4_1/green_68/conv2d_68/Conv2D_bn_offset", "shape": [256], "dtype": "float32"}, {"name": "StatefulPartitionedCall/U2NetOneOutput/u2_net/rsu4_1/green_69/conv2d_69/Conv2D_weights", "shape": [3, 3, 256, 128], "dtype": "float32"}, {"name": "StatefulPartitionedCall/U2NetOneOutput/u2_net/rsu4_1/green_69/conv2d_69/Conv2D_bn_offset", "shape": [128], "dtype": "float32"}, {"name": "StatefulPartitionedCall/U2NetOneOutput/u2_net/rsu4_1/blue_14/green_70/conv2d_70/Conv2D_weights", "shape": [3, 3, 128, 128], "dtype": "float32"}, {"name": "StatefulPartitionedCall/U2NetOneOutput/u2_net/rsu4f_1/green_56/batch_normalization_56/FusedBatchNormV3/Scaled", "shape": [256], "dtype": "float32"}, {"name": "StatefulPartitionedCall/U2NetOneOutput/u2_net/rsu4_1/blue_14/green_70/conv2d_70/Conv2D_bn_offset", "shape": [128], "dtype": "float32"}, {"name": "StatefulPartitionedCall/U2NetOneOutput/u2_net/rsu4_1/blue_15/green_71/conv2d_71/Conv2D_weights", "shape": [3, 3, 128, 128], "dtype": "float32"}, {"name": "StatefulPartitionedCall/U2NetOneOutput/u2_net/rsu4_1/blue_15/green_71/conv2d_71/Conv2D_bn_offset", "shape": [128], "dtype": "float32"}, {"name": "StatefulPartitionedCall/U2NetOneOutput/u2_net/rsu4f_1/green_56/batch_normalization_56/FusedBatchNormV3/Offset", "shape": [256], "dtype": "float32"}, {"name": "StatefulPartitionedCall/U2NetOneOutput/u2_net/rsu4_1/green_73/conv2d_73/Conv2D_weights", "shape": [3, 3, 256, 128], "dtype": "float32"}, {"name": "StatefulPartitionedCall/U2NetOneOutput/u2_net/rsu4_1/green_73/conv2d_73/Conv2D_bn_offset", "shape": [128], "dtype": "float32"}, {"name": "StatefulPartitionedCall/U2NetOneOutput/u2_net/rsu4_1/pink_14/green_74/conv2d_74/Conv2D_weights", "shape": [3, 3, 256, 128], "dtype": "float32"}, {"name": "StatefulPartitionedCall/U2NetOneOutput/u2_net/rsu4_1/pink_14/green_74/conv2d_74/Conv2D_bn_offset", "shape": [128], "dtype": "float32"}, {"name": "StatefulPartitionedCall/U2NetOneOutput/u2_net/rsu4f_1/green_55/batch_normalization_55/FusedBatchNormV3/Scaled", "shape": [256], "dtype": "float32"}, {"name": "StatefulPartitionedCall/U2NetOneOutput/u2_net/rsu4_1/pink_15/green_75/conv2d_75/Conv2D_weights", "shape": [3, 3, 256, 256], "dtype": "float32"}, {"name": "StatefulPartitionedCall/U2NetOneOutput/u2_net/rsu4_1/pink_15/green_75/conv2d_75/Conv2D_bn_offset", "shape": [256], "dtype": "float32"}, {"name": "StatefulPartitionedCall/U2NetOneOutput/u2_net/rsu4f_1/green_55/batch_normalization_55/FusedBatchNormV3/Offset", "shape": [256], "dtype": "float32"}, {"name": "StatefulPartitionedCall/U2NetOneOutput/u2_net/rsu5_1/green_76/conv2d_76/Conv2D_weights", "shape": [3, 3, 512, 128], "dtype": "float32"}, {"name": "StatefulPartitionedCall/U2NetOneOutput/u2_net/rsu5_1/green_76/conv2d_76/Conv2D_bn_offset", "shape": [128], "dtype": "float32"}, {"name": "StatefulPartitionedCall/U2NetOneOutput/u2_net/rsu5_1/green_77/conv2d_77/Conv2D_weights", "shape": [3, 3, 128, 64], "dtype": "float32"}, {"name": "StatefulPartitionedCall/U2NetOneOutput/u2_net/rsu5_1/green_77/conv2d_77/Conv2D_bn_offset", "shape": [64], "dtype": "float32"}, {"name": "StatefulPartitionedCall/U2NetOneOutput/u2_net/rsu4f_1/green_54/batch_normalization_54/FusedBatchNormV3/Scaled", "shape": [256], "dtype": "float32"}, {"name": "StatefulPartitionedCall/U2NetOneOutput/u2_net/rsu5_1/blue_16/green_78/conv2d_78/Conv2D_weights", "shape": [3, 3, 64, 64], "dtype": "float32"}, {"name": "StatefulPartitionedCall/U2NetOneOutput/u2_net/rsu5_1/blue_16/green_78/conv2d_78/Conv2D_bn_offset", "shape": [64], "dtype": "float32"}, {"name": "StatefulPartitionedCall/U2NetOneOutput/u2_net/rsu5_1/blue_17/green_79/conv2d_79/Conv2D_weights", "shape": [3, 3, 64, 64], "dtype": "float32"}, {"name": "StatefulPartitionedCall/U2NetOneOutput/u2_net/rsu4f_1/green_54/batch_normalization_54/FusedBatchNormV3/Offset", "shape": [256], "dtype": "float32"}, {"name": "StatefulPartitionedCall/U2NetOneOutput/u2_net/rsu5_1/blue_17/green_79/conv2d_79/Conv2D_bn_offset", "shape": [64], "dtype": "float32"}, {"name": "StatefulPartitionedCall/U2NetOneOutput/u2_net/rsu5_1/blue_18/green_80/conv2d_80/Conv2D_weights", "shape": [3, 3, 64, 64], "dtype": "float32"}, {"name": "StatefulPartitionedCall/U2NetOneOutput/u2_net/rsu5_1/blue_18/green_80/conv2d_80/Conv2D_bn_offset", "shape": [64], "dtype": "float32"}, {"name": "StatefulPartitionedCall/U2NetOneOutput/u2_net/rsu5_1/green_82/conv2d_82/Conv2D_weights", "shape": [3, 3, 128, 64], "dtype": "float32"}, {"name": "StatefulPartitionedCall/U2NetOneOutput/u2_net/rsu4f/green_50/batch_normalization_50/FusedBatchNormV3/Scaled", "shape": [256], "dtype": "float32"}, {"name": "StatefulPartitionedCall/U2NetOneOutput/u2_net/rsu5_1/green_82/conv2d_82/Conv2D_bn_offset", "shape": [64], "dtype": "float32"}, {"name": "StatefulPartitionedCall/U2NetOneOutput/u2_net/rsu5_1/pink_16/green_83/conv2d_83/Conv2D_weights", "shape": [3, 3, 128, 64], "dtype": "float32"}, {"name": "StatefulPartitionedCall/U2NetOneOutput/u2_net/rsu5_1/pink_16/green_83/conv2d_83/Conv2D_bn_offset", "shape": [64], "dtype": "float32"}, {"name": "StatefulPartitionedCall/U2NetOneOutput/u2_net/rsu4f/green_50/batch_normalization_50/FusedBatchNormV3/Offset", "shape": [256], "dtype": "float32"}, {"name": "StatefulPartitionedCall/U2NetOneOutput/u2_net/rsu5_1/pink_17/green_84/conv2d_84/Conv2D_weights", "shape": [3, 3, 128, 64], "dtype": "float32"}, {"name": "StatefulPartitionedCall/U2NetOneOutput/u2_net/rsu5_1/pink_17/green_84/conv2d_84/Conv2D_bn_offset", "shape": [64], "dtype": "float32"}, {"name": "StatefulPartitionedCall/U2NetOneOutput/u2_net/rsu5_1/pink_18/green_85/conv2d_85/Conv2D_weights", "shape": [3, 3, 128, 128], "dtype": "float32"}, {"name": "StatefulPartitionedCall/U2NetOneOutput/u2_net/rsu5_1/pink_18/green_85/conv2d_85/Conv2D_bn_offset", "shape": [128], "dtype": "float32"}, {"name": "StatefulPartitionedCall/U2NetOneOutput/u2_net/rsu4f/green_49/batch_normalization_49/FusedBatchNormV3/Scaled", "shape": [256], "dtype": "float32"}, {"name": "StatefulPartitionedCall/U2NetOneOutput/u2_net/rsu6_1/green_86/conv2d_86/Conv2D_weights", "shape": [3, 3, 256, 64], "dtype": "float32"}, {"name": "StatefulPartitionedCall/U2NetOneOutput/u2_net/rsu6_1/green_86/conv2d_86/Conv2D_bn_offset", "shape": [64], "dtype": "float32"}, {"name": "StatefulPartitionedCall/U2NetOneOutput/u2_net/rsu4f/green_49/batch_normalization_49/FusedBatchNormV3/Offset", "shape": [256], "dtype": "float32"}, {"name": "StatefulPartitionedCall/U2NetOneOutput/u2_net/rsu6_1/green_87/conv2d_87/Conv2D_weights", "shape": [3, 3, 64, 32], "dtype": "float32"}, {"name": "StatefulPartitionedCall/U2NetOneOutput/u2_net/rsu6_1/green_87/conv2d_87/Conv2D_bn_offset", "shape": [32], "dtype": "float32"}, {"name": "StatefulPartitionedCall/U2NetOneOutput/u2_net/rsu6_1/blue_19/green_88/conv2d_88/Conv2D_weights", "shape": [3, 3, 32, 32], "dtype": "float32"}, {"name": "StatefulPartitionedCall/U2NetOneOutput/u2_net/rsu6_1/blue_19/green_88/conv2d_88/Conv2D_bn_offset", "shape": [32], "dtype": "float32"}, {"name": "StatefulPartitionedCall/U2NetOneOutput/u2_net/rsu4f/green_48/batch_normalization_48/FusedBatchNormV3/Scaled", "shape": [256], "dtype": "float32"}, {"name": "StatefulPartitionedCall/U2NetOneOutput/u2_net/rsu6_1/blue_20/green_89/conv2d_89/Conv2D_weights", "shape": [3, 3, 32, 32], "dtype": "float32"}, {"name": "StatefulPartitionedCall/U2NetOneOutput/u2_net/rsu6_1/blue_20/green_89/conv2d_89/Conv2D_bn_offset", "shape": [32], "dtype": "float32"}, {"name": "StatefulPartitionedCall/U2NetOneOutput/u2_net/rsu6_1/blue_21/green_90/conv2d_90/Conv2D_weights", "shape": [3, 3, 32, 32], "dtype": "float32"}, {"name": "StatefulPartitionedCall/U2NetOneOutput/u2_net/rsu4f/green_48/batch_normalization_48/FusedBatchNormV3/Offset", "shape": [256], "dtype": "float32"}, {"name": "StatefulPartitionedCall/U2NetOneOutput/u2_net/rsu6_1/blue_21/green_90/conv2d_90/Conv2D_bn_offset", "shape": [32], "dtype": "float32"}, {"name": "StatefulPartitionedCall/U2NetOneOutput/u2_net/rsu6_1/blue_22/green_91/conv2d_91/Conv2D_weights", "shape": [3, 3, 32, 32], "dtype": "float32"}, {"name": "StatefulPartitionedCall/U2NetOneOutput/u2_net/rsu6_1/blue_22/green_91/conv2d_91/Conv2D_bn_offset", "shape": [32], "dtype": "float32"}, {"name": "StatefulPartitionedCall/U2NetOneOutput/u2_net/rsu6_1/green_93/conv2d_93/Conv2D_weights", "shape": [3, 3, 64, 32], "dtype": "float32"}, {"name": "StatefulPartitionedCall/U2NetOneOutput/u2_net/rsu4f/green_47/batch_normalization_47/FusedBatchNormV3/Scaled", "shape": [256], "dtype": "float32"}, {"name": "StatefulPartitionedCall/U2NetOneOutput/u2_net/rsu6_1/green_93/conv2d_93/Conv2D_bn_offset", "shape": [32], "dtype": "float32"}, {"name": "StatefulPartitionedCall/U2NetOneOutput/u2_net/rsu6_1/pink_19/green_94/conv2d_94/Conv2D_weights", "shape": [3, 3, 64, 32], "dtype": "float32"}, {"name": "StatefulPartitionedCall/U2NetOneOutput/u2_net/rsu6_1/pink_19/green_94/conv2d_94/Conv2D_bn_offset", "shape": [32], "dtype": "float32"}, {"name": "StatefulPartitionedCall/U2NetOneOutput/u2_net/rsu4f/green_47/batch_normalization_47/FusedBatchNormV3/Offset", "shape": [256], "dtype": "float32"}, {"name": "StatefulPartitionedCall/U2NetOneOutput/u2_net/rsu6_1/pink_20/green_95/conv2d_95/Conv2D_weights", "shape": [3, 3, 64, 32], "dtype": "float32"}, {"name": "StatefulPartitionedCall/U2NetOneOutput/u2_net/rsu6_1/pink_20/green_95/conv2d_95/Conv2D_bn_offset", "shape": [32], "dtype": "float32"}, {"name": "StatefulPartitionedCall/U2NetOneOutput/u2_net/rsu6_1/pink_21/green_96/conv2d_96/Conv2D_weights", "shape": [3, 3, 64, 32], "dtype": "float32"}, {"name": "StatefulPartitionedCall/U2NetOneOutput/u2_net/rsu6_1/pink_21/green_96/conv2d_96/Conv2D_bn_offset", "shape": [32], "dtype": "float32"}, {"name": "StatefulPartitionedCall/U2NetOneOutput/u2_net/rsu4f/green_46/batch_normalization_46/FusedBatchNormV3/Scaled", "shape": [256], "dtype": "float32"}, {"name": "StatefulPartitionedCall/U2NetOneOutput/u2_net/rsu6_1/pink_22/green_97/conv2d_97/Conv2D_weights", "shape": [3, 3, 64, 64], "dtype": "float32"}, {"name": "StatefulPartitionedCall/U2NetOneOutput/u2_net/rsu6_1/pink_22/green_97/conv2d_97/Conv2D_bn_offset", "shape": [64], "dtype": "float32"}, {"name": "StatefulPartitionedCall/U2NetOneOutput/u2_net/rsu4f/green_46/batch_normalization_46/FusedBatchNormV3/Offset", "shape": [256], "dtype": "float32"}, {"name": "StatefulPartitionedCall/U2NetOneOutput/u2_net/rsu7_1/green_98/conv2d_98/Conv2D_weights", "shape": [3, 3, 128, 64], "dtype": "float32"}, {"name": "StatefulPartitionedCall/U2NetOneOutput/u2_net/rsu7_1/green_98/conv2d_98/Conv2D_bn_offset", "shape": [64], "dtype": "float32"}, {"name": "StatefulPartitionedCall/U2NetOneOutput/u2_net/rsu7_1/green_99/conv2d_99/Conv2D_weights", "shape": [3, 3, 64, 16], "dtype": "float32"}, {"name": "StatefulPartitionedCall/U2NetOneOutput/u2_net/rsu7_1/green_99/conv2d_99/Conv2D_bn_offset", "shape": [16], "dtype": "float32"}, {"name": "StatefulPartitionedCall/U2NetOneOutput/u2_net/rsu4/green_40/batch_normalization_40/FusedBatchNormV3/Scaled", "shape": [128], "dtype": "float32"}, {"name": "StatefulPartitionedCall/U2NetOneOutput/u2_net/rsu7_1/blue_23/green_100/conv2d_100/Conv2D_weights", "shape": [3, 3, 16, 16], "dtype": "float32"}, {"name": "StatefulPartitionedCall/U2NetOneOutput/u2_net/rsu7_1/blue_23/green_100/conv2d_100/Conv2D_bn_offset", "shape": [16], "dtype": "float32"}, {"name": "StatefulPartitionedCall/U2NetOneOutput/u2_net/rsu7_1/blue_24/green_101/conv2d_101/Conv2D_weights", "shape": [3, 3, 16, 16], "dtype": "float32"}, {"name": "StatefulPartitionedCall/U2NetOneOutput/u2_net/rsu4/green_40/batch_normalization_40/FusedBatchNormV3/Offset", "shape": [128], "dtype": "float32"}, {"name": "StatefulPartitionedCall/U2NetOneOutput/u2_net/rsu7_1/blue_24/green_101/conv2d_101/Conv2D_bn_offset", "shape": [16], "dtype": "float32"}, {"name": "StatefulPartitionedCall/U2NetOneOutput/u2_net/rsu7_1/blue_25/green_102/conv2d_102/Conv2D_weights", "shape": [3, 3, 16, 16], "dtype": "float32"}, {"name": "StatefulPartitionedCall/U2NetOneOutput/u2_net/rsu7_1/blue_25/green_102/conv2d_102/Conv2D_bn_offset", "shape": [16], "dtype": "float32"}, {"name": "StatefulPartitionedCall/U2NetOneOutput/u2_net/rsu7_1/blue_26/green_103/conv2d_103/Conv2D_weights", "shape": [3, 3, 16, 16], "dtype": "float32"}, {"name": "StatefulPartitionedCall/U2NetOneOutput/u2_net/rsu5/green_31/batch_normalization_31/FusedBatchNormV3/Scaled", "shape": [64], "dtype": "float32"}, {"name": "StatefulPartitionedCall/U2NetOneOutput/u2_net/rsu7_1/blue_26/green_103/conv2d_103/Conv2D_bn_offset", "shape": [16], "dtype": "float32"}, {"name": "StatefulPartitionedCall/U2NetOneOutput/u2_net/rsu7_1/blue_27/green_104/conv2d_104/Conv2D_weights", "shape": [3, 3, 16, 16], "dtype": "float32"}, {"name": "StatefulPartitionedCall/U2NetOneOutput/u2_net/rsu7_1/blue_27/green_104/conv2d_104/Conv2D_bn_offset", "shape": [16], "dtype": "float32"}, {"name": "StatefulPartitionedCall/U2NetOneOutput/u2_net/rsu5/green_31/batch_normalization_31/FusedBatchNormV3/Offset", "shape": [64], "dtype": "float32"}, {"name": "StatefulPartitionedCall/U2NetOneOutput/u2_net/rsu7_1/green_106/conv2d_106/Conv2D_weights", "shape": [3, 3, 32, 16], "dtype": "float32"}, {"name": "StatefulPartitionedCall/U2NetOneOutput/u2_net/rsu7_1/green_106/conv2d_106/Conv2D_bn_offset", "shape": [16], "dtype": "float32"}, {"name": "StatefulPartitionedCall/U2NetOneOutput/u2_net/rsu7_1/pink_23/green_107/conv2d_107/Conv2D_weights", "shape": [3, 3, 32, 16], "dtype": "float32"}, {"name": "StatefulPartitionedCall/U2NetOneOutput/u2_net/rsu7_1/pink_23/green_107/conv2d_107/Conv2D_bn_offset", "shape": [16], "dtype": "float32"}, {"name": "StatefulPartitionedCall/U2NetOneOutput/u2_net/rsu6/green_20/batch_normalization_20/FusedBatchNormV3/Scaled", "shape": [32], "dtype": "float32"}, {"name": "StatefulPartitionedCall/U2NetOneOutput/u2_net/rsu7_1/pink_24/green_108/conv2d_108/Conv2D_weights", "shape": [3, 3, 32, 16], "dtype": "float32"}, {"name": "StatefulPartitionedCall/U2NetOneOutput/u2_net/rsu7_1/pink_24/green_108/conv2d_108/Conv2D_bn_offset", "shape": [16], "dtype": "float32"}, {"name": "StatefulPartitionedCall/U2NetOneOutput/u2_net/rsu7_1/pink_25/green_109/conv2d_109/Conv2D_weights", "shape": [3, 3, 32, 16], "dtype": "float32"}, {"name": "StatefulPartitionedCall/U2NetOneOutput/u2_net/rsu6/green_20/batch_normalization_20/FusedBatchNormV3/Offset", "shape": [32], "dtype": "float32"}, {"name": "StatefulPartitionedCall/U2NetOneOutput/u2_net/rsu7_1/pink_25/green_109/conv2d_109/Conv2D_bn_offset", "shape": [16], "dtype": "float32"}]}]}